models/dqn_state_model200000.pt (torch, 21911 bytes, 6 tensors)

backbone.0.weight f4 [64, 8]
00000000: 9014 363f e6b7 333f b495 c7bd 0f57 373f
00000010: cef9 7f3e 54e2 823f 9617 6cbf bf6a cbbf
00000020: f887 bd3f b7a7 09be be91 1b3f 48e7 eebd
00000030: 7ca0 2dbf 882c e8be f153 7abf 8b39 b03d
00000040: c39c 033f 624f 013e acbb efbd 05b5 35bf
00000050: a068 cc3d 36ac bebf 2350 91bf b1a1 88bd
00000060: 9be4 08bf f006 7c3e 4117 80bf 8025 37bf
00000070: 6c6c 343f 4000 04be f54b 043d 845d d5be
00000080: e45d 673f 5429 f2bd 4f3e 743e 5940 0dbe
00000090: 8213 90bf 6f6b be3d c69b babf 1d80 e7be
000000a0: 4a61 413f ade5 0cbf 1846 19be 553d b7bd
000000b0: c526 223f 3448 b0be db48 d83e cbe7 d03e
000000c0: 3fb4 103f 44ea 85be 330c b4be dcb7 3abf
000000d0: d18d 64bd 9fe7 0ebf cef5 b83e 9cff c63e
000000e0: bb5b 6d3f d143 80bf d86f ed3f f156 69bf
000000f0: 39a7 88bf 0ae2 73be 7c18 5d3d 8214 1d3f
00000100: 4670 52bf 04c7 09c0 647d 083f 0093 b2bf
00000110: 237c 7bbf 9d53 17bf cf3d ec3e 1f56 e93e
00000120: 45d0 923f 4253 21bf 3758 843f d9b2 b3bf
00000130: 4208 b2bf 36de f63e 5b5b 91be c4ec 8b3e
00000140: 7470 05c0 e8d8 893b ad61 e5be 75bd 18bd
00000150: f8a9 973f 1850 a73c 7611 fb3d 0584 703d
00000160: 366b 21bf aa07 983e ac17 d5bd cfc5 97bd
00000170: 47ae 483e e148 9e3d 3e7d e3be 11ba b6be
00000180: e632 943d 0e21 cdbc e9f5 babf 53d9 17c0
00000190: 9043 f9be 1acb 943e 8b2e 913e 5346 4ebe
000001a0: 20bf 223f b69a 69bf 6c0d dcbe a445 b2bf
000001b0: ce42 ef3e 2d03 21bf fbf4 b5be ce95 47bf
000001c0: e1c5 96be d5ee ef3d d54c 01c0 72e3 b6bd
000001d0: 0d46 803e d72a e8be 8942 cabe 5c6d dabe
000001e0: b905 133f 30fe 4c3f 6eef 80be bd8f 203f
000001f0: 70ee 4ebe 3451 8cbf 777e 95bf 7f5d 96bf
00000200: 14b3 673f a656 853f 3997 27be c1b4 b63f
00000210: 7d12 2abe 50a0 463d acba d2bd 5531 ccbd
00000220: 0556 43bf 012e adbf fab4 7e3f 072f cabf
00000230: e3f9 41bf 5ac8 173e d949 1d3e 28fa 28be
00000240: 5cf7 923e f338 a5be d2ab b23e 230f 273f
00000250: 401c 4b3f c555 f4be 5f8f 45bf 3423 f7be
00000260: 7193 2ac0 8999 b43d df50 28bf 049e 6bbf
00000270: 7f86 103f be28 d73d fea5 3e38 84c3 853d
00000280: 61a4 a23e 26a2 a5bd 22d7 bc3f 4e66 d5bf
00000290: c9c1 8c3f a890 393c efa9 33be 9f49 293f
000002a0: 267a 763e cbc8 4fbe 2b4d 8fbf fe61 f43f
000002b0: 857b bd3f 5558 9dbf 59c2 05be ca2d 5ebf
000002c0: 2e29 15bf 29f2 a63d 3579 8a3e ed92 3d3d
000002d0: 6982 71be ec91 ed3d 22a4 c1bd 9699 3ebe
000002e0: b3ea f2bc 9b0c 313e f025 64bd 166a 153f
000002f0: 7263 a2be ec34 3d3e b876 d8bd 46ff 18be
00000300: 7e72 ab3e 95ac dfbd 0619 1a40 10da 4abe
00000310: e0c1 8bbe 4400 28bf c8f9 af3e 7ba2 61bc
00000320: bfe7 b2be dd6e 1e3f ff14 103f f2c6 f2bf
00000330: 57c5 733f b49f de3e 1159 41be c2bd a0bf
00000340: a4d6 963e 371c 083f 1125 fc3e fabf 293f
00000350: fd6d c2bf 1c92 02c0 b99e 91bf 32c5 70be
00000360: b48e 1d3f 66fb c0be e181 9e3f 01c0 bfbf
00000370: 9043 b8bf bd59 71bf f498 a83d 2df5 08be
00000380: bc6f 023f a88c 9c3f f3a5 f43e 3554 1840
00000390: 66c2 f5bc 4038 9bbf f6fb a43c 504c 423f
000003a0: f7ff 953d 7f91 823f 69a7 c03d d2e4 a23f
000003b0: f145 703f 5e7a bcbf 8fad 6bbd 8ece c7bf
000003c0: 3f23 3c3f 7abd 87be c3d2 393f 16fa 31bf
000003d0: df71 a8bf 3a03 8abf 9294 1ebf 69a8 1fbf
000003e0: dd5f 913f 1d03 cb3e 0c14 2e3f 8fd7 91be
000003f0: 7269 3e3f efdb dcbe c437 ce3d d44c b83d
0.71125126 0.7020248 -0.097453505 0.71617216 0.24997637 1.022532 -0.9222349 -1.5891951
1.4807119 -0.13442884 0.6076926 -0.11665207 -0.67823005 -0.45346475 -0.97784334 0.086047255
0.51411074 0.12627938 -0.117057174 -0.7097934 0.09980893 -1.4896305 -1.1352581 -0.06671465
-0.53473824 0.24612021 -1.0007097 -0.71541595 0.7047794 -0.1289072 0.032299 -0.4167291
0.9037764 -0.11824289 0.23851894 -0.13794078 -1.1255953 0.09297835 -1.4578788 -0.4521493
0.75539076 -0.5503796 -0.14968145 -0.08947245 0.6334041 -0.34430087 0.42243084 0.40801844
0.56525034 -0.26155293 -0.35165557 -0.729368 -0.05579931 -0.55822176 0.36125034 0.3886689
0.92718095 -1.0020696 1.8549757 -0.9114829 -1.0676032 -0.23816696 0.05397843 0.6135942
-0.82202566 -2.152772 0.5331633 -1.3951111 -0.9823629 -0.5911196 0.46140906 0.45573518
1.1469809 -0.63017666 1.0339421 -1.4038955 -1.390877 0.48216408 -0.2839001 0.27329075
-2.0849886 0.0042067654 -0.44801083 -0.037290055 1.1848745 0.020423934 0.1225919 0.058719654
-0.63054216 0.29693347 -0.10404906 -0.07410776 0.19597732 0.07728744 -0.4443149 -0.35688832
0.072362706 -0.025040176 -1.4606296 -2.3726394 -0.4868436 0.29061204 0.28355822 -0.20144014
0.63572884 -0.91251695 -0.4297899 -1.3927503 0.46730655 -0.6289547 -0.35538468 -0.7796296
-0.29447845 0.117154755 -2.0203145 -0.089301005 0.25053445 -0.45345184 -0.39503887 -0.4266156
0.5743061 0.8007536 -0.2518267 0.6271933 -0.20208144 -1.0962281 -1.1679219 -1.1747283
0.90507627 1.0417068 -0.1636628 1.4273912 -0.16608615 0.04849273 -0.10289511 -0.09970347
-0.7630313 -1.3529664 0.994949 -1.5795602 -0.7577192 0.14822522 0.15360202 -0.16501677
0.28704345 -0.3227001 0.34896713 0.6525747 0.7933998 -0.47721687 -0.7717189 -0.48269045
-2.665249 0.08818347 -0.657484 -0.9203799 0.56455225 0.10505818 4.5454122e-05 0.06531432
0.31766036 -0.08087568 1.4753153 -1.6671846 1.0996639 0.011325993 -0.17545293 0.6612796
0.24070033 -0.2029144 -1.1195425 1.9092405 1.480332 -1.2292582 -0.13062419 -0.8678862
-0.5826596 0.08151657 0.270456 0.046282697 -0.23584904 0.11600098 -0.09455134 -0.18613276
-0.029652929 0.17289965 -0.055700243 0.58365 -0.31716496 0.1847722 -0.10569519 -0.14941129
0.33485788 -0.10921589 2.4077773 -0.19809747 -0.27296352 -0.65625405 0.34370255 -0.0137716485
-0.34942433 0.61887914 0.5628204 -1.8966963 0.9522299 0.4348122 -0.18881632 -1.255791
0.29460633 0.5316805 0.4924703 0.6630856 -1.5189816 -2.0401678 -1.1376563 -0.23512724
0.6154587 -0.37691802 1.2383386 -1.498047 -1.4395618 -0.94277555 0.082322985 -0.13374777
0.50951743 1.2230425 0.4778286 2.3801396 -0.029999923 -1.2126541 0.020139676 0.75897694
0.07324212 1.0200652 0.09406931 1.272608 0.9385672 -1.4724844 -0.057538565 -1.560991
0.7349128 -0.26511747 0.7258722 -0.69522226 -1.3159751 -1.0782235 -0.6194545 -0.6236635
1.135738 0.39650813 0.6799934 -0.2848477 0.74379647 -0.43136546 0.1006923 0.08999029

backbone.0.bias f4 [64]
00000000: 8882 d23e 66d3 06be 7d95 3bbf 8035 b13e
00000010: 56a9 f83e c224 b5be f1dd 3b3f 7ae3 20bf
00000020: 8cb4 cabe 49f5 943f 30a5 eabd cc69 733f
00000030: 55aa a83a 43e9 843d 8add af3e c852 503f
00000040: bebf 843e 76ef b03f 8838 d83e a786 7abe
00000050: 5480 ab3e 1e42 473f 74fd 513f e055 443f
00000060: e49e abbd f9b6 93be 238a fc3d 8e27 843f
00000070: 251f 093f cd51 fe3e 6030 09bf 8716 613e
00000080: be1b f43e e9bc d93e 4694 203f b4de 843e
00000090: cd34 a13f 1033 893e b9d8 1abf fdf4 32be
000000a0: 3b4c a23f b585 963f 09b7 0bbd f70f ae3c
000000b0: 91e6 553e 8a43 403f 1a1d 643d 33ea 543f
000000c0: ada1 0a3f 42f5 633f 5b2e 3a3f a0bd 10bf
000000d0: dc5c 43bf 7368 afbc d627 4b3e 3d42 b03d
000000e0: 47b7 3bbe 87ad 47bf c577 f0be c22c a5bf
000000f0: 62c1 6d3e 009c 6a3f 1643 263f 4d48 22bd
0.41115212 -0.1316658 -0.73274976 0.3461113 0.48566693 -0.35379606 0.7338553 -0.628471
-0.3959087 1.1637355 -0.11457288 0.9508331 0.0012868146 0.06489804 0.34348708 0.81376314
0.25927538 1.3823078 0.4223063 -0.24465428 0.33496344 0.7783526 0.82027364 0.76693535
-0.08379915 -0.28850535 0.12331035 1.0324571 0.5356315 0.49671784 -0.5358944 0.2198125
0.47677416 0.4252694 0.6272625 0.2595116 1.2594239 0.2679677 -0.6048694 -0.17476268
1.2679514 1.1759554 -0.034110103 0.021247847 0.20888735 0.75103056 0.055691816 0.8316986
0.5415295 0.8904611 0.7272698 -0.56539345 -0.7631357 -0.02141211 0.19839415 0.08606384
-0.18331634 -0.77999157 -0.46966377 -1.2904284 0.23218301 0.9164429 0.64946115 -0.039619733

backbone.2.weight f4 [64, 64]
00000000: 10ee 14bd 36e5 273d 072a bbbd 017b 95bd
00000010: df70 7f3d a00d dfbd ab7c b73a 56af 853d
00000020: b6db c3bc 1551 743c 0e86 e9bd c39a 84bc
00000030: 8f0d 23bd 4895 893c a110 0e3d f6d0 763d
00000040: ae7e febd 27f8 1bbd 54d0 7fbd c592 0ebe
00000050: b45f 53bd 82c6 fdbd 566b 283d b47e e6bc
00000060: 7f65 b9bd 4dc3 153d bd48 17be 92dc b9bd
00000070: a563 57bd 617b 0abe 2d42 fabd 4970 0cbd
00000080: 630a 603d 34ff d43d 228a 143d 3914 efbd
00000090: 0627 05be 6ef9 c23d 3977 f83c d004 c2bc
000000a0: 2352 42bc 53ed 18be 76d1 63bd 20bd 973d
000000b0: 288d fcbc e078 cdbb 2931 07be 3632 efbd
000000c0: 8ea6 86bc 3b04 ffbd aa42 87bd f45c 503d
000000d0: 9e6c 0bbe 839a 9abb f044 a9bd d4e1 79bd
000000e0: 19a6 ae3b a711 6d3d 1cef 0bbd 1c36 52bd
000000f0: 0cca 1ebe 524c bdbd 9800 21be 5b0d 2ebd
00000100: 63c7 373e 619f 54be 1c43 07bf 920a 623e
00000110: 325f 393d d51a adbe 173c 24bf 927b 28be
00000120: e212 54bf 90b3 6a3e 9ca8 8b3e 0e38 8b3c
00000130: a277 a2bf e7a5 0ebf 83d5 dfbd 1655 323f
00000140: 771e 7fbe 8a29 a5bf 9e8a 3abe 86b2 dc3e
00000150: f77e be3e 02fa 45be a5c1 893e 49b6 203f
00000160: f605 f0be 1d32 cfbf 8b11 833e fc72 073f
00000170: a3ab 083c 1540 33be 0a70 263f b985 7c3e
00000180: b482 77bf 9eac 0d3f 4cef 053f 5239 27c0
00000190: ddc8 ef3e d695 d9bd 3942 51bf 6163 59bf
000001a0: 577e e13e fb79 ce3e 0bbf 08c0 70fb e53d
000001b0: 0dfc ccbe fe2c c43e de71 113f 6635 6e3e
000001c0: 93dd 1ebd be1e 0a3f 945b 513e efc9 e9be
000001d0: d258 a3bf 2273 b03e f025 b53d 7dfe a0be
000001e0: 4ac2 3f3c 3f04 25be 1dc9 f9bf aca8 833e
000001f0: d4b0 b7bf 766c f33d 5172 dd3e 8e26 60bf
00000200: db41 52bf 0d7d 81be 636f dc3e 4857 34bf
00000210: f3c2 ba3e 9675 4cbe 2200 9c3d dd29 be3f
00000220: a351 ba3f 49ba 98be dc43 033f 45f1 61bf
00000230: ea54 3b3e 8370 1c3f 2119 06bd cbf7 97be
00000240: f3a4 2cbe 8e1d 1cbe b8ab 3d3f c62e 9ebe
00000250: 9196 3b3e 7f70 5abe 99d0 2fbd 8407 a3be
00000260: 0105 a73e cdb1 9cbf 4ae7 0140 cc82 303f
00000270: 6879 49c0 d8f2 3fbf 6cbc ea3f ec22 0c3f
00000280: 65a8 2bbe 06a3 bdbc 4010 c83e 2eee 8abe
00000290: 31d5 b5bf 6594 2bbf 5c66 49be 9fa6 183f
000002a0: bff0 46bf 0a6f 5abf cf00 153f 4605 933f
000002b0: 9227 0d3f a583 c53f 3da1 d8bf a007 7b3e
000002c0: aa31 013e 6e3f 20be b83f b6bf 51c1 f1bf
000002d0: dba1 ffbe 3276 b93d 02e2 3cbf c5d2 203f
000002e0: 9a18 893f 194a 0140 38b1 eebd 4164 82be
000002f0: 1868 023f a097 bcbd bcde ae3d f4ca a7bd
00000300: dc52 05bf 8529 e93e b181 0c3f 664a 873e
00000310: 22bb 8cbc 1ca7 80bd f76f a73e a0af 933f
00000320: 9bf8 063f c134 0abd bd5a c3bd 6510 a4be
00000330: d64f 473d 09a4 323e 5dec 253f a001 f9be
00000340: fba1 4e3e c387 42bf 69eb 8d3f 069c aa3e
00000350: 2e60 97bd ab4d 6d3f 8723 133d cad4 bd3e
00000360: f15d 323f d5e7 cabf 5c34 2440 8c01 193f
00000370: 5104 f8bf f78e 25bf 5436 a53f 17d8 e13e
00000380: 2da1 59be 5055 033f 038b 453f 769a ea3d
00000390: 08cd 96bf 8794 833d 1e8b 84be 8681 73bf
000003a0: cfcc 3cbe 12b7 a3be 3d09 04bd c413 103f
000003b0: 60e0 663f ca2b 3b3f 2b10 80bf 35d2 8c3e
000003c0: 859d 813f 331f 093f 47cf bdbf a816 9cbe
000003d0: 0f9d fc3e ed02 163e c132 10bf 9308 bf3e
000003e0: a9c5 463f 14f0 863f 3ba8 65be 6fb9 6c3f
000003f0: 262d 193f 9dd3 973e a517 163f ecb3 0b3e
-0.036359847 0.040990077 -0.091388755 -0.07298852 0.0623635 -0.10891271 0.0013998946 0.06527583
-0.023908477 0.01491191 -0.11402522 -0.016187077 -0.039807852 0.016794816 0.034683827 0.060257874
-0.12426506 -0.038078453 -0.062454537 -0.13923176 -0.05160494 -0.12391378 0.04111799 -0.028136589
-0.09052562 0.036563206 -0.14773841 -0.090752736 -0.052585263 -0.13523628 -0.12219653 -0.03428677
0.054697406 0.10400239 0.036264546 -0.11673779 -0.13003168 0.09520231 0.030330287 -0.023683935
-0.011860403 -0.14934282 -0.05561968 0.074091196 -0.030829027 -0.006270513 -0.13202347 -0.11679499
-0.016436841 -0.12451979 -0.06604512 0.050869897 -0.13615653 -0.0047181263 -0.08265102 -0.061006382
0.005329859 0.057878163 -0.03416358 -0.051321134 -0.15506762 -0.092430726 -0.15722883 -0.042493206
0.17947154 -0.20763923 -0.52836776 0.22074345 0.0452568 -0.33809534 -0.6415419 -0.16453388
-0.8284131 0.2292006 0.27277076 0.016994502 -1.2692759 -0.55721897 -0.10929396 0.6966108
-0.24913965 -1.2903302 -0.18216941 0.43104953 0.3720624 -0.19333652 0.26905552 0.62778145
-0.46879548 -1.6187168 0.25599322 0.5290983 0.008341703 -0.17504914 0.6501471 0.24660386
-0.9668381 0.5534152 0.52318263 -2.6128736 0.46832934 -0.10624282 -0.8174167 -0.84917265
0.44041702 0.4032744 -2.1366603 0.112295985 -0.4003605 0.38315576 0.5681437 0.23262557
-0.03878553 0.5395316 0.2044509 -0.45661876 -1.2761481 0.3446284 0.08845127 -0.3144416
0.011704037 -0.16114901 -1.95145 0.25714624 -1.4350839 0.11885922 0.4325128 -0.8755883
-0.8213174 -0.2529072 0.4305373 -0.7044568 0.3647686 -0.1996673 0.07617213 1.4856526
1.4556164 -0.29829624 0.5127542 -0.88258773 0.18294111 0.6110918 -0.03273881 -0.2968124
-0.16859798 -0.15245649 0.74090147 -0.3089506 0.18319155 -0.21331976 -0.042923544 -0.3184167
0.32621005 -1.224176 2.0297418 0.6894958 -3.148035 -0.74979925 1.8338752 0.54740787
-0.16763456 -0.023149025 0.39074898 -0.27134842 -1.4205686 -0.6702331 -0.19667953 0.59629244
-0.777111 -0.8532568 0.5820436 1.1485984 0.55138505 1.54308 -1.6924206 0.24514627
0.12616602 -0.15649197 -1.4238195 -1.888712 -0.49928173 0.09055747 -0.7378236 0.6282161
1.0710633 2.0201476 -0.116548955 -0.25467113 0.50940084 -0.09208608 0.08538577 -0.08193007
-0.5207956 0.4553949 0.54885393 0.2642395 -0.017179076 -0.062818736 0.3270261 1.1537971
0.5272309 -0.033741716 -0.09538791 -0.32043758 0.04866012 0.17445387 0.64813787 -0.48634052
0.20178978 -0.75988406 1.1087466 0.3332216 -0.07391392 0.92696637 0.035922553 0.37076408
0.69674593 -1.5852 2.5656958 0.59767985 -1.9376317 -0.6467127 1.2907205 0.44110176
-0.2125289 0.5130205 0.7716524 0.11455242 -1.178132 0.06424814 -0.25887388 -0.9511951
-0.18437503 -0.3197561 -0.032235373 0.5628016 0.9018612 0.7311369 -1.0004934 0.27504125
1.0126196 0.5356323 -1.4828881 -0.30486035 0.49338576 0.14649554 -0.56327444 0.3731123
0.77645355 1.0542016 -0.22427456 0.9247045 0.59834516 0.29653636 0.5862983 0.13642853

backbone.2.bias f4 [64]
00000000: 1d06 d93c 7cd7 a7bd 8d0b 3f3e c55a 2f3d
00000010: 3c19 c13e 897b 0d3f 12cb 12be 9b39 a83f
00000020: d3d8 c6bd 127c f9bd 75fd 08bf 612b 1b3e
00000030: 2e4d 8d3e 78c4 25be fae6 283f 8a08 3d3f
00000040: e681 00be 6324 0f3e cf89 ac3e bd12 993e
00000050: 1e8e 073e 693c 60be 3642 353f 14bd 003e
00000060: 39ab 503e c465 db3e 9246 2c3e 0a71 803d
00000070: 3091 913f 2131 b23d ccaa fc3e 38f9 453e
00000080: 8ec8 613d 3e87 503d a539 09bc e997 e63d
00000090: 1698 e33d d558 b13e 07e6 a33e 1349 9abc
000000a0: 1a13 3dbe 79d9 2dbd c028 153f b969 83bd
000000b0: ad9b 24be 3a41 36bf 3727 0c3d 3ec4 d23f
000000c0: f69c 483d 35ba ee3c 4acc 713d 43c6 60bd
000000d0: a79b 793e 9781 4d3d a59c aebe cec1 84bc
000000e0: 760f 6c3e 2705 923e 4eef ed3e 8352 9b3d
000000f0: 2789 0dbd 8d96 9e3e 7bba 40be cc11 0a3f
0.026492173 -0.08195397 0.1865675 0.042811174 0.37714565 0.55266625 -0.14335278 1.314258
-0.09709325 -0.12181868 -0.53511745 0.15153266 0.27597946 -0.16188228 0.6597744 0.73841155
-0.12549552 0.13978724 0.3369889 0.2989711 0.13237807 -0.21898045 0.70804155 0.12572128
0.20377816 0.4285108 0.16823795 0.062715605 1.1372433 0.08700777 0.49349058 0.1933335
0.055122904 0.050910227 -0.00837556 0.11259443 0.111129925 0.34638086 0.32011434 -0.018833673
-0.18464318 -0.042443726 0.58265305 -0.06416649 -0.1607501 -0.7119328 0.034217086 1.6466138
0.048977815 0.029141525 0.059032716 -0.054876577 0.24375783 0.050172415 -0.34103885 -0.016205695
0.23052773 0.28519556 0.46471637 0.07584097 -0.034554627 0.30974236 -0.18821137 0.53933406

backbone.4.weight f4 [4, 64]
00000000: bca1 b33d c190 98bf 1196 4cbf 546c 26bf
00000010: 3934 54bf 1a36 1040 1339 143d e82e fc3f
00000020: 2c29 63bd 280c 71bf 955a 3fbf 1d9e 53bf
00000030: 6e7a 08bc c831 153c 0fb4 e1be 0628 d7bf
00000040: 6082 abbc 42f0 e9be 55cc 54bf 10ce 103e
00000050: bb84 18bf ee84 2bbf 23c6 d63f 4264 b43f
00000060: 4a36 debe 6942 9dbf 5367 f7be 48a8 10bf
00000070: 7078 67be 6047 b1bf 50fd 0d40 fcd8 adbf
00000080: 9c05 053d 7f54 24bf a8d1 0dbe ae78 e8be
00000090: c369 44bf 3dc8 87bf 4402 57bf d784 f2bf
000000a0: bb1a 663d 18a5 68bf 5379 543f 0a2c 06bf
000000b0: b3e7 89be f067 1fbf 866e 09bf d886 eb3f
000000c0: 3383 3fbf 23fd 8cbe f03d 23bf bc43 85bd
000000d0: eba5 1e40 2531 fbbd a6a6 19bf 40ed 87bd
000000e0: 4f72 81bf 99d1 69bf cca8 b63f 8f10 0abd
000000f0: 1489 2dbd a17a 87bf 4af0 e7bd 04a6 b33f
00000100: 461d d6bd 3aed 1abf 194e 52bf 5dfb 95be
00000110: 6332 78bf 92ae ee3f 85e1 3c3d 2cf6 0e40
00000120: 12dc a7bd 3f37 6bbe a477 6cbf 8f67 64bf
00000130: 29b5 e5be e565 7c3c 06b4 e4be 6ad0 a3bf
00000140: 96d9 df3d b0f0 e4be 3a4d 65bf e94f e43e
00000150: 086c 18bf d411 10bf 1f1c c53f 85ed c13f
00000160: 0c71 a0be 9674 cabf d2e7 1abf 3203 03bf
00000170: 83da 48bf 3ab6 b8bf f0ee 1840 232b 8bbf
00000180: db2c 64bc de96 47bf 84f4 c53d 5e53 a8be
00000190: 60d4 82be cc0b 02bf f5b9 0dbf 8825 35c0
000001a0: e343 493d d04f 8cbf 3537 5f3f 5b57 4abf
000001b0: 5c2e 94bf 0524 37bf f45a 2fbf 2978 d53f
000001c0: e459 8abf aee8 80bc a6c5 9cbf 6578 143e
000001d0: 37e6 0d40 3a8a 203d 0781 cfbe 40b0 763d
000001e0: b13b 46bf 54e2 1cbf 93e3 d33f d0a4 0d3d
000001f0: 2c42 a0bb ce29 7dbf 5a3e 8a3b e643 a63f
00000200: 8492 673d 265f 21bf 06fd 6ebf b650 b5be
00000210: 79e0 b0bf ffeb 2040 0822 0e3d 0e06 0740
00000220: 0240 b33c f2a4 37be 4574 acbf cdc1 0c3f
00000230: f6df 1f3f 6144 673d 8166 39bf 58c8 cbbf
00000240: 8a73 2a3d f469 26bf 583a 2dbf c2e9 03bf
00000250: 339b 41bf 9c20 3bbf 931a c73f e9d6 263f
00000260: 08e3 38bf 013c bbbf 44e4 20bf 3a0f 3bbf
00000270: 169f c6be 31d2 9ebf a9a1 fd3f ba18 aebf
00000280: 01d4 723d e3f5 16be 9530 083c 9baf 34bf
00000290: 5eb8 62bf 1ca6 a3bf b0f8 4fbf 983b e1bf
000002a0: b697 b03d 394f 4dbf a8cb a33f 84e7 14bf
000002b0: 7bea 70bf 0e8a a9be 7c46 9bbf fedf df3f
000002c0: 4561 4ebf 2932 89bf 8e49 38bf 25b9 27be
000002d0: 35bf 2940 54b1 eebd 3f0c 99bd 7a59 afbd
000002e0: 3df5 24bf 9cbe 5ebf 01fa 8c3f ebf7 833d
000002f0: 3843 bc3c 8376 80be 32b8 753d d866 cb3f
00000300: 01ca aa3d 8096 9ebf 439d fdbe f5ee 16bf
00000310: df35 4bbf 7b44 f43f fb5b 00be bb2f d23f
00000320: 6099 a23c a3e0 51bf 26c2 9fbf cd33 88be
00000330: ffc0 00be 5682 15bd b687 9dbe 05e5 b6be
00000340: e808 a43d 3d09 e9be cee1 2fbf 8db7 08bf
00000350: 64d7 07bf 7788 a9bf a2e3 d03f bee7 0740
00000360: 9dc5 e7be 89ab b3bf 5f6a d1be 0c5b d9be
00000370: a40e 043f 00b7 b8bf b6d6 0340 6082 c6bf
00000380: 98a0 c53c efff 2dbf 858a 75bd 3aa4 aebe
00000390: caf4 f5bf eb9c f6bf 3bf0 b1bf 5213 81bf
000003a0: c7fc bebc 49d2 35bf b6f1 a63e 7501 db3f
000003b0: 0c27 e73d 5a31 cdbe 388d 79bf 29a5 1940
000003c0: ed1e 03bf a934 63be 66c4 9ebf 2b7b 0f3e
000003d0: 6e21 0e40 6f3b 0b3d 2c4a 4abf 5c0b f1bd
000003e0: 23b1 6ebf 52e8 40bf f28a d53f 0013 e2bd
000003f0: 94e5 c53d 8970 79bf 89e2 acbd 92d4 b83f
0.08771083 -1.1919175 -0.79916483 -0.65009046 -0.82892185 2.253302 0.036187243 1.9701815
-0.055459186 -0.94159174 -0.7474759 -0.82663137 -0.008329971 0.009106107 -0.44082686 -1.6809089
-0.020936191 -0.45691115 -0.83124286 0.14141107 -0.5957753 -0.6699971 1.6779217 1.4093096
-0.43400794 -1.2285892 -0.48321018 -0.56506777 -0.22604537 -1.3849907 2.218586 -1.3581843
0.032476053 -0.6419143 -0.13849509 -0.4540457 -0.7672388 -1.0607983 -0.8398783 -1.894679
0.056177836 -0.90876913 0.82997626 -0.5241095 -0.26934585 -0.6226797 -0.5368427 1.8400526
-0.7480957 -0.27536878 -0.63766384 -0.0650706 2.4788768 -0.12265233 -0.6001991 -0.06637049
-1.0113009 -0.91335446 1.4270263 -0.033707198 -0.042367056 -1.0584298 -0.113251284 1.4035039
-0.10454802 -0.6051823 -0.8215042 -0.29293337 -0.96951884 1.8647025 0.04611351 2.2337751
-0.08196272 -0.22970293 -0.9237006 -0.8922052 -0.44864777 0.015405153 -0.44668597 -1.2797978
0.10930173 -0.4471488 -0.89570963 0.44592217 -0.5953984 -0.56277204 1.5399207 1.515061
-0.31336248 -1.5816829 -0.6050998 -0.5117675 -0.7845842 -1.4430611 2.3895836 -1.0872539
-0.01392671 -0.7796458 0.09665778 -0.32876104 -0.25552654 -0.5079925 -0.5536187 -2.8304157
0.049137007 -1.0961857 0.87193614 -0.79039544 -1.1576648 -0.71539336 -0.6849816 1.6677295
-1.0808682 -0.01573595 -1.2247818 0.14499052 2.2171762 0.039194323 -0.40528128 0.06022668
-0.7743483 -0.6128285 1.6553825 0.034581006 -0.004890701 -0.98891914 0.0042188587 1.2989471
0.056536213 -0.6303581 -0.93354833 -0.3541314 -1.3818504 2.514404 0.034700423 2.1097445
0.021881107 -0.17934015 -1.3472983 0.54983217 0.6245111 0.056461696 -0.72422034 -1.5920515
0.041614093 -0.6500542 -0.6766715 -0.5152856 -0.7562744 -0.7309663 1.5554985 0.65171677
-0.7222142 -1.4627687 -0.62848306 -0.7307011 -0.38793248 -1.2407895 1.981496 -1.3601296
0.059284214 -0.14742236 0.008312364 -0.7058045 -0.8856257 -1.2785068 -0.8123884 -1.7596312
0.086226866 -0.8019901 1.2796526 -0.58165765 -0.9410779 -0.3311314 -1.2130885 1.7490232
-0.8061717 -1.0718433 -0.71987236 -0.16379221 2.6522954 -0.116549164 -0.07473039 -0.08561988
-0.64436704 -0.87009597 1.1013795 0.06443771 0.022981271 -0.25090417 0.059990115 1.589076
0.083393104 -1.2389679 -0.49534044 -0.5895837 -0.79379076 1.9083399 -0.12535088 1.6420816
0.019848526 -0.81983393 -1.2481124 -0.2660202 -0.12573622 -0.03650125 -0.30767602 -0.35721603
0.08009511 -0.4551486 -0.68703926 -0.53405076 -0.53063035 -1.3244771 1.6319468 2.1235194
-0.45267954 -1.4036723 -0.40901467 -0.42452276 0.5158484 -1.4430847 2.05998 -1.5508537
0.024124429 -0.6796865 -0.059946556 -0.3410967 -1.9215329 -1.9266638 -1.3901438 -1.0084021
-0.023313893 -0.71023995 0.32606286 1.710982 0.112867445 -0.40076715 -0.9748111 2.4007056
-0.51219064 -0.22188057 -1.2403686 0.14011829 2.2207904 0.033992227 -0.7901943 -0.11769745
-0.9323904 -0.7535449 1.6683028 -0.1103878 0.09662929 -0.9743734 -0.08441646 1.4439871

backbone.4.bias f4 [4]
00000000: 5723 aa3f 1cfa 04bf 8977 cf3e 3b12 b43f
1.3292035 -0.51944137 0.40520886 1.4068063
