models/dqn_state_model150000.pt (torch, 21911 bytes, 6 tensors)

backbone.0.weight f4 [64, 8]
0.7573312 -1.0087547 -0.34579897 1.8623618 -0.887667 0.741853 0.14435172 0.9104922
-0.16986859 -0.58734334 -0.39445382 -1.7498543 -0.30029473 0.05470969 -0.17147432 0.09948544
1.2000686 0.0856816 0.39335337 0.15919133 0.22610123 -0.8279402 -0.6228478 0.02918888
-0.42361414 -0.07843316 -1.4482156 -0.5281197 0.33577436 -0.82102585 0.5764064 0.40054768
1.947136 0.49349472 0.4064865 0.24086685 -0.18005551 0.18357125 0.06854836 -0.06802924
0.7587019 0.08184672 0.745354 1.3848417 0.010413513 -0.49366906 0.0707015 -0.48609242
0.9084991 0.0784739 0.4791464 -1.1884326 -0.22519788 0.8198337 0.039759442 0.7578897
-0.35880724 0.48676792 -0.29723448 -1.3141648 1.3122413 -0.23700708 0.3212104 -0.57535756
0.33818445 -0.44253576 0.83445114 -0.762294 -0.81632143 -1.007232 0.12955628 0.4632853
0.6839351 0.11021919 -1.6134793 -0.80200684 -0.23295811 0.42460072 0.32850957 -0.5094976
-1.7535144 -0.7532931 -1.0862688 -0.7450894 0.72180694 0.3464201 0.43053138 0.003267973
-0.60199565 -0.089642055 -0.34648758 -0.6505213 0.55194575 1.2641127 0.6452291 -0.14051276
0.03937154 -0.06931557 -2.9274616 -0.5220654 -0.18788874 0.49205256 0.06253606 0.15634318
0.5108143 0.25261548 -0.019745499 0.3035071 -0.047436003 -1.1783185 -0.4254849 -0.90775967
0.8140432 -0.20638159 -1.0351567 -0.9439703 0.49347603 -0.07194556 -0.08399742 -0.5053076
-1.2808032 -0.32628164 -0.8972964 -0.9550523 -0.8292694 0.025116775 0.019771202 0.063640036
1.1431025 -0.7727295 1.225469 -0.3406062 -0.48059782 -0.017724762 -0.022897974 0.008076973
-1.7574015 -0.8718175 0.007898399 -0.6157967 -0.23545514 -0.36415124 0.4168216 -0.021924218
0.5721654 -0.15602015 0.85189694 1.3625323 1.421947 0.1714307 0.17957066 0.646108
0.35626927 -0.79517674 -0.5958792 -1.3583137 0.18257816 0.21031901 0.57318985 -0.009160873
1.4876863 0.512884 0.14781648 -0.8171585 -1.1074157 -0.24952911 -0.0034467303 0.21474135
-0.4605994 -0.055661574 0.973209 -0.0780304 2.0438573 0.86931986 0.52115494 0.42966214
0.13738546 0.029995827 0.8620661 -1.9175539 0.14784867 0.307494 0.025784409 -0.22812995
1.0959934 0.5091731 0.6709825 -0.94734734 0.025323613 0.27962086 -0.21265113 -0.061675366
0.8556615 0.0970711 0.33308282 0.100094065 0.35688192 0.48463947 0.8615796 0.55434865
-0.8673083 -0.20105778 -0.17792685 -0.18895182 -0.4044496 -0.6429009 -0.21721004 -1.0445162
0.28825575 -0.2843613 0.35420915 -0.72195464 -1.2209213 -0.9970024 -0.5059714 0.7098596
-0.67864984 -0.77244043 -0.07001248 -0.80220973 -1.5250522 0.26462996 -0.52922285 -0.011591432
-0.28770155 0.55931985 -0.7597038 -0.20029639 -0.802064 -1.331793 -1.3072402 -0.021575091
-0.38910657 0.88453007 0.042257074 0.71827155 0.27723888 -1.242947 -1.1022576 -0.95034796
0.97797185 -0.15144229 0.5424463 -0.2196473 0.26171854 -0.8546256 -1.0445937 0.14628269
-0.15798047 -0.54997134 -2.434508 -1.4787697 0.67711574 -0.6689582 0.06874212 0.0415575
00000000: 75e0 413f e01e 81bf 900c b1be df61 ee3f
00000010: 253e 63bf 14ea 3d3f f0d0 133e 0416 693f
00000020: 08f2 2dbe 225c 16bf daf5 c9be 3afb dfbf
00000030: 3bc0 99be 4517 603d f796 2fbe 06bf cb3d
00000040: d99b 993f d679 af3d 9d65 c93e 0d03 233e
00000050: 1587 673e e4f3 53bf f472 1fbf 851d ef3c
00000060: f4e3 d8be 91a1 a0bd 215f b9bf da32 07bf
00000070: 9eea ab3e c02e 52bf 5f8f 133f 9614 cd3e
00000080: c13b f93f 57ab fc3e 001f d03e cda5 763e
00000090: 7960 38be 1afa 3b3e 1563 8c3d ea52 8bbd
000000a0: 4a3a 423f 419f a73d 85cf 3e3f 7e42 b13f
000000b0: 709d 2a3c 31c2 fcbe f3cb 903d 1be1 f8be
000000c0: 6693 683f edb6 a03d ad52 f53e 8f1e 98bf
000000d0: 469a 66be 9fe0 513f ccda 223d 0f05 423f
000000e0: 95b5 b7be a539 f93e 1e2f 98be 8d36 a8bf
000000f0: 86f7 a73f fcb1 72be b175 a43e a24a 13bf
00000100: 8326 ad3e 0c94 e2be 979e 553f b325 43bf
00000110: 71fa 50bf faec 80bf 67aa 043e bb33 ed3e
00000120: 5f16 2f3f 99ba e13d 7d86 cebf 5250 4dbf
00000130: 928c 6ebe 4465 d93e 6832 a83e 6f6e 02bf
00000140: 2973 e0bf d1d7 40bf db0a 8bbf 2ebe 3ebf
00000150: 57c8 383f fa5d b13e 9c6e dc3e 7d2b 563b
00000160: 631c 1abf 4196 b7bd d266 b1be 9088 26bf
00000170: 514c 0d3f 72ce a13f bc2d 253f 94e2 0fbe
00000180: 0d44 213d 52f5 8dbd 885b 3bc0 14a6 05bf
00000190: e865 40be 50ee fb3e e812 803d 6d18 203e
000001a0: bac4 023f d156 813e 50c1 a1bc 4865 9b3e
000001b0: 414c 42bd 24d3 96bf 28d9 d9be f062 68bf
000001c0: 2365 503f b255 53be 0480 84bf 0aa8 71bf
000001d0: e4a8 fc3e 3258 93bd d706 acbd d75b 01bf
000001e0: 5cf1 a3bf 630e a7be 38b5 65bf 4f7e 74bf
000001f0: 004b 54bf b2c1 cd3c 37f7 a13c b555 823d
00000200: 2f51 923f 9ad1 45bf 2bdc 9c3f f063 aebe
00000210: eb10 f6be 8533 91bc 8894 bbbc 4855 043c
00000220: 88f2 e0bf 6f2f 5fbf 4968 013c daa4 1dbf
00000230: 271b 71be 0872 babe a469 d53e 6b9a b3bc
00000240: 6f79 123f bfc3 1fbe eb15 5a3f 7567 ae3f
00000250: 5c02 b63f 888b 2f3e 5fe1 373e 5567 253f
00000260: ed68 b63e b490 4bbf 8a8b 18bf 39dd adbf
00000270: c5f5 3a3e de5d 573e 92bc 123f 7c17 16bc
00000280: 816c be3f 5e4c 033f 345d 173e 4d31 51bf
00000290: ccbf 8dbf 8f84 7fbe 8ae2 61bb 28e5 5b3e
000002a0: afd3 ebbe 64fd 63bd 3a24 793f 67ce 9fbd
000002b0: 8fce 0240 bf8b 5e3f 696a 053f adfc db3e
000002c0: c6ae 0c3e cfb9 f53c 5db0 5c3f 6872 f5bf
000002d0: a465 173e db6f 9d3e d339 d33c e69a 69be
000002e0: 8349 8c3f 2b59 023f 82c5 2b3f 5b85 72bf
000002f0: 7773 cf3c 772a 8f3e 38c1 59be 4f9f 7cbd
00000300: a20c 5b3f 36cd c63d d589 aa3e 1efe cc3d
00000310: 3ab9 b63e aa22 f83e 7b90 5c3f cbe9 0d3f
00000320: eb07 5ebf 17e2 4dbe 7532 36be 967c 41be
00000330: 0514 cfbe 2795 24bf 4f6c 5ebe b5b2 85bf
00000340: 4296 933e ce97 91be e75a b53e 05d2 38bf
00000350: 2647 9cbf 8d3b 7fbf 5787 01bf 5cb9 353f
00000360: ffbb 2dbf a8be 45bf b462 8fbd 9e5d 4dbf
00000370: e934 c3bf 947d 873e 267b 07bf fde9 3dbc
00000380: 9e4d 93be 962f 0f3f f37b 42bf 7f1a 4dbe
00000390: 1154 4dbf 3178 aabf a653 a7bf 3fbe b0bc
000003a0: fa38 c7be 9070 623f c115 2d3d a5e0 373f
000003b0: 41f2 8d3e e318 9fbf c716 8dbf 014a 73bf
000003c0: 5d5c 7a3f b013 1bbe c3dd 0a3f 39eb 60be
000003d0: f9ff 853e bec8 5abf 3fb5 85bf 21cb 153e
000003e0: a2c5 21be ecca 0cbf fbce 1bc0 5348 bdbf
000003f0: 7557 2d3f d840 2bbf abc8 8c3d 3238 2a3d

backbone.0.bias f4 [64]
0.37987384 -0.606143 -0.9050605 -0.40679884 -0.047210306 -0.9937649 0.4134042 -0.06907179
-0.04256835 0.34000754 -0.4060777 -0.978094 0.011675692 -0.12852436 -0.08399925 0.47965148
-0.55778605 -0.21798669 -0.23217756 -0.37322935 -0.46885598 -0.509465 -0.07346312 -0.0020849993
-0.9859209 0.34044752 -0.30665106 0.18568543 -0.13092902 0.53334063 -0.8487498 0.44553843
0.44595551 1.0859064 0.7729545 0.08284722 1.417378 -0.082401134 -0.34454435 0.30771664
-0.34422722 0.49513936 -0.5691317 -0.23145574 -0.31852224 0.35554874 0.3469781 1.0553349
0.4878455 0.67977 0.16686043 -0.779895 -0.106739804 -0.6983537 0.21078262 -0.5226652
-0.16690402 -0.917229 -0.48745605 0.25968334 -0.05103516 -0.42846438 1.3251143 -0.14690031
00000000: d37e c23e 302c 1bbf 0cb2 67bf f047 d0be
00000010: 985f 41bd 6067 7ebf b7a9 d33e 8375 8dbd
00000020: 265c 2ebd 7815 ae3e 6be9 cfbe 5e64 7abf
00000030: 674b 3f3c e49b 03be cc07 acbd e194 f53e
00000040: 11cb 0ebf e737 5fbe f4bf 6dbe eb17 bfbe
00000050: e40d f0be 4c6c 02bf d573 96bd 7ca4 08bb
00000060: 5065 7cbf 234f ae3e 5e01 9dbe 5224 3e3e
00000070: 4212 06be 0389 083f ab47 59bf 9d1d e43e
00000080: 4854 e43e fbfe 8a3f 59e0 453f ceab a93d
00000090: a46c b53f edc1 a8bd 1e68 b0be 098d 9d3e
000000a0: 8d3e b0be e882 fd3e 9db2 11bf bc02 6dbe
000000b0: 5915 a3be 7c0a b63e 1da7 b13e 3715 873f
000000c0: e3c6 f93e 6805 2e3f 76dd 2a3e 33a7 47bf
000000d0: 669a dabd 4fc7 32bf 66d7 573e 63cd 05bf
000000e0: e3e8 2abe 85cf 6abf d793 f9be 37f5 843e
000000f0: 3e0a 51bd af5f dbbe 589d a93f 096d 16be

backbone.2.weight f4 [64, 64]
-0.48142967 -1.2900851 -0.17872442 0.20712925 -0.3101741 -1.0044953 0.10928509 -0.1672619
-0.7483951 0.38019955 -2.6471422 -0.7666564 0.3854803 -0.48690966 -0.8396259 0.41645917
-2.3030577 0.3059546 0.7415409 -0.37422493 -0.8596863 0.5311183 0.01300635 -1.8566064
-1.5660118 0.02734386 -0.6828973 0.58181673 -0.61031806 -0.05532474 -0.60730344 0.18556812
1.1763432 0.017362798 0.020879839 -0.050906874 0.587968 -1.4649998 0.8503852 0.7227224
-0.93109256 -0.39541137 -0.330336 1.6601509 0.329408 0.6882926 0.12608899 0.18610238
-0.6572972 -0.2024184 0.23416516 -0.44634894 -0.20593226 0.7044602 0.13326207 0.88843364
-0.35039708 -1.7608272 0.12292372 -0.74571353 -1.2290143 -1.6190456 0.18730338 -0.85073036
-0.8419341 0.672352 -0.3012205 0.20783672 -0.9228151 -0.13449928 -0.06358556 0.4663431
0.3230538 -0.33340096 0.92963225 0.46861637 0.4674705 0.023466064 0.22562456 0.6508378
0.7753042 0.06456377 -0.7547509 0.61124635 -0.054890137 -0.008470562 0.18883592 0.12050155
0.73704433 0.49574548 0.4820437 0.19839248 0.37055504 -1.1316514 -0.10014703 0.14696977
-0.31238943 -0.9727807 -0.6293666 -0.31471103 -0.99373 0.42301303 -0.060403667 0.048842654
0.66721785 0.40036663 -0.12155776 0.1035783 -0.13177302 0.2590129 0.21993312 -0.46848845
-0.03029297 0.112122364 -2.0499587 0.29352605 0.71937186 0.46096778 0.09070075 0.45226613
1.1694152 0.5045298 -0.0050035347 0.14510377 0.37879124 0.020517448 -0.53240937 0.7611298
-1.4292138 0.682058 0.54079956 0.9117459 -0.15210974 -0.43712625 0.14293918 0.65592337
1.1856961 0.24061786 0.35211214 0.18720202 0.7891708 -0.037541 0.113280244 0.8749797
0.9438271 0.35677642 -1.8364133 0.6167732 0.12271758 -0.99523383 0.78590226 0.13987608
0.8661095 0.11726086 1.0089773 0.2876269 -0.035915624 -1.7585875 0.7830427 0.65524626
-0.3352611 -1.0856426 0.24635378 -0.2436835 -0.8102806 0.35988507 0.1113762 0.18372548
0.4639787 0.7874344 0.18123017 0.43466526 -0.4767 0.23555316 0.39973798 0.42184958
-0.32096902 0.76283 -2.662738 0.054734718 -0.06280115 0.7954362 -0.6444552 -0.48865575
2.217403 0.408714 0.33021876 0.6303465 0.24611413 1.1945211 0.27105737 0.28193665
-0.446531 0.8743493 1.1959202 0.34829718 -0.04592739 1.7239275 -0.15525422 -0.18508114
0.5415694 -0.34400767 0.96931523 0.5284493 0.632617 0.34468815 0.44238833 0.34763402
0.875134 0.1296558 0.039734796 0.4346081 0.44052032 -0.015191142 0.044718787 0.64264095
1.7906826 0.64633274 0.6504725 -0.06914297 0.6441962 -0.40728286 0.6949503 0.06462604
-0.6641441 -0.6393737 -0.26029655 -0.5369108 -1.0086089 0.9047742 0.07646447 0.33072138
0.72252786 0.57419676 -0.019658238 0.076624334 0.18302283 -0.074067205 0.7946952 -0.32562697
-0.028780775 0.4655218 -1.2349397 0.7249912 0.40213776 0.7030367 -0.41212136 0.08151966
0.75084835 1.0510496 0.19582519 0.75598013 0.74743307 1.4678508 -0.0744988 0.5734101
00000000: f37d f6be 8221 a5bf 8903 37be b119 543e
00000010: 24cf 9ebe 4d93 80bf dcd0 df3d b446 2bbe
00000020: d296 3fbf 84a9 c23e c76a 29c0 9843 44bf
00000030: ad5d c53e 394c f9be b9f1 56bf 233a d53e
00000040: 4c65 13c0 15a6 9c3e a0d5 3d3f 699a bfbe
00000050: 6714 5cbf 5ef7 073f 9618 553c 47a5 edbf
00000060: 1373 c8bf 3b00 e03c 5cd2 2ebf f1f1 143f
00000070: ce3d 1cbf 329c 62bd 3d78 1bbf 9205 3e3e
00000080: 6a92 963f 6d3c 8e3c 320c ab3c ba83 50bd
00000090: 1285 163f 1d85 bbbf d8b2 593f 5604 393f
000000a0: 155c 6ebf 5c73 cabe cd21 a9be d37f d43f
000000b0: 2aa8 a83e f233 303f 791d 013e 9f91 3e3e
000000c0: a144 28bf c546 4fbe fec8 6f3e d987 e4be
000000d0: e8df 52be 8157 343f da75 083e 6370 633f
000000e0: 3f67 b3be c962 e1bf 6ebf fb3d 15e7 3ebf
000000f0: 5750 9dbf e33c cfbf 75cc 3f3e 77c9 59bf
00000100: fe88 57bf 431f 2c3f 9339 9abe 26d3 543e
00000110: 9c3d 6cbf 2eba 09be 2539 82bd 86c4 ee3e
00000120: 4f67 a53e 88b3 aabe 61fc 6d3f 7cee ef3e
00000130: 4b58 ef3e e73b c03c 200a 673e 4e9d 263f
00000140: 567a 463f 033a 843d 5b37 41bf a47a 1c3f
00000150: 7bd4 60bd 1dc8 0abc 345e 413e 84c9 f63d
00000160: f0ae 3c3f 5ad2 fd3e 6fce f63e 6627 4b3e
00000170: 64b9 bd3e f4d9 90bf e319 cdbd 3e7f 163e
00000180: 82f1 9fbe 2808 79bf 2b1e 21bf ce21 a1be
00000190: 1765 7ebf 2a95 d83e d669 77bd 3c0f 483d
000001a0: cace 2a3f dbfc cc3e 46f3 f8bd dc20 d43d
000001b0: 82ef 06be 579d 843e 2636 613e b8dd efbe
000001c0: f628 f8bc 69a0 e53d 8632 03c0 0c49 963e
000001d0: c128 383f f803 ec3e 51c1 b93d 6d8f e73e
000001e0: 66af 953f dd28 013f b1f4 a3bb 1596 143e
000001f0: edf0 c13e 3514 a83c fb4b 08bf 67d9 423f
00000200: 7af0 b6bf 5a9b 2e3f d771 0a3f 2e68 693f
00000210: a8c2 1bbe 03cf dfbe a65e 123e 98ea 273f
00000220: e4c4 973f 8764 763e 0b48 b43e e3b1 3f3e
00000230: 1907 4a3f 97c4 19bd 79ff e73d abfe 5f3f
00000240: a79e 713f 66ab b63e 970f ebbf d9e4 1d3f
00000250: 5b53 fb3d a5c7 7ebf e430 493f ad3b 0f3e
00000260: 5ab9 5d3f 7626 f03d 2b26 813f d543 933e
00000270: 431c 13bd 6519 e1bf 7d75 483f 38be 273f
00000280: 58a7 abbe 56f6 8abf 2a44 7c3e 2b88 79be
00000290: 8d6e 4fbf db42 b83e 3519 e43d 8822 3c3e
000002a0: 9e8e ed3e 4d95 493f 6794 393e 728c de3e
000002b0: 0612 f4be d934 713e 75aa cc3e abfc d73e
000002c0: 0d56 a4be d448 433f 4d6a 2ac0 8331 603d
000002d0: e49d 80bd b5a1 4b3f 04fb 24bf 1631 fabe
000002e0: eee9 0d40 f642 d13e 6f12 a93e 635e 213f
000002f0: 5805 7c3e 11e6 983f 08c8 8a3e 005a 903e
00000300: b69f e4be 5bd5 5f3f ea13 993f 0254 b23e
00000310: 5c1e 3cbd a8a9 dc3f f6fa 1ebe e985 3dbe
00000320: 4ba4 0a3f c621 b0be 0b25 783f 7448 073f
00000330: 30f3 213f f77a b03e b980 e23e 16fd b13e
00000340: c808 603f 7dc4 043e f4c0 223d f484 de3e
00000350: e18b e13e 45e4 78bc 0c2b 373d 1e84 243f
00000360: 1635 e53f 1076 253f 5e85 263f d49a 8dbd
00000370: 0bea 243f 6187 d0be 43e8 313f a85a 843d
00000380: 5905 2abf ffad 23bf 9745 85be fc72 09bf
00000390: 191a 81bf 489f 673f 6799 9c3d 5054 a93e
000003a0: 96f7 383f 8ffe 123f 500a a1bc 38ed 9c3d
000003b0: 566a 3b3e 8cb0 97bd 2571 4b3f 94b8 a6be
000003c0: a9c5 ebbc e058 ee3e 8112 9ebf 0699 393f
000003d0: 00e5 cd3e 37fa 333f 9201 d3be c8f3 a63d
000003e0: 9937 403f cb88 863f 6686 483e ea87 413f
000003f0: c657 3f3f 89e2 bb3f d492 98bd 01cb 123f

backbone.2.bias f4 [64]
0.94547725 -0.67832834 -0.11379799 -0.89757544 0.54168814 -0.01637115 -0.09076659 -0.015726328
-0.39795935 -0.094962046 -0.9500152 -0.68154216 0.32703984 -0.09942394 0.37343115 0.53748876
0.6004693 -0.77401745 -0.08347471 -0.08394422 -0.8459818 0.3469071 1.1527796 -0.10103728
-0.6865229 -0.80657065 -0.8419602 -0.86524963 0.034047145 0.1532168 0.10541748 -0.8428783
1.1303023 -0.7255443 0.00032833236 -0.6475575 -0.65261155 -0.10619611 -0.5991228 0.39776927
0.98871976 -0.7340856 -0.14364424 -0.47453573 0.017307887 0.59442306 -0.76138073 0.8066787
-0.07711896 0.86518043 -1.1830224 1.5279665 -0.45797673 -0.589291 0.6610266 -0.014179307
-0.8954399 -1.0617417 0.77563995 0.39481166 -0.0027891994 -0.8114144 -0.14137879 -0.106151745
00000000: cc0a 723f eda6 2dbf ec0e e9bd 81c7 65bf
00000010: 13ac 0a3f ca1c 86bc d5e3 b9bd 80d4 80bc
00000020: 54c1 cbbe 767b c2bd 3234 73bf 8c79 2ebf
00000030: c471 a73e c79e cbbd 5e32 bf3e dd98 093f
00000040: 5bb8 193f 0226 46bf caf4 aabd f2ea abbd
00000050: 4392 58bf cf9d b13e 488e 933f a2ec cebd
00000060: f7bf 2fbf 6a7b 4ebf b48a 57bf 0081 5dbf
00000070: 0575 0b3d dde4 1c3e 1fe5 d73d dfc6 57bf
00000080: bfad 903f 45bd 39bf 0624 ac39 54c6 25bf
00000090: 8d11 27bf 597d d9bd 1d60 19bf 6aa8 cb3e
000000a0: bd1c 7d3f 09ed 3bbf 7a17 13be 59f6 f2be
000000b0: 45c9 8d3c 1c2c 183f d9e9 42bf 7f82 4e3f
000000c0: 8cf0 9dbd 777c 5d3f 476d 97bf 6894 c33f
000000d0: ed7b eabe c6db 16bf 0a39 293f 5350 68bc
000000e0: 8d3b 65bf 27e7 87bf 5790 463f c124 ca3e
000000f0: 00cb 36bb dbb8 4fbf 9ac5 10be 1666 d9bd

backbone.4.weight f4 [4, 64]
1.9312909 -0.5437658 -0.8770037 -0.82229555 -0.74099827 -0.057148926 -0.055819083 -0.09158835
-0.9699385 -0.96292835 -0.9171824 -0.82704127 -0.9415451 0.07512361 -0.937045 1.8580182
0.531291 -0.6430079 -0.63712054 -0.078531176 -0.5594278 -1.0024909 1.2370569 -0.043472484
-0.45828244 -0.6531512 -0.72725165 -0.4576052 0.03965494 -0.010852121 -0.50011533 -0.41662344
0.95852536 -0.43408826 -0.119156726 -0.7940209 -0.21595901 0.017067447 -0.6190162 -0.81173354
2.1117802 -0.67873645 -0.06707907 -0.73972297 0.096384615 -0.9742873 -0.548241 1.5583385
-0.9836152 -1.5386637 -0.84849834 1.477979 0.07858059 -0.688911 1.5799414 -0.03975609
-0.6616823 -0.46010163 1.9381464 0.34533086 -0.042367056 -0.88799244 -0.113251284 0.03397109
1.4340267 -0.22712143 -0.9785699 -0.44042498 -0.6081405 0.0050709294 0.08099948 0.06724005
-1.05529 -0.5937188 -0.90690225 -0.44804254 -0.6389491 -0.016444562 -1.066189 1.9615666
0.74119234 -0.8111324 -0.9894946 0.09820712 -0.6972965 -0.76718664 1.751531 0.068050385
-0.8695881 -0.67894673 -0.9722067 -1.062401 -0.02587232 -0.7959543 -0.20767602 -0.6705851
0.8617939 -0.69790417 0.0986096 -0.7249098 -0.0012964 0.09122387 -0.84871185 -0.91080767
2.1008677 -0.89322 0.098489694 -0.8632439 0.009817536 -0.936502 -0.84752876 1.4435167
-0.7176369 -1.5802766 -0.4983367 1.4036824 0.5999297 -0.3144089 1.6195649 0.11242859
-0.51960415 -0.73420525 1.5279377 0.68150455 -0.036656335 -0.47573727 0.013583823 0.006399342
1.6891671 -0.89801 -0.4007461 -0.7670172 -1.2259786 0.06529304 0.024089824 0.07072623
-0.94317716 0.3328887 -0.6155808 -0.9255572 -0.6679421 0.07708526 -0.7436055 0.6020325
0.6545141 -0.642889 -0.8446922 -0.09671575 -1.1125427 -0.90513164 1.7024484 0.032142904
-0.37064248 -1.0953401 -0.6551895 -0.4201325 0.023140825 -0.43020728 0.9092352 -1.0037959
1.3247726 -0.33401847 0.027532782 -0.76002955 0.7040341 -0.093004555 -0.5644429 -1.0845009
2.371997 -0.32472718 0.10073069 -0.93050694 0.024926588 -0.8777678 -0.68322676 1.2495672
-0.7002815 -1.4659503 -0.72568095 0.8079016 -0.58120877 -1.19283 1.8311365 -0.05214697
-0.64668095 -1.252369 0.90011495 1.5473089 0.022981271 -0.7191526 0.051535234 0.07661783
1.3765945 -1.064725 -0.9851965 -1.0547708 -1.2522656 0.047242526 -0.13349587 -0.06412254
-0.7902836 -0.5477175 -0.79916626 -0.7633492 -1.0038832 0.08823625 -0.52916133 1.5171921
0.16762929 -0.54930764 -1.2796518 -0.010484506 -0.5742176 -0.7648574 0.762864 0.009202028
-0.5601856 -0.31847852 -0.7772977 -1.024438 0.11353247 -0.7090628 -0.67497253 -0.73611104
1.1167274 -1.1193056 0.003115907 -0.40622875 -1.1503258 -0.07487975 -0.7585115 -0.85177773
1.7318556 -0.506801 -0.09180762 -0.02871302 0.06307571 -1.0089585 -0.66382694 1.9773427
-0.75661945 -1.4114401 -1.175926 2.138145 -1.2022145 -0.43799612 1.6559018 -0.06073679
-0.90660924 -0.3194613 2.1715984 0.5761499 0.09662929 -1.0323055 -0.116169095 0.051024657
00000000: 8a34 f73f 3c34 0bbf 5183 60bf f681 52bf
00000010: 10b2 3dbf fe14 6abd 8da2 64bd ac92 bbbd
00000020: e44d 78bf 7982 76bf 77cc 6abf fab8 53bf
00000030: 1a09 71bf 68da 993d 2ee2 6fbf 8ad3 ed3f
00000040: b002 083f 2a9c 24bf 551a 23bf f4d4 a0bd
00000050: a936 0fbf 9f51 80bf e157 9e3f 3410 32bd
00000060: ffa3 eabe eb34 27bf 2a2d 3abf 3b4b eabe
00000070: 386d 223d 18cd 31bc 8f07 00bf ab4f d5be
00000080: eb61 753f d140 debe 7108 f4bd f444 4bbf
00000090: 5c24 5dbe 08d1 8b3c d877 1ebf c5cd 4fbf
000000a0: 6827 0740 acc1 2dbf c060 89bd 7c5e 3dbf
000000b0: 4c65 c53d e46a 79bf 8659 0cbf a377 c73f
000000c0: 35ce 7bbf eff2 c4bf 3037 59bf 6a2e bd3f
000000d0: dcee a03d 795c 30bf 853b ca3f 48d7 22bd
000000e0: 0364 29bf 7192 ebbe 2e15 f83f 35cf b03e
000000f0: 1489 2dbd 7953 63bf 4af0 e7bd 4525 0b3d
00000100: 308e b73f 8592 68be 8f83 7abf 627f e1be
00000110: 19af 1bbf 0a2a a63b 0ee3 a53d 27b5 893d
00000120: be13 87bf f5fd 17bf bf2a 68bf d565 e5be
00000130: 2b92 23bf bfb6 86bc e278 88bf 9d14 fb3f
00000140: c8be 3d3f 5fa6 4fbf 854f 7dbf d120 c93d
00000150: 0682 32bf 5866 44bf 2b32 e03f 005e 8b3d
00000160: 539d 5ebf 74cf 2dbf 8ae2 78bf c2fc 87bf
00000170: 30f2 d3bc a9c3 4bbf 06a9 54be 77ab 2bbf
00000180: 869e 5c3f d9a9 32bf d4f3 c93d b093 39bf
00000190: f7eb a9ba 95d3 ba3d 2e45 59bf b12a 69bf
000001a0: 9e74 0640 11aa 64bf f7b4 c93d 8dfd 5cbf
000001b0: bbd9 203c 98be 6fbf a5f7 58bf 28c5 b83f
000001c0: 0db7 37bf 8146 cabf fd25 ffbe ddab b33f
000001d0: fe94 193f 34fa a0be e74d cf3f f640 e63d
000001e0: c704 05bf e0f4 3bbf 7693 c33f 1577 2e3f
000001f0: f424 16bd d693 f3be af8e 5e3c 92b1 d13b
00000200: a136 d83f fce3 65bf 982e cdbe 3d5b 44bf
00000210: deec 9cbf 5bb8 853d 0658 c53c ead8 903d
00000220: 0f74 71bf 6370 aa3e b496 1dbf 51f1 6cbf
00000230: 41fe 2abf e0de 9d3d ee5c 3ebf cd1e 1a3f
00000240: 3c8e 273f 6094 24bf bf3d 58bf e812 c6bd
00000250: cd67 8ebf b5b6 67bf d4e9 d93f 47a8 033d
00000260: dac4 bdbe 1b34 8cbf 80ba 27bf 9b1b d7be
00000270: d491 bd3c 2144 dcbe a3c3 683f 627c 80bf
00000280: 2692 a93f 7804 abbe 6e8c e13c 4c91 42bf
00000290: 943b 343f 2c79 bebd 547f 10bf edd0 8abf
000002a0: cdce 1740 a442 a6be e44b ce3d b435 6ebf
000002b0: d832 cc3c 64b5 60bf f3e7 2ebf d1f1 9f3f
000002c0: a645 33bf 42a4 bbbf 3ac6 39bf a4d2 4e3f
000002d0: 19ca 14bf a7ae 98bf ae62 ea3f 1098 55bd
000002e0: e28c 25bf a14d a0bf ef6d 663f 380e c63f
000002f0: 3843 bc3c 631a 38bf 9c16 533d cfe9 9c3d
00000300: 4034 b03f e948 88bf d635 7cbf bb02 87bf
00000310: 3d4a a0bf 6181 413d 24b3 08be ae52 83bd
00000320: 0750 4abf 3737 0cbf 2996 4cbf da6a 43bf
00000330: 3f7f 80bf 35b5 b43d 1e77 07bf 5a33 c23f
00000340: 03a7 2b3e 6d9f 0cbf a1cb a3bf 35c7 2bbc
00000350: edff 12bf b2cd 43bf 0e4b 433f 1ac4 163c
00000360: 5368 0fbf 9e0f a3be fbfc 46bf c920 83bf
00000370: b683 e83d 2485 35bf 00cb 2cbf c671 3cbf
00000380: ecf0 8e3f 6845 8fbf 3f34 4c3b 37fd cfbe
00000390: e03d 93bf 8e5a 99bd cf2d 42bf 1b0e 5abf
000003a0: 72ad dd3f b6bd 01bf a205 bcbd 9137 ebbc
000003b0: d62d 813d 8d25 81bf 90f0 29bf 9119 fd3f
000003c0: d0b1 41bf 12aa b4bf be84 96bf 5ed7 0840
000003d0: 2ae2 99bf 0741 e0be 97f4 d33f 24c7 78bd
000003e0: 8b17 68bf 6e90 a3be 78fb 0a40 8f7e 133f
000003f0: 94e5 c53d 9622 84bf 10ea edbd 3bff 503d

backbone.4.bias f4 [4]
1.3218566 0.053574752 0.60522825 1.1658664
00000000: 9932 a93f 3371 5b3d 3df0 1a3f 1c3b 953f
