models/dqn_state_model100000.pt (torch, 21911 bytes, 6 tensors)

backbone.0.weight f4 [64, 8]
00000000: 6dad 013f d630 67bf e211 21bf caec fe3f
00000010: f01e d0be ae11 663f fa4b 07bc c8d7 553f
00000020: 758a d7bc e104 19bf 5fb3 4abe d2d6 bdbf
00000030: 9bbd 30be 4586 6f3e 9f6a 453e b265 9abd
00000040: 5c4d 8a3f c81a 87bd 0daf 123f 2c38 553e
00000050: ba2c 833d 8ff7 5cbf bd7d babe 14ad 863e
00000060: 0eb0 c4be 2b17 debd 3e87 9fbf 57bc 20bf
00000070: aeef 893e 43b4 2ebf 18a7 013f 5c03 8c3e
00000080: f375 ac3f 06e2 de3e 9f14 083d c884 283e
00000090: 0c3b 08be 4376 153f ffed 663e ab09 8c3d
000000a0: cffb 553f f6c8 953c 92a5 153f 637b 863f
000000b0: e851 b73c e47f 6bbf 8056 7a3e 5c86 6abe
000000c0: 6dd2 643f c814 37be e89e e13e c32e 81bf
000000d0: b365 33be 51cc 483f dcd3 e4bb fef6 443f
000000e0: ab93 2a3b dae8 b63e 89f6 a4be dd42 ccbf
000000f0: fcd6 f23e bcf3 6ebe 32f7 103f 5a00 8fbe
00000100: 2f03 c33e 427c fdbe 30fb 263f d616 f2be
00000110: c112 6fbf 74e3 6bbf 1293 d9bd 0aef eb3e
00000120: 956d 2b3f 5f32 1e3e ea70 ffbf 8f9d 1cbf
00000130: 56a7 2bbf a370 023f 5ce5 e23d 7bb1 19bf
00000140: 38e8 bdbf 314e c0be 917c 7cbf fe2e 65bf
00000150: 03b2 043f cefe b03e 70f3 b33e 8be9 ee3d
00000160: f7ee 00bf c7d1 be3e 3726 27bd 1f41 27bf
00000170: b8bb 543e b6f3 883f ed9d 2f3f d85b 81be
00000180: e3f7 153e 374f 29be 3830 1ac0 009d 6bbf
00000190: 45dd e7be f78e e03e abdc 0a3e 60da 153e
000001a0: ed8d 153f b33b 653e e699 61bd ff8e 283e
000001b0: 7be3 3fbe 5cd4 6bbf dd07 9fbe b8f8 3ebf
000001c0: f0e5 233f c312 2fbf bb80 44bf 778a 70bf
000001d0: 88da f23d 4703 54be c5fd efbd 6b7f 84be
000001e0: e7cc 5cbf 98a4 17bf 4a40 cebe a51a 75bf
000001f0: 4188 7fbf 2814 ba3d a003 efbb 0f3d e43d
00000200: 3139 483f 05d1 1ebf 02cd 903f 7546 c73d
00000210: 5859 5ebf 6358 983e 16dd 093e 83b1 7b3d
00000220: b2ed b0bf b00c 67bf ad9a f03d 2f20 24bf
00000230: a4a9 4f3d bdef a5be da63 223f 593b 533d
00000240: fe90 a13e 087c 77bd 2116 2e3f 7ffc 993f
00000250: 15b7 d83f b3a7 b33d e83d 343e cd2d 2e3f
00000260: 15fa af3e 6533 28bf 39f9 3bbf 3a2a 9abf
00000270: 053b d9bd 530a a83e eeea fd3e cdb7 373d
00000280: 648c 8e3f 11fe 9e3e 951b 863e 2a74 25bf
00000290: 9933 79bc 1260 c63e 6105 983e 19cf 813e
000002a0: 1d5f 26bf ce07 a0be c2e1 963f 175a 553e
000002b0: 0be5 1c40 ff7d d33e 4da3 a0bb f2b5 193f
000002c0: 0bb4 f93c 6383 8a3a 1bf8 133f b6ab dcbf
000002d0: 6f4d d23e c2f2 863e 3451 9a3e 65e6 0fbe
000002e0: 93f2 673f b7aa d93e 0dfb 1a3f fd86 58bf
000002f0: 045a 96bd 549c 9e3e 69d2 0fbe c15a fdbc
00000300: 721f 693f 0407 003e 6616 d23e 0fbc 3fbe
00000310: 575b cf3e b95c fa3e e097 3b3f 230b de3e
00000320: 05c0 19bf 7aa3 46bd cfc8 42be 951c 68be
00000330: d6a8 f4be fdbd 51bf 7dc1 20bd b0eb 86bf
00000340: 4c6a cd3e 2dc8 00bf 7a60 9e3e d561 0ebf
00000350: 2f93 94bf bdbe 83bf 2cbc 09bf bd06 523f
00000360: adb0 3cbf d3ac 88bf 31c2 803f a3d3 67bf
00000370: ba8f 7fbf 88ae 123f 011f b9be 190f 983e
00000380: 2aff 97be e1dc 973e e697 18bf 9aca 3cbe
00000390: 94f2 3cbf 8edc b4bf 1a11 f4be 71ae bfbd
000003a0: 6746 16bf aa50 5f3f ff06 25be 317f 203f
000003b0: 4913 01bd 2ef1 bebf 6ed4 49bf 6e56 4ebf
000003c0: 8fcc 723f f059 aebd 2266 153f 936f 16be
000003d0: 54cb 13be 024b 87bf 6618 37bf 125c a23e
000003e0: 0383 7dbd 07af dcbe 25ed 18c0 86ff a6bf
000003f0: 1c54 a03d 716d 3abf 405f 4e3e b91b 7f3d
0.5065525 -0.9030889 -0.6291791 1.9916012 -0.40648603 0.8987073 -0.00825786 0.8353238
-0.026311139 -0.5977307 -0.19794987 -1.4831183 -0.17259829 0.23391064 0.19278954 -0.07538928
1.0804858 -0.06596905 0.57298356 0.20822209 0.06405015 -0.86315244 -0.36424056 0.26303923
-0.3841557 -0.10844263 -1.2463148 -0.62787384 0.26940674 -0.6824381 0.5064559 0.27346313
1.3473495 0.43531817 0.03322279 0.16456902 -0.13303775 0.5838358 0.22551726 0.068377815
0.83587354 0.018284302 0.58455765 1.0506405 0.022377923 -0.9199202 0.2444706 -0.22902817
0.89383584 -0.17879021 0.44066548 -1.0092396 -0.17519264 0.7843676 -0.0069832634 0.7693938
0.0026027958 0.35724527 -0.3221934 -1.5957905 0.47429645 -0.23335165 0.5662719 -0.27929956
0.38088366 -0.49508864 0.6522703 -0.47283047 -0.9338799 -0.9214394 -0.106237546 0.4608081
0.66964084 0.15448903 -1.9956334 -0.61177915 -0.6705221 0.5095312 0.11078903 -0.6003644
-1.4836493 -0.37559655 -0.98627573 -0.8952483 0.51834124 0.345694 0.35146666 0.116656385
-0.5036463 0.37269422 -0.04080793 -0.6533374 0.20774734 1.0699375 0.6860035 -0.25265384
0.14645343 -0.16534124 -2.409193 -0.9203644 -0.45286003 0.43859074 0.1356074 0.14634085
0.58419687 0.22386055 -0.05507841 0.16460799 -0.1873912 -0.9212091 -0.31060687 -0.74598265
0.6402273 -0.68388003 -0.7675893 -0.9396128 0.11858088 -0.20704375 -0.117183246 -0.25878462
-0.86250156 -0.59235525 -0.40283424 -0.9574378 -0.9981728 0.09085876 -0.0072941333 0.111444585
0.7821227 -0.6203769 1.1312563 0.097302355 -0.8685508 0.29754934 0.13463244 0.061448585
-1.3822539 -0.90253735 0.11748252 -0.6411161 0.05069889 -0.32409468 0.6343361 0.05157027
0.31555933 -0.06042102 0.68002516 1.2030181 1.6930872 0.087722205 0.1760174 0.68038636
0.34370485 -0.6570342 -0.7342716 -1.2044137 -0.1060696 0.32820377 0.495933 0.04485302
1.1136594 0.31053212 0.26192918 -0.6463038 -0.015210056 0.3874517 0.29691604 0.25353315
-0.6498888 -0.31255955 1.1787646 0.20835148 2.4514797 0.41307065 -0.0049022795 0.6004325
0.030481359 0.0010567721 0.57800454 -1.7239902 0.41074702 0.26357085 0.30140078 -0.14052732
0.90604514 0.42513058 0.60539323 -0.84580976 -0.07341388 0.30978644 -0.14045109 -0.030927064
0.91063607 0.12502676 0.41032714 -0.18724082 0.40499374 0.48898867 0.7327862 0.43367872
-0.60058624 -0.048495747 -0.19021915 -0.22667153 -0.47785062 -0.81930524 -0.039247025 -1.0540676
0.4012016 -0.50305444 0.3093298 -0.5561803 -1.1607417 -1.0292584 -0.5380275 0.8204153
-0.73707086 -1.0677742 1.0059263 -0.90557307 -0.99828684 0.57297564 -0.36156467 0.2969902
-0.29686862 0.29660705 -0.5960678 -0.18436661 -0.73807645 -1.4129808 -0.47669297 -0.09359444
-0.58701175 0.8723246 -0.1611595 0.6269408 -0.031512532 -1.4917352 -0.78839767 -0.8060063
0.9484338 -0.08513248 0.5835897 -0.14691 -0.14433032 -1.0569766 -0.71521604 0.3171087
-0.06189252 -0.43102285 -2.3894742 -1.304673 0.078285426 -0.72823244 0.20153522 0.062282298

backbone.0.bias f4 [64]
00000000: 36d0 c03e 59d0 e3be 35d7 3fbf 60e1 96be
00000010: 025b 673e ec37 38bf 4fbe 973e 6438 e1bd
00000020: 309b 06be ade7 653e 6c4a 15bf 242e 70bf
00000030: b05e d03b f123 10bd ab33 3abe 9af4 9a3e
00000040: 97ee efbe c770 4bbe b7ab a33c 43ff 48be
00000050: 23cf f9be 56db b0be 87ad cabc d255 debb
00000060: 785c 5dbf 1965 ec3e 6ec9 83bd a49b 523e
00000070: 91b0 62be 26c7 d83e 9b58 12bf eecb a23e
00000080: f09f bc3e 5452 883f cbad 213f 14d9 ee3d
00000090: eb6f a03f b691 3fbe 4e2d d6bb a9a1 963e
000000a0: 6eb0 89be 1be7 023f 8104 e5be 9509 25be
000000b0: f968 5cbe 04ba b23e 2e7b ad3e 886d 813f
000000c0: 21e6 2e3f 374e 423f 9766 5f3e d218 32bf
000000d0: e345 95bd 7c6e 33bf 6b83 823e 24d6 babe
000000e0: b8d0 85bd 954c 5dbf 58d5 04bf c157 683d
000000f0: ca75 0cbe 4ac1 bfbe 2cc5 a63f 339e c0bd
0.37658852 -0.44494894 -0.74937755 -0.29468822 0.2259331 -0.7196033 0.2963738 -0.10997084
-0.13145137 0.22451659 -0.58316684 -0.93820405 0.006358944 -0.035190526 -0.18183772 0.3026474
-0.46861717 -0.1986724 0.019979341 -0.19628625 -0.48790845 -0.3454234 -0.024740947 -0.006785133
-0.8646922 0.4617088 -0.06434904 0.20567185 -0.22137667 0.42339438 -0.5716645 0.3179621
0.36840773 1.0650125 0.6315581 0.11662498 1.2534155 -0.18707928 -0.0065361625 0.29420212
-0.26892418 0.5113389 -0.4473 -0.16116937 -0.21524419 0.34907544 0.3388304 1.0111551
0.683199 0.75900596 0.21816479 -0.6956912 -0.072887205 -0.7009046 0.2549089 -0.364915
-0.065339506 -0.8644498 -0.51888037 0.056724314 -0.13716808 -0.37452155 1.3028922 -0.09405174

backbone.2.weight f4 [64, 64]
00000000: 8aa1 04bf 3e5a 83bf 36d1 e5be 9b89 933e
00000010: 37e5 213d be8b 99be 27c9 963d b0f5 d63d
00000020: 6801 36bf 811d 383f 6f37 13c0 217d f4be
00000030: 78e9 bf3e a65f 3dbe 478a 46bf e1fe 673e
00000040: f97f 00c0 24ea 0d3f 14cf 763f c37b 1bbf
00000050: 26d9 56bf ee0f 9e3f 4641 bcbd 6fd0 bdbf
00000060: 5b02 c6bf 0c85 8dbd aaee 27bf 6265 ff3e
00000070: 2246 cbbe 9a4d a6bd 30f2 73bf 29bd 213e
00000080: f9d6 b23f 02b7 ec3d 971d 14be d9de 69be
00000090: 4074 243f dcf5 babf 0ca8 5c3f 2119 f83e
000000a0: 62d0 7cbf be1d 43be 7195 64be f67d cd3f
000000b0: a996 e23e d1d3 123f 8ea9 97bd bc11 eb3d
000000c0: a89b 31bf ad99 ccbe f05c ac3d 61bd d6be
000000d0: 6178 cfbe f109 103e 6e96 8abd 9e1c 5f3f
000000e0: a7c4 05bf cb5c 97bf 8a52 383e 7215 11bf
000000f0: bc06 59bf bfe7 c1bf b2a8 823d 830d 78bf
00000100: e619 50bf c752 953e 428c 65bc 99ce f43e
00000110: 7c0a ecbe cb82 4d3c 7119 763c 49d0 e53e
00000120: d1d3 dd3e 45d5 9bbe 5f0e 473f 39e6 ebbd
00000130: a78c 8a3e 26e5 163d 440e 443e 1100 593f
00000140: b75b 713f c7fe a03e 5ff0 67bf 49e4 ef3e
00000150: 7dab 57bb e36a 9bbe f317 e83d ef05 2b3e
00000160: 36d5 0c3f 154f 1d3f 20f8 2e3f 5adc 8b3e
00000170: 8dbe c53e 7a58 71bf c165 2a3d ed2f 4c3e
00000180: d33d b8be 32cb 1bbf 7717 58be 7e4d 77be
00000190: 31e4 32bf ba98 0a3f b797 62be c7f3 bdbc
000001a0: 8c9c 103f aaa6 173f 89a4 50be 9b44 a23e
000001b0: 9062 01be ac69 713e 645c e83e 7043 adbe
000001c0: d215 37bc 8837 663e 96e7 aebf afcb 903d
000001d0: 7b52 323f c579 013f 166c 86bd 8bd1 373e
000001e0: 1d9d 943f 6d39 853e 2858 2ebc e8c7 7c3e
000001f0: 09a2 a63e 98b4 733e 6b99 63be cbd5 f13e
00000200: 25e9 b6bf 8d13 0a3e db66 0d3f 9304 2b3f
00000210: 6b35 84be 83ae 293d 3196 20bd 010b 6b3f
00000220: a23f 603f 2df9 183d 4a3d 093f 0564 b43e
00000230: e591 f13e 84ef 463e a904 a6bd 38eb 563f
00000240: f9f6 5e3f ac4e fd3e fabf bfbf 2ed6 5c3e
00000250: dea8 1a3e 894f 2cbf 5b91 033f b21f 893e
00000260: 301a 3b3f 1db2 83bd 07ff 523f 3f23 813e
00000270: ca0f 6a3d 1945 bcbf a102 273f b2f7 123f
00000280: d108 07bf 5ed4 a7bf 509a b83e 3518 98be
00000290: 5db4 81bf 24fb bb3e f6fc 593e a402 913d
000002a0: c186 d93e 73d1 ea3e ec80 503e 1698 d13e
000002b0: f0f1 2ebf 6214 073e e893 7e3e 8fb4 ae3e
000002c0: 659f 51bd 9e9e 353f 60be 00c0 cf10 de3d
000002d0: 2d65 2f3f 9bd6 513f 1223 23bc 575b 18be
000002e0: a557 ea3f 311d 8a3e 529c 033e 58b5 cb3e
000002f0: bf38 ac3e 0031 863f 5406 a63e f520 003f
00000300: 95ff c5be a666 e03e a044 813f 52df 533e
00000310: edc1 cf3b f6e5 a93f e3d9 febd 3edb fe3d
00000320: 8ade 103f b7f3 fabe daf3 3f3f 111b d83d
00000330: 0ab2 213d dbd6 073f f860 503e 5fbf d33e
00000340: 6316 723f eecf 2a3e 7c70 ccbc 6015 3f3e
00000350: b827 693e da4f d1bd 8443 213c 98a0 193f
00000360: a7c0 c23f 9d68 373f d0c6 4e3f b4e1 d4bb
00000370: 241c 173f 7bfe bdbe 4180 1b3f 871c 23bc
00000380: c7de 03bf f76d 22bf 7c86 ccbd 9444 0cbf
00000390: cedc 7cbf 12c3 353f e33b ef3c 3f6e 873c
000003a0: 40c5 623f 29b9 003f 1add 86bd 136e 103d
000003b0: ffb4 8c3d a31a b7bd 2b10 553f f143 6fbd
000003c0: ab32 b93d 88a7 003f 1053 66bf 0f20 0b3f
000003d0: 496d 163f 7701 df3e 501b c4be da9d a7bb
000003e0: 4562 2c3f 3657 3c3f 9ab8 3d3e d0a6 393f
000003f0: aa4a 4d3f 0109 973f 6b23 e33d 9fd9 0a3f
-0.5180899 -1.0261915 -0.44886178 0.28815922 0.039525237 -0.29989427 0.073625855 0.1049608
-0.71095896 0.7192002 -2.3002584 -0.47751716 0.3748281 -0.18493518 -0.77554744 0.22655822
-2.0078108 0.55435395 0.96409726 -0.6073572 -0.8392509 1.2348611 -0.091921374 -1.4829234
-1.5469469 -0.06910142 -0.6559855 0.49882036 -0.39701945 -0.0812027 -0.95291424 0.15794815
1.3971854 0.115583435 -0.14464413 -0.22838916 0.64239883 -1.460628 0.8619392 0.48456672
-0.98755467 -0.19054314 -0.22322632 1.6054065 0.4425557 0.57354456 -0.07405387 0.11477992
-0.6937814 -0.39960995 0.08416164 -0.4194136 -0.4052153 0.14066292 -0.067669734 0.8715304
-0.5225319 -1.1825193 0.18000236 -0.5667335 -0.847759 -1.5148848 0.06379832 -0.9689562
-0.8128952 0.29164717 -0.014010491 0.47813872 -0.4610175 0.0125433905 0.015020714 0.4488547
0.43325666 -0.3043615 0.77756304 -0.11518521 0.27060434 0.036839627 0.19146067 0.84765726
0.9428057 0.3144438 -0.9060115 0.46853855 -0.0032908611 -0.30354986 0.11332693 0.16701482
0.55012834 0.61448795 0.6834736 0.27316552 0.3862194 -0.9427563 0.041600946 0.19940157
-0.35984668 -0.60856926 -0.21102701 -0.24150655 -0.6987944 0.5413929 -0.22128187 -0.023187531
0.5648887 0.59238684 -0.20375265 0.31692967 -0.12635255 0.23575467 0.45382988 -0.33840513
-0.011174636 0.22482121 -1.3664424 0.070700996 0.69657105 0.5057643 -0.065635845 0.17951028
1.1610447 0.26020375 -0.010641135 0.24685633 0.32545498 0.2379936 -0.22226493 0.47233424
-1.42899 0.1348402 0.5523507 0.66803855 -0.25822005 0.041426193 -0.039205734 0.91813666
0.87597096 0.037347008 0.53609145 0.3523256 0.4718162 0.19427305 -0.081063576 0.83952665
0.870956 0.49474084 -1.4980462 0.21566078 0.1510348 -0.6730886 0.5139367 0.26781994
0.73086834 -0.06430457 0.8242039 0.25222203 0.057143964 -1.4708587 0.65238386 0.57409203
-0.5274783 -1.3111684 0.3605523 -0.29705968 -1.0133168 0.36715043 0.21287903 0.07080582
0.42485622 0.45862922 0.2036168 0.40936345 -0.6833792 0.13191369 0.2486111 0.3412213
-0.0511774 0.70945156 -2.0116196 0.1084305 0.68513757 0.81968087 -0.009957092 -0.14878593
1.8307997 0.26975396 0.128526 0.39786792 0.33637044 1.0483704 0.32426703 0.5005029
-0.38671556 0.43828315 1.0099068 0.20690659 0.0063402564 1.3273304 -0.12443902 0.12444161
0.5658957 -0.49014065 0.7498146 0.105520375 0.039476432 0.5306222 0.2034949 0.41356942
0.9456541 0.16680881 -0.02495598 0.18660498 0.22769058 -0.102203086 0.009842757 0.6001067
1.5215043 0.71644 0.80772114 -0.0064966325 0.59027314 -0.37108216 0.60742575 -0.009955532
-0.51511806 -0.63449043 -0.09986588 -0.5479214 -0.9877442 0.7100078 0.02920336 0.016532062
0.8858223 0.5028253 -0.065851405 0.035261225 0.0687046 -0.089406274 0.83227795 -0.058414403
0.09042867 0.5025563 -0.89970493 0.5434579 0.58760506 0.43555805 -0.38302088 -0.005115253
0.6733745 0.73570573 0.18527451 0.7252016 0.80192053 1.1799623 0.1109074 0.54238313

backbone.2.bias f4 [64]
00000000: 7a41 563f f7cc babe 0bfa 7dbe ba7f 13bf
00000010: 0502 3d3f ca1c 86bc d5e3 b9bd 80d4 80bc
00000020: fcd5 a1be 0506 82be 7f13 2dbf 6eeb c7be
00000030: 3a1e 1a3f c79e cbbd 9712 063f 9106 0c3f
00000040: 1d5f 093f dfab 03bf e430 14be f2ea abbd
00000050: 3d10 00bf 84c0 d43e b44c 8a3f a2ec cebd
00000060: 3295 06bf c6f0 16bf 9d96 00bf fee9 11bf
00000070: 0575 0b3d c953 a23e 2e52 453e 579d 07bf
00000080: 81f9 813f b251 09bf 0624 ac39 f341 d0be
00000090: e660 e8be 597d d9bd 8b47 d6be 7a8f 2c3f
000000a0: 507e 5d3f 545b 13bf 7a17 13be 8557 1bbf
000000b0: 45c9 8d3c 547f 393f df29 12bf 3126 433f
000000c0: a7e9 18be fb94 623f 8468 54bf 6280 ab3f
000000d0: e8e7 69be c8de adbe fc89 293f 5350 68bc
000000e0: 660e 20bf aa11 53bf 14f1 2c3f f0e3 d03e
000000f0: 00cb 36bb d547 01bf 9ac5 10be 1666 d9bd
0.8369366 -0.364845 -0.24802415 -0.5761677 0.73831207 -0.01637115 -0.09076659 -0.015726328
-0.3160857 -0.25395218 -0.67607874 -0.39046806 0.6020237 -0.09942394 0.52372116 0.5469752
0.53660756 -0.5143413 -0.14471775 -0.08394422 -0.5002478 0.41553128 1.0804658 -0.10103728
-0.52571404 -0.5896114 -0.5022982 -0.5699767 0.034047145 0.31704548 0.1926963 -0.52974457
1.0154268 -0.5364028 0.00032833236 -0.40675315 -0.45386428 -0.10619611 -0.41851458 0.6740643
0.8652086 -0.5756123 -0.14364424 -0.6068042 0.017307887 0.7245991 -0.5709514 0.7623015
-0.14932881 0.88508576 -0.8297198 1.3398554 -0.22842371 -0.3395903 0.6622617 -0.014179307
-0.6252197 -0.8244883 0.67555356 0.40798903 -0.0027891994 -0.5050023 -0.14137879 -0.106151745

backbone.4.weight f4 [4, 64]
00000000: 8116 0440 c9e1 06bf f20e 14bf f6e2 1dbf
00000010: d8f8 2ebf fe14 6abd 8da2 64bd ac92 bbbd
00000020: 911a 6ebf c7d2 49bf eccd 2fbf 959a 11bf
00000030: 864b 57bf 68da 993d d5f8 77bf 5ac3 cb3f
00000040: 98df 033f 8457 06bf 144a ccbe f4d4 a0bd
00000050: c59e 0fbf 526a 3dbf 01ba b13f 3410 32bd
00000060: ccbf e0be b530 17bf 73f5 06bf b12b 16bf
00000070: 386d 223d c626 54be f6b9 eebe 8009 02bf
00000080: 6d8b 653f f1b7 f3be 7108 f4bd fb7c 2abf
00000090: 2169 53bf 08d1 8b3c 35b2 e2be 8fc7 97bf
000000a0: 09bb 0740 bc8c 03bf c060 89bd 5d48 0fbf
000000b0: 4c65 c53d 3963 59bf f5e1 eabe 35ab b73f
000000c0: c64c 4dbf 5b3e d9bf ee5a 15bf 690b b23f
000000d0: 41b9 483e 6cca 36bf 77a2 be3f 48d7 22bd
000000e0: 62a4 02bf 384c 8bbe a9b7 e33f 3b67 3c3e
000000f0: 1489 2dbd 5b8d 33bf 4af0 e7bd 4525 0b3d
00000100: fbfe 863f 1df1 87bd 8261 4dbf 485b e3be
00000110: a1ef 11bf 0a2a a63b 0ee3 a53d 27b5 893d
00000120: a793 3dbf 3486 09bf bc85 23bf 67c1 9abe
00000130: f404 30bf bfb6 86bc a47b 4dbf 611c c23f
00000140: a908 2b3f 9095 17bf 499e 5cbf d120 c93d
00000150: 07f8 08bf 968b 3abf c477 ee3f 005e 8b3d
00000160: 0291 20bf 7931 01bf c635 32bf ea3e 1bbf
00000170: 30f2 d3bc f4bd 48bf 9beb 44bd df67 c8be
00000180: 10d1 5d3f 42d0 12bf d4f3 c93d fdf6 03bf
00000190: 514e 8d3d 95d3 ba3d d031 22bf 3492 acbf
000001a0: 473e 0540 5bdd 18bf f7b4 c93d e01f 35bf
000001b0: bbd9 203c 76ec 52bf 5bd5 1cbf ef0c a43f
000001c0: aa8c 6bbf 35bd e3bf ab81 04bf 2ac2 ad3f
000001d0: 8622 043f d84a 64be 2004 d83f f640 e63d
000001e0: 7d00 11bf 15b5 27bf 82d0 9c3f b998 3a3f
000001f0: f424 16bd 5042 e6be af8e 5e3c 92b1 d13b
00000200: 8d89 bf3f a1ec 1ebf 8ff5 d4be 411c 1abf
00000210: 0045 afbf 5bb8 853d 0658 c53c ead8 903d
00000220: e931 2fbf 1418 513e 3105 febe 5d3c 5abf
00000230: 309f 2dbf e0de 9d3d f3ae 3bbf d598 ddbd
00000240: 679e 293f f5c8 f7be e7aa 42bf e812 c6bd
00000250: 8a31 57bf 000f 8fbf 8e2b d73f 47a8 033d
00000260: 5945 7abe 7678 53bf fc08 f5be 4eeb 61be
00000270: d491 bd3c a7a3 a0be 4437 3b3f 2664 31bf
00000280: 57f9 b03f 2afb 0abe 6e8c e13c 17c6 14bf
00000290: 6672 e13e 2c79 bebd 3b55 04bf 4757 3cbf
000002a0: 3c73 1740 4190 e6be e44b ce3d 58b2 37bf
000002b0: d832 cc3c b390 8dbf d7ef 13bf ca69 9f3f
000002c0: 23bb ffbe 967a a1bf 2a1b 11bf 2a86 513f
000002d0: f45b 2abf 8e20 51bf cf7c ed3f 1098 55bd
000002e0: 5ceb f6be 2792 5fbf 333a 483f 34c3 b93f
000002f0: 3843 bc3c f99b 0fbf 9c16 533d cfe9 9c3d
00000300: 3abd 883f d018 65bf 969d 58bf a5cc 3fbf
00000310: 222a 9fbf 6181 413d 24b3 08be ae52 83bd
00000320: 858b 3cbf 156b 003c 4403 27bf 3980 26bf
00000330: d984 8fbf 35b5 b43d 32a2 43bf 44c5 b73f
00000340: 3a36 a73e 9e6b eabe 7785 84bf 35c7 2bbc
00000350: 1c85 d9be 77d3 6ebf e374 443f 1ac4 163c
00000360: 38db c9be 8194 2abe 6c5a 12bf 310f 36bf
00000370: b683 e83d 9422 5dbf a4c3 25bf ee22 12bf
00000380: 1ebc 9b3f 5fbb 4cbf 3f34 4c3b 7b14 a3be
00000390: cc4d 95bf 8e5a 99bd a715 27bf 3746 0abf
000003a0: 358b d33f 639e 07bf a205 bcbd d966 9dbc
000003b0: d62d 813d 3740 8cbf 8503 21bf cfb5 0740
000003c0: 4a1e 18bf 367c 91bf f2e5 5fbf 6401 0c40
000003d0: 8441 72bf 2c69 bdbe db3c c43f 24c7 78bd
000003e0: f0f8 2cbf 6887 0fbe a0ea 0c40 63db 103f
000003f0: 94e5 c53d fc03 41bf 10ea edbd 3bff 503d
2.0638735 -0.5268827 -0.57835305 -0.6167444 -0.68348455 -0.057148926 -0.055819083 -0.09158835
-0.9300929 -0.78837246 -0.68673587 -0.568765 -0.84099615 0.07512361 -0.9686406 1.5918992
0.5151305 -0.5247729 -0.39900267 -0.078531176 -0.5610164 -0.73990357 1.3884889 -0.043472484
-0.4389633 -0.59058696 -0.52718276 -0.5866042 0.03965494 -0.20717916 -0.46626252 -0.50795746
0.8966587 -0.47601274 -0.119156726 -0.66596955 -0.8258229 0.017067447 -0.44276586 -1.1857775
2.1207907 -0.5138662 -0.06707907 -0.5596979 0.096384615 -0.84917027 -0.45875517 1.4349123
-0.8019527 -1.6972154 -0.5834187 1.3909732 0.19601919 -0.7140262 1.489333 -0.03975609
-0.5103208 -0.27206588 1.7790424 0.18398754 -0.042367056 -0.70137566 -0.113251284 0.03397109
1.0546564 -0.066377856 -0.8022691 -0.4440558 -0.5700627 0.0050709294 0.08099948 0.06724005
-0.74053425 -0.537204 -0.6387594 -0.3022568 -0.6875756 -0.016444562 -0.80266786 1.516491
0.6681009 -0.5921259 -0.86179024 0.09820712 -0.5350346 -0.7286924 1.86303 0.068050385
-0.62721264 -0.50466114 -0.696133 -0.60642874 -0.02587232 -0.78414845 -0.048076253 -0.39141747
0.8664713 -0.57349026 0.0986096 -0.5154875 0.06899703 0.09122387 -0.6335726 -1.3482118
2.081926 -0.5971276 0.098489694 -0.7075176 0.009817536 -0.8239206 -0.61263055 1.2816447
-0.9201151 -1.7792116 -0.5176036 1.3574879 0.5161518 -0.22294176 1.6876259 0.11242859
-0.5664137 -0.65510684 1.2251132 0.72889286 -0.036656335 -0.44972467 0.013583823 0.006399342
1.4963852 -0.6207982 -0.41593596 -0.6019936 -1.3692932 0.06529304 0.024089824 0.07072623
-0.6843553 0.20419341 -0.49613336 -0.8524836 -0.67821026 0.07708526 -0.73313826 -0.10820166
0.6625733 -0.48395506 -0.76042026 -0.09671575 -0.84059966 -1.1176453 1.6810167 0.032142904
-0.24440517 -0.82605684 -0.47858417 -0.22062418 0.023140825 -0.31374857 0.73131204 -0.6929344
1.3826092 -0.13572374 0.027532782 -0.5811476 0.44032592 -0.093004555 -0.5169255 -0.73570675
2.3664083 -0.45031932 0.10073069 -0.71756506 0.024926588 -1.1059784 -0.5778784 1.2454159
-0.4994746 -1.2615535 -0.56682074 0.81845343 -0.6654656 -0.816903 1.8553714 -0.05214697
-0.4822644 -0.87332386 0.78213805 1.4512696 0.022981271 -0.5609737 0.051535234 0.07661783
1.0682747 -0.89490986 -0.8461546 -0.7492164 -1.2434733 0.047242526 -0.13349587 -0.06412254
-0.7365039 0.00783803 -0.6523936 -0.650394 -1.1212417 0.08823625 -0.76419365 1.4357076
0.3265856 -0.4578523 -1.035323 -0.010484506 -0.42484367 -0.9329142 0.76740855 0.009202028
-0.39425063 -0.16658212 -0.5716922 -0.7111693 0.11353247 -0.8638089 -0.6475165 -0.5708455
1.2166784 -0.79973406 0.003115907 -0.31851563 -1.1664367 -0.07487975 -0.65267414 -0.5401339
1.6526858 -0.52976054 -0.09180762 -0.01921408 0.06307571 -1.0957097 -0.62895995 2.1204717
-0.5942122 -1.1366031 -0.87460244 2.1875849 -0.9463122 -0.36994302 1.5331072 -0.06073679
-0.6756735 -0.14016497 2.2018204 0.5658476 0.09662929 -0.75396705 -0.116169095 0.051024657

backbone.4.bias f4 [4]
00000000: 6a97 993f 0219 a33d ebcb 053f 65e5 693f
1.1999333 0.07963754 0.5226428 0.91365653
