models/dqn_state_model100000.pt (torch, 21911 bytes, 6 tensors)

backbone.0.weight f4 [64, 8]
00000000: 6a4d 0d3f 81e2 063f 0225 2abf ec58 2d3f
00000010: 5a1b ef3e c316 933f d0d2 99bf 070b 29bf
00000020: 7909 823f 489c 1e3e b57c e13e 1cdd 20bf
00000030: ef29 01be d64d 1abd 4723 3bbe c267 dcbe
00000040: c630 793f 5d7e fc3b ed14 d93d cec0 f6be
00000050: fcc1 38bf 1375 9fbf 2e45 53bf 0190 663e
00000060: 5595 bbbe 34c2 463e 1346 49bf 8fe5 11bf
00000070: 03db 403e 23c7 133d 4dab 873d 2cc2 00bf
00000080: 5827 a43e 38cf 81be bc46 debd 3a9b 9dbe
00000090: e3d9 a6bf 882e 823e 75d5 d1be c6cb 29bf
000000a0: b9fa d63c 3137 9ebd 80ef fa3d aa93 a83e
000000b0: f127 943e f79a 10be 8751 233e e9d5 983c
000000c0: c8a5 163f 1d2e fbbe fc1e 85bf 1124 83be
000000d0: 3d7f c53d 0138 b2be bea1 d33e 5923 213f
000000e0: eea9 fd3e 52bf edbf 8daf cd3f 6ee2 34bf
000000f0: 929e 78be e608 e3bd 18f3 be3e 1362 223c
00000100: 5bd3 993e 402e dabf 3368 823f b2b0 44bf
00000110: 560e 2fbf cd98 033d b22b bf3e 63a2 9b3e
00000120: aa2f 3d3f ac23 05bf d8cc 083f f5b3 84bf
00000130: 12f6 9ebf ca46 88bd 1a5b a5bd 945e 973e
00000140: 5d98 60bf 4a25 a23e 8b6b 273e ec85 54be
00000150: bfc5 eb3e 4b71 de3d 6a2b 85be 84b3 b1bd
00000160: f30e c9be e0ba ba3e eadf 97be 8942 b83e
00000170: 5b77 993e 24a6 fa3d 1a7d e0be 1140 1abe
00000180: 5a72 a0be 943f da3d a7c7 a6bf 7283 dabf
00000190: 348c ddbf 0048 adbc 8ad8 a73e 336d b7bd
000001a0: 0847 203f 0356 1cbf f11e 013e 949c b1bf
000001b0: d612 ecbe c143 b3bf b475 8a3d 2472 82be
000001c0: 97de b5be 618b 0d3c d4ff dbbf 8f5b b2be
000001d0: 3671 943d 1a89 59bd d539 e6be af30 053a
000001e0: 77f3 f63e 40bb 6f3f 0989 963e ad1b 8abc
000001f0: a1f8 2fbf 8da7 10bf d038 78bf 6599 c2bf
00000200: c7f5 0f3f 64e8 5d3f d46e a4bc 0b63 253f
00000210: 11c3 963e 79a0 023f 1057 9bbe ecc7 adbe
00000220: 35a9 c4be fa75 f7bf b4fe a03e a3ff f5be
00000230: 210f 01bf 9cfa 363e f662 d63e 5d8a f33d
00000240: e75d f03e 284f dabd 1ce9 523e a8e1 563e
00000250: 6ede 5b3f 4693 39be 0c24 35bf dd4c 90be
00000260: ecac bbbf 0ae7 9dbf 84a1 f23e 6d9b 3bbf
00000270: 77f2 573f e752 333f 700b 733e 9056 55be
00000280: 105e 933e 62ef 1ebe 1d4d 553f 911e 99bf
00000290: 808c 013f 4b49 a23d 9326 78bd a12a 413f
000002a0: f315 753e 77a3 8d3d 9bb9 97bf 9546 2b3f
000002b0: fc3b 223f 2359 10bf 4e2b febe 6ea7 1ebf
000002c0: 9c74 5ebe 0439 1f3e 3579 aa3e 54cb 8bbd
000002d0: b528 9f3c f842 113e 0b27 fe3d 8362 fb3d
000002e0: 74a8 8c3e 8bba 873e 9a51 133e 12a5 933e
000002f0: c3c1 efbd 5670 a83d 2d6a 7c3c ec8e b93d
00000300: d4c9 6a3f 8eea c53c 6fbc 1a40 f475 c43e
00000310: 11da 77bf 3a3e 2a3d 3041 a83e ed99 b53e
00000320: 34f7 3abe af66 ad3c 94a7 703f bf85 ebbf
00000330: f83e 733f f749 a6be 59ff e7be 43e9 aebf
00000340: 73f9 b43e 67f9 093f fb5d 273f e188 153f
00000350: bd97 6abf 53bf e4bf 87ea 91bf cef1 c1be
00000360: 7e4d 313f 6062 fbbe 09a9 4b3f ee83 6abf
00000370: 8c31 80bf 73e5 21bf d9fe adbe c77c b9bd
00000380: 98aa 49be 04e7 b73f 85db 00bf 5f9c 0740
00000390: 841c f13d 82fe 99bf c1c9 36be 4806 0e3f
000003a0: d637 133f f86b 503f e775 9fbd 3512 393f
000003b0: 418c 6c3f f9f3 bdbf 031b 4dbf acc9 d4bf
000003c0: e7b1 383f 83a1 1bbf fc19 d13e 8aab 7cbf
000003d0: b91f 3dbf 810e 5cbf ba3e 4e3e 78e0 2e3c
000003e0: c2f8 283f 29ab 493f 7f94 a53a 17de 31bf
000003f0: 2f42 813e bd00 80be ffb7 0fbc f108 e53c
0.5519625 0.5268937 -0.6646272 0.6771381 0.46700555 1.1491321 -1.201746 -0.6603245
1.0159141 0.15489304 0.44040456 -0.62837386 -0.12613653 -0.037671886 -0.18275176 -0.4304791
0.9734005 0.0077054934 0.105996944 -0.48193973 -0.72170997 -1.2457603 -0.82527435 0.2251587
-0.3663737 0.1941002 -0.7862255 -0.56990904 0.18833546 0.036078583 0.0662447 -0.5029628
0.32061267 -0.25353408 -0.10853335 -0.3078249 -1.3035244 0.25426126 -0.40983167 -0.6632656
0.0262426 -0.07725371 0.12252712 0.3292516 0.28936723 -0.14121614 0.15949069 0.018656688
0.5884671 -0.4905862 -1.0400081 -0.25613454 0.096434094 -0.34808353 0.41334337 0.6294456
0.4954371 -1.8574011 1.6069199 -0.70658004 -0.2427924 -0.110856816 0.3729484 0.009911078
0.30044064 -1.7045364 1.0188049 -0.76832116 -0.6838125 0.032128144 0.37338024 0.3039733
0.73900855 -0.52007556 0.53437567 -1.0367419 -1.2418845 -0.06654127 -0.08074017 0.29564345
-0.8773249 0.31669074 0.16349618 -0.20754212 0.46049306 0.10861453 -0.26009685 -0.08676818
-0.39269218 0.364707 -0.2966302 0.35988262 0.29973873 0.1223872 -0.43845445 -0.15063502
-0.31337243 0.10656658 -1.3029679 -1.7071364 -1.7308412 -0.021152496 0.32782394 -0.08956375
0.62608385 -0.61068743 0.1260946 -1.3875909 -0.4610812 -1.4005052 0.06760731 -0.25477707
-0.35521385 0.008639188 -1.7187448 -0.3483548 0.07248156 -0.053109266 -0.44965997 0.0005080802
0.48232624 0.93645096 0.29401425 -0.0168589 -0.6873875 -0.5650566 -0.9696169 -1.5203062
0.562344 0.86682725 -0.020072378 0.6460425 0.294457 0.5102611 -0.3033986 -0.3394159
-0.38410345 -1.9332879 0.31444323 -0.48046598 -0.5041371 0.17869037 0.41872376 0.11891625
0.46946642 -0.10659629 0.20596737 0.20984519 0.85886276 -0.18122587 -0.7075813 -0.28183642
-1.4662147 -1.2336133 0.47388852 -0.73284036 0.84354347 0.70048374 0.23734832 -0.20833802
0.28782701 -0.15521005 0.8332079 -1.1962453 0.5060501 0.07924136 -0.060583662 0.7545567
0.23934154 0.06915944 -1.1853517 0.66904575 0.6337278 -0.5638601 -0.49642414 -0.6197423
-0.2172417 0.15549093 0.332956 -0.06825891 0.01942859 0.14185703 0.124097906 0.12274649
0.2747227 0.26509508 0.14386597 0.28836876 -0.11706879 0.082245514 0.015406174 0.09060463
0.91714215 0.024159696 2.417751 0.3837124 -0.9681712 0.04156325 0.32862234 0.35469
-0.18258363 0.021167127 0.94005704 -1.8400191 0.9501796 -0.32478306 -0.45312002 -1.3664936
0.35346565 0.5389618 0.6537778 0.58411986 -0.91637784 -1.7870888 -1.1399697 -0.37879795
0.6925887 -0.49098492 0.795548 -0.9160756 -1.001512 -0.63240737 -0.33983496 -0.090570025
-0.19693983 1.4367375 -0.5033496 2.1189191 0.11773017 -1.2030795 -0.178504 0.55478334
0.57507074 0.8141475 -0.0778616 0.72293407 0.9240151 -1.484008 -0.8011934 -1.6624045
0.7214646 -0.6079332 0.40840137 -0.9869925 -0.7387653 -0.8595963 0.20141116 0.010673635
0.66004574 0.78776795 0.0012632756 -0.6947951 0.25245807 -0.25000563 -0.008771895 0.027958365

backbone.0.bias f4 [64]
00000000: c16c 8d3e 9507 943e 745d 3bbf 80a1 803e
00000010: f801 093f 4d40 c2be fb50 113f f340 0abe
00000020: 805b 83be 961d 903f e916 773e 231b 483f
00000030: 02bd 843d da09 a8be eb7d c93e cd05 743f
00000040: 00bd 323e b0e5 803f 8f53 9a3e 4351 2bbe
00000050: c78a 2d3e ba63 4d3f 514d 413f bdde 193f
00000060: a798 87bd f5af 733c 415b 843d dad2 8b3f
00000070: 01f3 fa3e 197c 6f3e 3a83 c0be 171d 193f
00000080: bdf6 a03e 2879 1d3f 490a 3f3f 6889 3f3e
00000090: 0216 ac3f bda8 483e c48e bfbe 9c43 19be
000000a0: f6f3 9d3f e4d7 8c3f 8bd7 203c 3f56 79be
000000b0: af7e 213f a07a 253f 1727 fe3e 2c83 5c3f
000000c0: c982 083f d51d 4c3f f07b 2f3f d5d6 21bf
000000d0: 52f0 37bf 642a e2bc 98aa 3e3e 009d 163e
000000e0: a97e ffbe 914d 2bbf 0fa2 9bbe 6cda 6cbf
000000f0: f20d 64be d5a5 4a3f 199b 3f3f 13b4 acbd
0.27622035 0.28912035 -0.73189473 0.25123215 0.5351863 -0.37939683 0.5676419 -0.13501339
-0.25655746 1.1259029 0.24129833 0.7816641 0.06481363 -0.32820016 0.3935388 0.9532135
0.1745491 1.0070095 0.30141875 -0.16730218 0.1694747 0.80230296 0.755086 0.60105497
-0.06620913 0.014873494 0.06462718 1.0923722 0.49013522 0.23387183 -0.37600118 0.5981001
0.31438246 0.61512995 0.7462507 0.1870476 1.3444216 0.19595619 -0.3741361 -0.14967197
1.2340076 1.1003385 0.009817014 -0.24349307 0.6308393 0.64640236 0.49639198 0.8613765
0.5332456 0.7973302 0.6854849 -0.6321843 -0.71851075 -0.027608104 0.18619764 0.14708328
-0.49901322 -0.6691523 -0.30397078 -0.92520785 -0.22270945 0.7915929 0.74846035 -0.08432784

backbone.2.weight f4 [64, 64]
00000000: 10ee 14bd 36e5 273d 072a bbbd 017b 95bd
00000010: df70 7f3d a00d dfbd ab7c b73a 56af 853d
00000020: b6db c3bc 1551 743c 0e86 e9bd c39a 84bc
00000030: 8f0d 23bd 4895 893c a110 0e3d f6d0 763d
00000040: ae7e febd 27f8 1bbd 54d0 7fbd c592 0ebe
00000050: b45f 53bd 82c6 fdbd 566b 283d b47e e6bc
00000060: 7f65 b9bd 4dc3 153d bd48 17be 92dc b9bd
00000070: a563 57bd 617b 0abe 2d42 fabd 4970 0cbd
00000080: 630a 603d 34ff d43d 228a 143d 3914 efbd
00000090: 0627 05be 6ef9 c23d 3977 f83c d004 c2bc
000000a0: 2352 42bc 53ed 18be 76d1 63bd 20bd 973d
000000b0: 288d fcbc e078 cdbb 2931 07be 3632 efbd
000000c0: 8ea6 86bc 3b04 ffbd aa42 87bd f45c 503d
000000d0: 9e6c 0bbe 839a 9abb f044 a9bd d4e1 79bd
000000e0: 19a6 ae3b a711 6d3d 1cef 0bbd 1c36 52bd
000000f0: 0cca 1ebe 524c bdbd 9800 21be 5b0d 2ebd
00000100: 5637 cebd aa8f 843d d533 193f afc7 493e
00000110: 7fce 0ebe e0d0 a4bc 0044 17bf 2c63 9bbc
00000120: 2657 ad3b 1d53 e13d 6fbc 92be 2c72 8fbe
00000130: ce68 9dbf 842b 953d b43d b0bc ccf4 143f
00000140: dde8 c7be e77f 6fbf d492 acbe af42 8d3c
00000150: 6370 943e 55c5 25bd e087 0dbe b5ee 233e
00000160: c2f1 06bf 6368 dabf 33b8 1e3f 13a0 1c3f
00000170: ecb4 05be f9b8 9abe db74 773e 4ce4 cd3e
00000180: aeaf 28bf 120d 003f 4dee d83e 7202 0fc0
00000190: 45a3 a83e 0c8e 94ba cda0 07bf 8c07 50bf
000001a0: 57e7 563e f30b 763e 13db a6bf 9a45 263e
000001b0: fbba 3bbe ee55 943e b99e 473f 8c1b 1f3e
000001c0: a0a9 ea3c cd08 c03e afe2 143e d4c2 7cbe
000001d0: 202e 4cbe 16f7 f23e 485c dfbc a2e9 2e3d
000001e0: 0c21 533f 2a07 a03e 2bf3 96bf 494a 963f
000001f0: 2225 88bd 84b0 98bd 63b9 a43e ad15 9fbf
00000200: 6b12 74be 675c 5cbe 7927 4e3f 8d2f c73d
00000210: 998c 5bbe 88da 963d de80 2ebd 1bab 933f
00000220: a501 4c3f a341 afbe fb51 34bd 5939 efbc
00000230: 2657 ea3d 6d6a 143f 8a7a d03d a86b bfbf
00000240: 31a3 1b3e 1436 18be 0716 883e 7a27 7d3e
00000250: 2181 a13d 368d 0eba 0dca 883e c1fd 443e
00000260: 7116 bb3e 885b 97bf 0d5c 943f 513f e73e
00000270: 6ae3 1bc0 91fe 0bc0 7e54 693f f67d a13e
00000280: 7575 103c f0ce bc3e 7d0f 863f 7217 8b3d
00000290: 9cf3 b3bf 593e 6ebd 2158 5f3e 3dc6 53bd
000002a0: a7f2 47bf a3a3 80bf f780 87bc 81cd 313f
000002b0: 08ca d6bd ecf6 933d 5f94 05c0 b6a0 c73e
000002c0: de72 a2bc 43ac e23e c477 1ec0 5e1c 2fbc
000002d0: c182 083e 0813 983d f5bf 93be b1f5 7f3e
000002e0: 99fe e93e f595 0c3f cffd c1bd 19a7 d83e
000002f0: ee97 043f 7131 e13e 3a76 ab3e 0fd5 0d3d
00000300: da3b 6fbe 2aa3 b83e e855 b03f def9 a33e
00000310: 3377 e0bd bd2c 79bc 430a bf3e d316 763f
00000320: 6958 0c3f 7928 313e aa1f 58be ae49 b5be
00000330: 256f fc3e f00a 403f 2bca 083f 3bbe 66bf
00000340: ea62 a2bd f37c f9be abae d93e f439 ee3e
00000350: 0304 363e 3ef6 ef3e 623a b63b c124 503e
00000360: e6d3 0b3f f196 81bf 0a13 db3f 0e46 f13e
00000370: 1838 13c0 a468 abbf f7ac 2f3f 9cc9 d13e
00000380: 2ab9 7ebd ac36 d33e 5354 183f a905 c73e
00000390: a54b abbf 9594 7f3d 758f 6f3e f345 c4be
000003a0: 6c7a d4be e2a4 24bf e240 b13c 12a0 253f
000003b0: 3539 a33e 676e 103d 4b8e 0abf a25b 863e
000003c0: a29a 113f 52a6 083f 4e06 e1bf e9ce 923e
000003d0: 68d8 093f 1c8d 0b3f 1bac 5dbe 2011 283e
000003e0: 816b 403f f567 113f 606a 853e 2b12 1a3f
000003f0: 2aa3 5d3f 7ab7 3a3e 6785 fd3e 448e 273f
-0.036359847 0.040990077 -0.091388755 -0.07298852 0.0623635 -0.10891271 0.0013998946 0.06527583
-0.023908477 0.01491191 -0.11402522 -0.016187077 -0.039807852 0.016794816 0.034683827 0.060257874
-0.12426506 -0.038078453 -0.062454537 -0.13923176 -0.05160494 -0.12391378 0.04111799 -0.028136589
-0.09052562 0.036563206 -0.14773841 -0.090752736 -0.052585263 -0.13523628 -0.12219653 -0.03428677
0.054697406 0.10400239 0.036264546 -0.11673779 -0.13003168 0.09520231 0.030330287 -0.023683935
-0.011860403 -0.14934282 -0.05561968 0.074091196 -0.030829027 -0.006270513 -0.13202347 -0.11679499
-0.016436841 -0.12451979 -0.06604512 0.050869897 -0.13615653 -0.0047181263 -0.08265102 -0.061006382
0.005329859 0.057878163 -0.03416358 -0.051321134 -0.15506762 -0.092430726 -0.15722883 -0.042493206
-0.10069148 0.06472714 0.59844714 0.1970508 -0.1394596 -0.02011913 -0.59088135 -0.018968187
0.00528993 0.11002181 -0.28659388 -0.28016794 -1.2297609 0.072836906 -0.021513797 0.5818603
-0.39044848 -0.9355454 -0.3370577 0.017243711 0.28991994 -0.040471394 -0.13821363 0.16009028
-0.52712643 -1.7063106 0.61999816 0.61181754 -0.13057297 -0.30219248 0.2416567 0.4021324
-0.65893066 0.50019944 0.4236931 -2.2345243 0.32937065 -0.0011333837 -0.5297974 -0.81261516
0.20986687 0.24027996 -1.3035606 0.16237488 -0.18333046 0.2897181 0.77976567 0.15537852
0.028645337 0.37506714 0.14539598 -0.24683696 -0.1993947 0.47454137 -0.027265683 0.04270328
0.824723 0.31255466 -1.1792959 1.174142 -0.066477075 -0.07455543 0.3217269 -1.242849
-0.23835151 -0.21519624 0.8052898 0.097258665 -0.21440352 0.073659 -0.042603366 1.1536592
0.7969001 -0.34229764 -0.044023495 -0.02920215 0.114424035 0.5797489 0.101796225 -1.4954729
0.15198971 -0.14864379 0.26579306 0.2472209 0.078859575 -0.0005437912 0.26716653 0.19237424
0.3654056 -1.1824808 1.1590592 0.45165494 -2.4357553 -2.1874125 0.9114455 0.31541413
0.008817066 0.3687663 1.0473477 0.06791581 -1.4058719 -0.058164928 0.21810962 -0.051702727
-0.78104633 -1.0049938 -0.016540987 0.694542 -0.10487753 0.07224831 -2.0871809 0.389898
-0.019830164 0.4427205 -2.47606 -0.010687916 0.13331129 0.07425505 -0.2885739 0.24996068
0.45702055 0.54916316 -0.09472238 0.42314985 0.51794326 0.43983033 0.33488637 0.034627017
-0.23362675 0.36061984 1.3776217 0.3202657 -0.109602354 -0.01520842 0.37312517 0.96128577
0.54822403 0.17300595 -0.21105829 -0.35407776 0.49303547 0.7501669 0.53433484 -0.9013402
-0.079290226 -0.4872814 0.42516074 0.4652859 0.17774968 0.46867555 0.005561159 0.2032652
0.54620206 -1.0124189 1.7115185 0.4712376 -2.3002987 -1.3391309 0.686233 0.40974128
-0.062188305 0.4125265 0.5950367 0.38871506 -1.338246 0.06239756 0.23394568 -0.38334617
-0.4149965 -0.6431409 0.021637384 0.6469737 0.31879583 0.035261538 -0.5412337 0.26241785
0.56876576 0.53378785 -1.7580049 0.28673485 0.53845835 0.5451219 -0.21647684 0.16412783
0.7516404 0.5679925 0.2605772 0.6018397 0.86577094 0.18234053 0.4951584 0.65451455

backbone.2.bias f4 [64]
00000000: 1d06 d93c cce9 7cbe 7e43 bf3e c451 153e
00000010: 6515 983e 779a 173f 12cb 12be 5df1 893f
00000020: d3d8 c6bd a9c3 57be 7cc0 bdbe 0e08 013e
00000030: 6efb e63e 78c4 25be 3eb6 d93e fd5a 333f
00000040: e681 00be f04d c93d 7f7a 1a3f 2945 0f3e
00000050: 08cc 003e 8aab 90bd 450e d53e d9d6 f43d
00000060: f726 0f3e 4b1e b33e 007a cc3d 5455 ca3c
00000070: 5527 833f e5bd d23c 99c3 0c3f 9d45 4c3e
00000080: 8ec8 613d 2e10 323d a539 09bc daa9 123e
00000090: 7567 473d dbe2 893e 86ef 963e bce9 f73d
000000a0: ef8b 1cbe a465 9b3d c7d1 873e b786 0ebe
000000b0: c435 4c3c f4d2 e6be e86c 22bb a3af ac3f
000000c0: 083f 423e 5808 86be ab37 533e 6d44 74bd
000000d0: 20f1 023e 1ccf a73d f437 e2be fb62 10bb
000000e0: befc 2b3e f781 ea3e 163a 4b3e a860 dc3d
000000f0: 2789 0dbd 4464 ce3e 7bba 40be 35c9 f63e
0.026492173 -0.24698561 0.3735618 0.14581972 0.29703823 0.5922007 -0.14335278 1.0776783
-0.09709325 -0.21070732 -0.37060916 0.12600729 0.451137 -0.16188228 0.42521852 0.7006071
-0.12549552 0.098293185 0.60343164 0.13991226 0.12577832 -0.070639685 0.4161245 0.119550414
0.13979708 0.3498405 0.09984207 0.02469889 1.0246378 0.025725314 0.5498596 0.1994843
0.055122904 0.04347246 -0.00837556 0.14322606 0.04868265 0.2693089 0.29479617 0.12105128
-0.15287755 0.07587746 0.26527235 -0.13918577 0.012463991 -0.4508282 -0.0024784151 1.34911
0.18969357 -0.2617824 0.20626704 -0.05963557 0.12787294 0.081938 -0.44183314 -0.0022031653
0.16795632 0.4580228 0.19846377 0.10760623 -0.034554627 0.40310872 -0.18821137 0.48200384

backbone.4.weight f4 [4, 64]
00000000: bca1 b33d 0ac5 67bf 7dec 09bf dba4 0fbf
00000010: 2cf4 12bf 4fad b73f 1339 143d 90fd d13f
00000020: 2c29 63bd ab74 87bf 5b90 13bf af24 13bf
00000030: 0a7f 08be c831 153c 6ec1 46be d20f 8abf
00000040: 6082 abbc 2239 e6be fbf2 e7be 50e5 1e3e
00000050: c1f2 05bf ae1c 54bf d069 993f 6900 823f
00000060: c916 02bf 5fe7 48bf ea5c 0ebf e1d9 0dbf
00000070: c432 c33d efb4 cdbf f81c 1f40 91c3 49bf
00000080: 9c05 053d d5e2 15bf a8d1 0dbe 8580 05bf
00000090: 2f9f 26bf f42a 0ebf 1e61 0ebf afea acbf
000000a0: bb1a 663d b92f b2be 3d8b 1f3f e78d d9be
000000b0: 4c65 c53d 3ee2 52bf 5f40 9dbe 743b c23f
000000c0: d59f 0ebf 0d49 38be 7447 13bf 02ee b1bc
000000d0: a5fc 0a40 2531 fbbd aca3 27bf 40ed 87bd
000000e0: f894 01bf d094 01bf d86b b03f 8f10 0abd
000000f0: 1489 2dbd 5a0f 3abf 4af0 e7bd 0fd7 aa3f
00000100: 461d d6bd 160d 0fbf 9aed fcbe d3e0 afbe
00000110: 8ffb 39bf 4012 a23f 85e1 3c3d a5b6 0840
00000120: 12dc a7bd e78d 843d 9fe5 d7be 8e15 e6be
00000130: c08d 23bf e565 7c3c 0b9e 20be e641 49bf
00000140: 96d9 df3d 1d00 01bf a8ae 34bf 6d2d 503f
00000150: a029 0fbf 9a60 d1be 08b2 6a3f 52ae a33f
00000160: 09fc e0be 5e90 3fbf 94cf 0cbf a3d5 04bf
00000170: 1965 1ebf 9096 c8bf 5723 3540 88fe 00bf
00000180: db2c 64bc 7f9c 0abf 84f4 c53d cdee b4be
00000190: 54d0 1dbe aab1 c4be 2c3c 18bf 3aae e5bf
000001a0: 0cb0 a53d e362 fcbe 0140 2c3f f39f d1be
000001b0: a7bd f6bc bc43 5bbf 4687 06bf 88c0 bc3f
000001c0: 3b76 00bf c838 c1be bf6a 36bf dc75 ab3d
000001d0: ff38 e03f 8553 913d 5835 cfbe 40b0 763d
000001e0: 8627 f7be 8dde 1dbf 97dd b83f d0a4 0d3d
000001f0: 2c42 a0bb a7e1 2abf 5a3e 8a3b 901e 853f
00000200: 8492 673d 2d2e 56bf 55ba a0be c83a f3be
00000210: 7d0b b8bf 040b d43f 0822 0e3d 1a33 e73f
00000220: 0240 b33c b79d febd a131 37bf 4182 1cbf
00000230: dd3c 183e 6144 673d d6d1 2bbf 7aa5 89bf
00000240: 8a73 2a3d b043 00bf 00d5 cfbe f046 37bf
00000250: bed6 1bbf 8dd9 a0be bceb 37bf a65c 76be
00000260: d2d5 b9be 1a5a 4dbf 6e1e 2cbf c4e6 febe
00000270: 8dae eabe 69be 8ebf cbe9 0a40 2361 0cbf
00000280: 01d4 723d db38 01bf 9530 083c 6883 0cbf
00000290: 91c0 30bf 4395 05bf 68a2 00bf c6e0 52bf
000002a0: b697 b03d c929 eabe f5d5 853f d3e2 a3bf
000002b0: 2df5 723b cada 77be a663 f6be 1019 be3f
000002c0: 3d42 c5be e724 f9be df8a 19bf 2b01 eebd
000002d0: cdec 4c40 54b1 eebd 467f f73c b32c efbd
000002e0: 3afd fcbe 3cd8 16bf bbd7 103f b903 c53d
000002f0: 3843 bc3c 9320 eabe 32b8 753d 1439 b33f
00000300: 01ca aa3d 76f8 60bf 946d 343d 0466 13bf
00000310: 156a 21bf 0581 f33f fb5b 00be e97a ac3f
00000320: 6099 a23c 8f18 ecbc c863 10bf de31 51bf
00000330: aafd 1ebc 5682 15bd 3cc3 12be 0426 ba3e
00000340: e808 a43d b1c4 19bf 7667 93be b0b1 00bf
00000350: b0ba 19bf 563c 4bbf 0b87 583f 092c be3f
00000360: 327c 2dbf 33a0 43bf 1e8d 0ebf 7cac 0ebf
00000370: 1a58 ed3e 1041 e1bf ad36 f33f de48 6abf
00000380: 98a0 c53c 8ebd 05bf 858a 75bd d128 d5be
00000390: 1011 bbbf 8fe8 47bf 1d59 91bf c9f8 97bf
000003a0: c7fc bebc 1d61 a6be f59c 1dbd 91fc 423e
000003b0: d62d 813d 663d bcbe 80be 05bf b71e 0d40
000003c0: a1dd fbbe 3467 023f 432a 73bf 46f0 7e3d
000003d0: 9dbb ba3f 6f3b 0b3d d953 f5be 5c0b f1bd
000003e0: 1561 1fbf 1050 8bbe 81d0 ed3f 0013 e2bd
000003f0: 94e5 c53d 4df4 18bf 89e2 acbd 0123 ad3f
0.08771083 -0.9053503 -0.5387648 -0.56110924 -0.57403827 1.4349765 0.036187243 1.6405506
-0.055459186 -1.0582479 -0.57642144 -0.5747785 -0.13329712 0.009106107 -0.19409725 -1.0786078
-0.020936191 -0.44965464 -0.45302567 0.15517163 -0.5232354 -0.8285626 1.1985416 1.0156375
-0.5081602 -0.78478044 -0.55610526 -0.5541058 0.09531167 -1.6070842 2.486143 -0.78814036
0.032476053 -0.58549243 -0.13849509 -0.5214923 -0.65086645 -0.5553429 -0.5561694 -1.350912
0.056177836 -0.34802034 0.62321836 -0.42491075 0.096384615 -0.8237647 -0.30713174 1.5174394
-0.55712634 -0.17996617 -0.57530904 -0.021719936 2.1716702 -0.12265233 -0.6548412 -0.06637049
-0.50617933 -0.50617695 1.3782911 -0.033707198 -0.042367056 -0.72679675 -0.113251284 1.3346881
-0.10454802 -0.5587934 -0.49400026 -0.34351215 -0.7264947 1.266182 0.04611351 2.1361477
-0.08196272 0.06472378 -0.42167374 -0.4493832 -0.6388817 0.015405153 -0.15685289 -0.7861618
0.10930173 -0.503908 -0.70579004 0.81319314 -0.5592289 -0.40894014 0.91677904 1.2787573
-0.43942288 -0.7482966 -0.5500424 -0.51888484 -0.6187301 -1.5670948 2.830282 -0.50388384
-0.01392671 -0.54145044 0.09665778 -0.3533844 -0.15411502 -0.38416797 -0.59466815 -1.7943795
0.08090219 -0.49294195 0.6728516 -0.40942344 -0.03011973 -0.8565023 -0.5255016 1.4746256
-0.50180405 -0.37738633 -0.7125663 0.08372089 1.7517394 0.07096008 -0.40470386 0.06022668
-0.4827234 -0.6166771 1.4442624 0.034581006 -0.004890701 -0.6675057 0.0042188587 1.0399952
0.056536213 -0.8366421 -0.3139216 -0.47505784 -1.4378506 1.6565862 0.034700423 1.806247
0.021881107 -0.124324255 -0.715601 -0.6113625 0.14866967 0.056461696 -0.6711706 -1.0753624
0.041614093 -0.5010328 -0.40592194 -0.7159262 -0.60874546 -0.31415978 -0.7184408 -0.2405878
-0.36295944 -0.8021561 -0.6723393 -0.49785435 -0.45836297 -1.1151859 2.1705196 -0.5483572
0.059284214 -0.5047738 0.008312364 -0.5488801 -0.69043833 -0.5218088 -0.5024781 -0.8237423
0.086226866 -0.45735005 1.045592 -1.2803596 0.0037072406 -0.24204555 -0.481229 1.4851398
-0.38527098 -0.48660967 -0.59977525 -0.116213165 3.2019532 -0.116549164 0.030212056 -0.116784476
-0.49411947 -0.589237 0.5657918 0.09619851 0.022981271 -0.45727977 0.059990115 1.4001794
0.083393104 -0.8787912 0.044049814 -0.5757754 -0.63052493 1.9023749 -0.12535088 1.3475009
0.019848526 -0.028820304 -0.56402254 -0.81716716 -0.009704033 -0.03650125 -0.14332289 0.3635713
0.08009511 -0.6006575 -0.28789872 -0.5027113 -0.6005049 -0.7938894 0.8458106 1.4857188
-0.6776763 -0.7641632 -0.5568408 -0.5573194 0.4635628 -1.759798 1.9001061 -0.91517437
0.024124429 -0.5224236 -0.059946556 -0.41632703 -1.4614582 -0.7808923 -1.135532 -1.1872798
-0.023313893 -0.32495967 -0.038479764 0.19041659 0.06307571 -0.36765593 -0.52243805 2.2049997
-0.49192527 0.50938725 -0.9498636 0.06224086 1.4588505 0.033992227 -0.47915533 -0.11769745
-0.6225751 -0.2720952 1.8579255 -0.1103878 0.09662929 -0.59747773 -0.08441646 1.3526307

backbone.4.bias f4 [4]
00000000: cf19 8f3f f766 4dbf 68e5 1b3e 057f 9d3f
1.1179751 -0.80235237 0.1522423 1.2304388
