models/dqn_state_model200000.pt (torch, 21911 bytes, 6 tensors)

backbone.0.weight f4 [64, 8]
0.75627965 -1.1195265 0.050906856 1.6919909 -1.2148768 0.5175616 0.21087633 0.8081241
-0.13658495 -0.70988727 -0.28158057 -1.891161 -0.3033739 0.05266886 -0.21237187 0.14617561
1.213967 0.11027249 0.46879932 0.0188403 0.23564428 -0.9106826 -0.6228478 0.032449596
-0.21016836 -0.050259154 -1.6922433 -0.38014802 0.57066005 -0.5350276 0.476078 0.6122093
2.3542035 0.17827672 0.7970514 0.09735563 -0.5094931 -0.06890964 0.080564536 -0.010593719
0.76140803 0.25836787 0.9805632 1.1346526 -0.7298901 -0.1455579 -0.41644448 -0.48609242
0.72969514 -0.069413275 0.6005563 -1.0906122 -0.29036063 0.9244416 -0.029375881 0.7110898
-0.37732232 0.14648896 -0.22476187 -0.80980456 2.1158345 -0.08007373 0.23119706 -0.8507832
-0.0009235082 -0.71793455 0.822634 -0.9811887 -0.8443015 -1.1374897 0.15250388 0.34486976
0.518423 0.23836803 -1.475954 -0.94572043 -0.2862492 0.34561163 0.4666208 -0.5847378
-2.1063144 -0.73690933 -0.7994071 -0.66318566 0.7504758 0.028376574 0.5093509 -0.053570546
-0.37881786 0.17270495 -0.4784365 -0.49168098 0.8094361 1.3003417 0.8320623 -0.14455621
-0.017142596 -0.10323909 -3.1026082 0.29007328 0.13405968 0.38933802 0.20009753 0.15879661
0.5623164 0.22591929 0.2541561 0.39101166 0.584728 -1.4509869 0.04873911 -0.674515
0.8597531 -0.683683 -1.2035067 -0.46184447 0.8092373 -0.054942537 -0.17474416 -0.46683818
-0.91804326 -0.4337566 -0.78141123 -1.049851 -0.68123615 0.05983978 0.002938333 0.0054274537
1.4455101 -0.75625044 1.288758 -0.512648 -0.45266756 -0.0025947876 -0.010676636 0.18762869
-1.9076781 0.043554563 -0.51899487 -0.7774628 -0.3166911 -0.37395927 0.45658526 -0.01621355
0.49269328 -0.3483398 0.91755205 1.1763926 1.3046447 0.38873577 0.21031512 0.67220235
0.5411007 -0.7060599 -0.704768 -1.2445422 0.2723842 0.062176697 0.6661939 0.065044634
1.536123 0.6014214 0.35418633 -0.6952473 -0.6095606 -0.044192195 -0.07753401 0.42522973
-0.15949818 -0.55172694 0.9221422 -0.40300283 1.6334938 1.0453864 0.85685205 0.71238136
0.01227113 0.15207027 1.1139027 -1.9082189 -0.06235173 0.07722846 0.2050491 -0.21403638
1.4057059 0.5244162 0.4434402 -0.5361268 0.24306779 0.19712813 -0.27136824 0.0066043795
0.954367 0.008066944 0.27980217 0.4539793 0.3276524 0.45492217 0.85441023 0.6814084
-0.49259263 -0.29669023 -0.27733687 -0.30823815 0.158899 -0.83754796 -0.15829982 -1.6368726
0.4213787 -0.48522407 0.6591088 -0.6897717 -1.4983734 -0.67684126 -0.37618738 0.6577866
-0.38370293 -0.18004087 -0.33884093 -0.67348397 -1.4600054 -0.26265585 -0.878729 -0.676911
-0.17387548 0.59922636 -0.99890786 0.032889117 -0.278667 -1.234249 -1.4768428 -0.10062654
-0.19904727 0.8846817 0.16317387 0.8365732 0.32799903 -1.1374973 -1.6796411 -0.7461207
0.9123468 0.03646758 0.64652824 -0.03550849 0.4243009 -0.8643038 -1.0445937 -0.068333276
0.09871505 -0.47689667 -2.311117 -1.502756 1.1642933 -0.54818493 0.060466405 0.06404981
00000000: 8b9b 413f a54c 8fbf b583 503d 2893 d83f
00000010: 1581 9bbf eb7e 043f f7ef 573e 39e1 4e3f
00000020: eddc 0bbe 2cbb 35bf 542b 90be 9011 f2bf
00000030: d353 9bbe 4dbb 573d 0378 59be 0faf 153e
00000040: 4563 9b3f 8bd6 e13d 7706 f03e f956 9a3c
00000050: bc4c 713e 7f22 69bf f472 1fbf dee9 043d
00000060: 6036 57be 8bdc 4dbd 6e9b d8bf c3a2 c2be
00000070: c716 123f 92f7 08bf 7fc0 f33e c0b9 1c3f
00000080: 45ab 1640 2c8e 363e 900b 4c3f 6362 c73d
00000090: 246e 02bf 7f20 8dbd 05ff a43d 4791 2dbc
000000a0: a3eb 423f cb48 843e 3106 7b3f 4c3c 913f
000000b0: 14da 3abf 210d 15be 3638 d5be 1be1 f8be
000000c0: 4dcd 3a3f 8c28 8ebd 0fbe 193f 2e99 8bbf
000000d0: 26aa 94be 34a8 6c3f b0a5 f0bc fb09 363f
000000e0: 6430 c1be 3401 163e fa27 66be 5a4f 4fbf
000000f0: d569 0740 b2fd a3bd ecbe 6c3e eecc 59bf
00000100: 9617 72ba 8fca 37bf 2498 523f 2f2f 7bbf
00000110: 2524 58bf 4399 91bf fa29 1c3e c592 b03e
00000120: 5fb7 043f c016 743e 10ec bcbf bc1a 72bf
00000130: 418f 92be 02f4 b03e ece8 ee3e 60b1 15bf
00000140: dbcd 06c0 17a6 3cbf f2a5 4cbf 89c6 29bf
00000150: 2f1f 403f fd75 e83c d264 023f ca6c 5bbd
00000160: 6af4 c1be 91d9 303e a1f5 f4be 9cbd fbbe
00000170: 3437 4f3f 9971 a63f 0902 553f 8b06 14be
00000180: a16e 8cbc 046f d3bd 2291 46c0 7c84 943e
00000190: f146 093e 5057 c73e 5ee6 4c3e 949b 223e
000001a0: f8f3 0f3f 6357 673e c020 823e ae32 c83e
000001b0: bcb0 153f f0b9 b9bf a9a2 473d 04ad 2cbf
000001c0: c718 5c3f d905 2fbf 820c 9abf e176 ecbe
000001d0: 2d2a 4f3f 6d0b 61bd 22f0 32be 6a05 efbe
000001e0: e204 6bbf 5815 debe 910a 48bf 8461 86bf
000001f0: 7e65 2ebf 8f1a 753d 0c91 403b c8d8 b13b
00000200: 7a06 b93f a199 41bf 06f6 a43f e63c 03bf
00000210: 0bc4 e7be 500d 2abb 0fed 2ebc bc21 403e
00000220: cc2e f4bf 4566 323d d9dc 04bf cd07 47bf
00000230: 5625 a2be 9777 bfbe 8bc5 e93e 47d2 84bc
00000240: 4b42 fc3e 9859 b2be b1e4 6a3f 0894 963f
00000250: 99fe a63f 6008 c73e d95c 573e 7415 2c3f
00000260: 9385 0a3f 57c0 34bf ad6b 34bf 294d 9fbf
00000270: f175 8b3e feac 7e3d af8b 2a3f 1f36 853d
00000280: ae9f c43f c1f6 193f e957 b53e bafb 31bf
00000290: 2a0c 1cbf e002 35bd 27ca 9ebd b6b7 d93e
000002a0: 7e53 23be fa3d 0dbf 8311 6c3f 6356 cebe
000002b0: 5316 d13f 39cf 853f a85a 5b3f a05e 363f
000002c0: da0c 493c 4fb8 1b3e 5d94 8e3f 8440 f4bf
000002d0: 8764 7fbd f429 9e3d 64f8 513e 5a2c 5bbe
000002e0: 2cee b33f 2440 063f 980a e33e 9b3f 09bf
000002f0: c3e6 783e f5db 493e c7f0 8abe 8d69 d83b
00000300: 6551 743f 372b 043c 3b42 8f3e fa6f e83e
00000310: 0ec2 a73e 8feb e83e a1ba 5a3f c870 2e3f
00000320: 1a35 fcbe c8e7 97be 19ff 8dbe 64d1 9dbe
00000330: 6bb6 223e 8b69 56bf 5919 22be 0b85 d1bf
00000340: f3be d73e 4a6f f8be 5bbb 283f e194 30bf
00000350: b3ca bfbf 7845 2dbf a29b c0be b464 283f
00000360: b674 c4be a25c 38be 8f7c adbe 7269 2cbf
00000370: 75e1 babf d47a 86be 62f4 60bf 0a4a 2dbf
00000380: 6a0c 32be e666 193f 6db8 7fbf bdb6 063d
00000390: 71ad 8ebe dffb 9dbf 2f09 bdbf 4a15 cebd
000003a0: 0cd3 4bbe 807a 623f 0d17 273e a929 563f
000003b0: 7def a73e 8399 91bf 7bfe d6bf c401 3fbf
000003c0: 8f8f 693f 075f 153d e082 253f 5a71 11bd
000003d0: f83d d93e 0443 5dbf 3fb5 85bf 51f2 8bbd
000003e0: 1e2b ca3d cd2b f4be 57e9 13c0 4f5a c0bf
000003f0: 9007 953f d955 0cbf 9fab 773d 8c2c 833d

backbone.0.bias f4 [64]
0.46298414 -0.5686027 -0.9664721 -0.4548346 -0.16255015 -1.1031137 0.42228764 -0.2790743
-0.10825894 0.36898735 -0.42835072 -0.86505777 0.030401044 -0.041611537 -0.038034067 0.54540217
-0.4242474 0.03600997 -0.2845752 -0.33045244 -0.5351565 -0.5437792 -0.07272252 -0.111645706
-0.9518588 0.45306882 -0.43722758 0.34153962 -0.19782479 0.7000482 -0.9476387 0.4639164
0.48411635 1.1574426 0.75772554 -0.078864746 1.4951651 0.16922992 -0.43063584 0.45116007
-0.6899042 0.6439141 -0.513883 -0.28957906 -0.5323009 0.41533557 0.4062882 0.99876463
0.45439318 0.4432819 0.24922824 -0.9184271 -0.22743979 -0.6263592 0.24956039 -0.6317048
0.113435656 -0.83982426 -0.56090915 0.30796614 0.09143082 -0.61191523 1.2669111 0.105409004
00000000: 420c ed3e f28f 11bf b76a 77bf 15e0 e8be
00000010: 8c73 26be d432 8dbf 1636 d83e d4e2 8ebe
00000020: ddb6 ddbd e9eb bc3e c950 dbbe 6d74 5dbf
00000030: 9c0b f93c dc70 2abd 9cc9 1bbd 7a9f 0b3f
00000040: f536 d9be 317f 133d d7b3 91be 1031 a9be
00000050: 0400 09bf 1d35 0bbf 8bef 94bd 81a6 e4bd
00000060: 05ad 73bf a3f8 e73e 4bdc dfbe 48de ae3e
00000070: 9592 4abe 5c36 333f 7398 72bf 7386 ed3e
00000080: 19de f73e 1427 943f 4dfa 413f d783 a1bd
00000090: 9261 bf3f 9c4a 2d3e 4d7c dcbe 74fe e63e
000000a0: 909d 30bf 8ed7 243f d68d 03bf b543 94be
000000b0: df44 08bf dda6 d43e 0205 d03e 0aaf 7f3f
000000c0: 39a6 e83e d8f5 e23e b035 7f3e 0a1e 6bbf
000000d0: fae5 68be 1459 20bf c28c 7f3e 68b7 21bf
000000e0: f450 e83d b9fe 56bf be97 0fbf bdad 9d3e
000000f0: 1540 bb3d 7aa6 1cbf 252a a23f ade0 d73d

backbone.2.weight f4 [64, 64]
-0.3863696 -1.3251808 -0.11020069 0.22524618 -1.1603869 -1.4301918 0.23176266 -0.25940314
-0.5940813 0.40591335 -3.0137658 -0.9039114 0.4657054 -0.28608817 -0.51715475 0.3369354
-2.4512072 0.055088602 0.7197043 -0.2210231 -1.355439 0.40306962 0.19351153 -2.2013543
-1.3906755 0.16268608 -0.7932958 0.47129136 -0.47683224 -0.12266038 0.16490823 0.2539307
1.0306631 -0.05391318 0.030519139 0.18456909 0.56046605 -1.4270028 0.8307058 0.7762336
-0.71862316 -0.46988776 -0.7171089 1.6609739 0.37650055 0.75345075 0.45926243 0.124821566
-1.0476507 -0.21363278 0.089160375 -0.18369013 -0.36955848 0.6803021 0.057177868 0.86376756
0.14692551 -2.0384936 0.15630822 -0.58181304 -0.81802934 -1.1665405 0.13165355 -0.7481152
-0.72782594 0.8752315 -0.37233993 0.6163994 -0.81485605 -0.13449928 -0.08923591 0.52089274
0.27802986 -0.17746748 0.53352183 0.46338797 0.7366463 -0.13652278 0.4306779 0.69774765
0.7923656 0.25974134 -0.5618762 0.70154923 -0.11512716 0.022810968 -0.05316862 0.20941819
0.9176236 0.75636476 0.35089895 0.29563728 1.0429809 -1.2312213 -0.20176445 0.2910081
-0.33952165 -0.6889183 -0.6045809 -0.22124016 -0.99318755 0.41027495 -0.12577905 -0.05155805
0.745054 0.6622139 -0.20601508 -0.12575273 -0.12719722 0.2861881 0.43750504 -0.5395792
0.0766555 0.22001767 -1.9416184 0.3126628 0.70752335 0.34679618 0.14159751 0.49325058
1.2880433 0.472149 0.09806149 0.3734631 0.66424465 0.010901165 -0.5231242 0.9185351
-1.6078364 0.83041245 0.5341882 0.89008266 -0.14960699 -0.15155454 0.0356953 0.94328994
1.3400823 0.22160582 0.105847344 0.10734492 0.798227 0.36404827 0.3401894 0.9808553
0.8337749 0.3463487 -2.3311584 0.6966205 0.1892505 -1.5822887 0.9351529 -0.0061854008
0.7758293 0.44223464 1.134309 0.24101809 -0.067371875 -1.8440893 0.85675937 0.4914391
0.057991598 -0.96725744 -0.090706795 -0.19874385 -0.78876746 0.05762151 -0.10969319 0.11757145
0.48878708 1.0813518 0.2463382 0.41788253 -0.5283256 0.28477567 0.299459 0.28888646
-0.21800052 0.5749067 -2.928783 -0.4147932 -0.22720014 0.9987242 -1.2827356 -1.0821946
2.1372304 0.7727584 0.30662465 0.748715 0.41128445 0.9386336 0.15800907 0.3186529
-0.44537297 1.0983918 1.1604365 0.37558374 0.129466 2.0555944 -0.16162972 -0.21347895
0.50581926 -0.14351344 0.54585016 0.6588522 0.89029586 0.13778013 0.7540497 0.4222193
0.9058442 0.06174712 0.21301177 0.5798123 0.39604294 -0.047819525 -0.12971053 0.64102274
1.8450531 0.6205019 0.6013363 -0.2957679 0.3568243 -0.59573925 0.5014766 0.12443586
-0.7925156 -0.7227649 0.024200523 -0.6104086 -1.0599765 0.670845 0.024340864 0.4810455
0.5296568 0.7232635 0.47455582 0.032123048 0.23573308 -0.026544703 0.61728746 -0.37045735
0.0817365 0.535331 -1.5420948 1.1381693 0.47053826 0.86166656 -0.38821682 0.0702471
0.8747399 1.2392293 0.19805141 0.7007896 0.37306958 1.6004257 -0.069206126 0.7989567
00000000: 3cd2 c5be 869f a9bf e6b0 e1bd efa6 663e
00000010: 8f87 94bf 8610 b7bf 3153 6d3e 7dd0 84be
00000020: b615 18bf e0d3 cf3e 8ae1 40c0 bd66 67bf
00000030: f070 ee3e 267a 92be 4164 04bf cc82 ac3e
00000040: 94e0 1cc0 96a4 613d 8a3e 383f e153 62be
00000050: 067f adbf 245f ce3e e327 463e fde2 0cc0
00000060: a801 b2bf 2e97 263e 6f15 4bbf 1a4d f13e
00000070: 5b23 f4be 5e35 fbbd b4dd 283e 3403 823e
00000080: c5ec 833f 11d4 5cbd 4603 fa3c aeff 3c3e
00000090: b47a 0f3f 07a8 b6bf 23a9 543f 3fb7 463f
000000a0: b0f7 37bf 2195 f0be 7394 37bf cb9a d43f
000000b0: aec4 c03e 26e2 403f 7224 eb3e 73a2 ff3d
000000c0: 6b19 86bf 8dc2 5abe b799 b63d 4419 3cbe
000000d0: c536 bdbe 4728 2e3f 5733 6a3d df1f 5d3f
000000e0: a473 163e ae76 02c0 430f 203e b3f1 14bf
000000f0: 5f6a 51bf 3351 95bf 30d0 063e 7a84 3fbf
00000100: cd52 3abf 2c0f 603f 57a3 bebe 5acc 1d3f
00000110: 689a 50bf 2eba 09be 51c1 b6bd 3a59 053f
00000120: ee59 8e3e 09ba 35be e394 083f 3041 ed3e
00000130: da94 3c3f a1cc 0bbe d081 dc3e 979f 323f
00000140: 79d8 4a3f d1fc 843e 1ed7 0fbf bb98 333f
00000150: cac7 ebbd 11de ba3c 57c7 59bd b971 563e
00000160: 61e9 6a3f 1fa1 413f 07a9 b33e c55d 973e
00000170: 6680 853f a998 9dbf 579b 4ebe 04ff 943e
00000180: c8d5 adbe f35c 30bf d0c5 1abf c88c 62be
00000190: 8a41 7ebf 8f0f d23e 39cc 00be 892e 53bd
000001a0: dcbb 3e3f da86 293f 9ef5 52be 53c5 00be
000001b0: fd3f 02be 3f87 923e a900 e03e dd21 0abf
000001c0: 8ffd 9c3d 504c 613e f486 f8bf 5715 a03e
000001d0: 4020 353f 458f b13e f0fe 103e 578b fc3e
000001e0: 9ade a43f 84bd f13e 76d4 c83d 8e36 bf3e
000001f0: f00b 2a3f cd9a 323c 78eb 05bf 1e25 6b3f
00000200: 95cd cdbf e995 543f 8fc0 083f 75dc 633f
00000210: 9332 19be 1d31 1bbe 3c35 123d 737b 713f
00000220: d187 ab3f a3ec 623e 7ec6 d83d a7d7 db3d
00000230: 9b58 4c3f 8964 ba3e 4e2d ae3e 5519 7b3f
00000240: 4672 553f 9e54 b13e b331 15c0 b955 323f
00000250: e2ca 413e 7088 cabf 2e66 6f3f e7ae cabb
00000260: c09c 463f 946c e23e 0a31 913f 72cd 763e
00000270: 44fa 89bd 1e0b ecbf 9554 5b3f e89d fb3e
00000280: 9988 6d3d 2f9e 77bf 7cc4 b9bd 8283 4bbe
00000290: aaec 49bf 8804 6c3d d3a6 e0bd 4dc9 f03d
000002a0: 4d42 fa3e bc69 8a3f 1540 7c3e b3f4 d53e
000002b0: 5940 07bf 1ece 913e b152 993e ede8 933e
000002c0: 873b 5fbe 162d 133f 2e71 3bc0 c65f d4be
000002d0: 27a7 68be 64ac 7f3f ae30 a4bf 5a85 8abf
000002e0: 62c8 0840 7fd3 453f e8fd 9c3e c9ab 3f3f
000002f0: e093 d23e 4b4a 703f 21cd 213e 7926 a33e
00000300: ed07 e4be 1a98 8c3f 2f89 943f 834c c03e
00000310: bc92 043e dc8e 0340 4382 25be 3a9a 5abe
00000320: 5f7d 013f 30f5 12be d6bc 0b3f 8aaa 283f
00000330: 6eea 633f 3c16 0d3e 6709 413f 212d d83e
00000340: 68e5 673f 8cea 7c3d c21f 5a3e 946e 143f
00000350: 24c6 ca3e 68de 43bd d6d2 04be 111a 243f
00000360: b32a ec3f 36d9 1e3f 2df1 193f e46e 97be
00000370: adb1 b63e 5e82 18bf c560 003f 3ad8 fe3d
00000380: 4de2 4abf 1f07 39bf 2d40 c63c bd43 1cbf
00000390: 4fad 87bf 7fbc 2b3f 7e66 c73c 994b f63e
000003a0: 9797 073f cc27 393f fbf8 f23e 7593 033d
000003b0: 0364 713e 4774 d9bc 8d06 1e3f 96ac bdbe
000003c0: 7765 a73d 740b 093f 5d63 c5bf 88af 913f
000003d0: 64ea f03e 2e96 5c3f 5bc4 c6be b6dd 8f3d
000003e0: f4ee 5f3f 119f 9e3f fdcd 4a3e f266 333f
000003f0: fa02 bf3e c0da cc3f f1bb 8dbd 6d88 4c3f

backbone.2.bias f4 [64]
0.97437215 -0.6746531 -0.15432048 -0.92189056 0.56743133 -0.01637115 -0.09076659 -0.015726328
-0.48843208 0.11976579 -0.9339644 -0.6897991 0.35874286 -0.09942394 0.48757023 0.5638896
0.61742693 -0.8400849 -0.04217599 -0.08394422 -0.7878237 0.2603833 1.1244767 -0.10103728
-0.59690416 -0.8483922 -0.78593516 -0.8193316 0.034047145 0.17826268 0.11100599 -0.87480205
1.1082746 -0.7600934 0.07002503 -0.67023844 -0.7161754 -0.10619611 -0.5678057 0.36792788
1.074745 -0.59432834 -0.14364424 -0.36969677 0.017307887 0.5024094 -0.7560977 0.7734082
-0.13609017 0.92317426 -1.2511348 1.57906 -0.3939449 -0.57547796 0.6290531 -0.014179307
-0.964707 -0.8992765 0.76128346 0.36641738 -0.0027891994 -0.8742587 -0.1731441 -0.10904929
00000000: 7470 793f 11b6 2cbf 3006 1ebe 0501 6cbf
00000010: 2e43 113f ca1c 86bc d5e3 b9bd 80d4 80bc
00000020: c513 fabe c447 f53d 4a18 6fbf ac96 30bf
00000030: 25ad b73e c79e cbbd cea2 f93e 125b 103f
00000040: b10f 1e3f ce0f 57bf bbc0 2cbd f2ea abbd
00000050: d0ae 49bf f650 853e daee 8f3f a2ec cebd
00000060: b6ce 18bf 3b30 59bf 0c33 49bf b7bf 51bf
00000070: 0575 0b3d 7e8a 363e 1c57 e33d 07f3 5fbf
00000080: f1db 8d3f 7b95 42bf 4869 8f3d bf94 2bbf
00000090: 4557 37bf 597d d9bd b75b 11bf 0b61 bc3e
000000a0: 3f91 893f e725 18bf 7a17 13be e548 bdbe
000000b0: 45c9 8d3c e79d 003f 9e8f 41bf 14fe 453f
000000c0: 395b 0bbe 2655 6c3f 2f25 a0bf a31e ca3f
000000d0: 25b3 c9be 8652 13bf a009 213f 5350 68bc
000000e0: 0af7 76bf fc36 66bf 79e3 423f 0f9b bb3e
000000f0: 00cb 36bb 6bcf 5fbf b04c 31be 3c55 dfbd

backbone.4.weight f4 [4, 64]
1.8309052 -0.6329132 -1.0994444 -0.9661831 -0.76393634 -0.057148926 -0.055819083 -0.09158835
-1.1811358 -0.95574677 -1.0977377 -1.0078368 -1.0611719 0.07512361 -1.1306764 1.8264819
0.5446774 -0.6792497 -0.7804549 -0.078531176 -0.73097545 -1.0077826 1.3308891 -0.043472484
-0.5932284 -0.7830574 -1.0350193 -0.6101934 0.03965494 0.10754956 -0.50007343 -0.52906215
0.9514172 -0.5599301 0.09701222 -1.007396 -0.081529714 0.017067447 -0.77278054 -1.1570507
2.0653574 -0.80674213 -0.06707907 -0.63076997 0.096384615 -0.75907993 -0.78498447 1.6230425
-0.9711869 -1.3125612 -0.98247534 1.4321743 0.018087532 -0.8049635 1.7256559 -0.03975609
-0.74201477 -0.77472943 1.7584083 0.34428078 -0.042367056 -1.0236983 -0.08149608 -0.027744772
1.5228453 -0.34305346 -1.0259726 -0.7387887 -0.6424644 0.0050709294 0.08099948 0.06724005
-1.2958115 -0.52017677 -1.1817939 -0.73553383 -0.78054404 -0.016444562 -1.0161214 1.9633503
0.62029535 -0.81693065 -1.119921 0.09820712 -1.0359455 -0.614928 1.6685741 0.068050385
-0.9739623 -0.9591959 -0.9633648 -1.4091408 -0.02587232 -0.6522315 -0.15276743 -1.0324315
0.8970167 -0.8632511 0.49221253 -1.1439083 -0.36447608 0.09122387 -1.0930039 -1.1251007
2.1200802 -1.1486988 0.098489694 -0.68910885 0.009817536 -1.013289 -1.2284018 1.4930809
-0.71104443 -1.3484002 -0.7045846 1.4296689 0.54286784 -0.2412326 1.6104416 0.11242859
-0.55578077 -0.8132213 1.6006516 0.58164746 -0.036656335 -0.6398547 0.013583823 0.03391787
1.7315449 -1.0611203 -0.3765529 -0.9797701 -1.3298331 0.06529304 0.024089824 0.07072623
-1.0751494 0.38591617 -0.7265853 -0.96437633 -0.89405197 0.07708526 -0.8451137 1.3142982
0.7044216 -0.83622783 -1.0699278 -0.09671575 -1.2115558 -0.7214008 1.6708479 0.032142904
-0.57057977 -1.2655389 -0.7487301 -0.5720024 0.023140825 -0.3905707 0.84334 -1.1594034
1.3035393 -0.50813437 -0.030230429 -0.8601341 0.83112246 -0.093004555 -0.5660337 -1.0171717
2.3009112 -0.27077836 0.10073069 -1.0193762 0.024926588 -0.823114 -0.72130644 1.2981756
-0.70046186 -1.372949 -0.92041427 0.81560284 -0.80646896 -1.3350207 1.8102474 -0.05214697
-0.8236113 -1.235576 0.97976077 1.6730019 0.022981271 -0.8934468 0.051535234 0.05291776
1.581504 -1.3772925 -0.78788507 -1.2080837 -1.227996 0.047242526 -0.13349587 -0.06412254
-0.805465 -0.3075235 -0.8642198 -0.9137817 -1.197976 0.08823625 -0.4998475 1.7263861
0.21370508 -0.5154818 -1.3607854 -0.010484506 -0.7082237 -0.69595504 0.92487985 0.009202028
-0.5563085 -0.31837064 -0.86102206 -1.1803168 0.11353247 -0.7032801 -0.29667637 -0.9073012
1.037098 -1.3177525 -0.03469643 -0.45270172 -1.086814 -0.07487975 -0.83109 -0.94093966
1.682708 -0.53509873 -0.09180762 -0.38280162 0.06307571 -0.8684634 -0.7681055 1.83115
-0.8028671 -1.3841267 -1.3395427 2.0378609 -1.2584602 -0.6892159 1.7319509 -0.06073679
-0.9929554 -0.47849974 2.149156 0.4820753 0.09662929 -1.1584299 -0.116169095 0.035777558
00000000: 1a5b ea3f 9906 22bf 98ba 8cbf c757 77bf
00000010: 5591 43bf fe14 6abd 8da2 64bd ac92 bbbd
00000020: 752f 97bf d2ab 74bf ab82 8cbf cc00 81bf
00000030: 7bd4 87bf 68da 993d 01ba 90bf 29ca e93f
00000040: fa6f 0b3f 4fe3 2dbf e4cb 47bf f4d4 a0bd
00000050: 3521 3bbf 05ff 80bf 935a aa3f 3410 32bd
00000060: d1dd 17bf 7376 48bf 837b 84bf a235 1cbf
00000070: 386d 223d f242 dc3d d004 00bf 9e70 07bf
00000080: 1490 733f 9457 0fbf 58ae c63d 5af2 80bf
00000090: 0df9 a6bd 08d1 8b3c f2d4 45bf 3d1a 94bf
000000a0: d12e 0440 a786 4ebf c060 89bd 247a 21bf
000000b0: 4c65 c53d 1053 42bf bef4 48bf dbbf cf3f
000000c0: b49f 78bf 0102 a8bf 8183 7bbf 7d51 b73f
000000d0: 4e2c 943c 1712 4ebf 4be2 dc3f 48d7 22bd
000000e0: aef4 3dbf ab54 46bf 8613 e13f 9245 b03e
000000f0: 1489 2dbd 8c08 83bf 6be7 a6bd 0149 e3bc
00000100: 98ec c23f b4a4 afbe 1253 83bf 4221 3dbf
00000110: 8c78 24bf 0a2a a63b 0ee3 a53d 27b5 893d
00000120: 27dd a5bf 4e2a 05bf 0645 97bf f24b 3cbf
00000130: bcd1 47bf bfb6 86bc 4410 82bf 104f fb3f
00000140: adcb 1e3f 5e22 51bf 9259 8fbf d120 c93d
00000150: dd99 84bf ec6b 1dbf d693 d53f 005e 8b3d
00000160: 9855 79bf dd8d 75bf 139f 76bf ba5e b4bf
00000170: 30f2 d3bc a5f8 26bf 116f 1cbe b726 84bf
00000180: e3a2 653f 06fe 5cbf 4803 fc3e 966b 92bf
00000190: 9c9c babe 95d3 ba3d 8de7 8bbf 4d03 90bf
000001a0: 65af 0740 9008 93bf f7b4 c93d 7069 30bf
000001b0: bbd9 203c 74b3 81bf 453c 9dbf 461d bf3f
000001c0: 0207 36bf 6198 acbf a85f 34bf 64ff b63f
000001d0: 63f9 0a3f ae05 77be f322 ce3f f640 e63d
000001e0: a647 0ebf 452f 50bf 27e2 cc3f d9e6 143f
000001f0: f424 16bd 85cd 23bf af8e 5e3c 77ed 0a3d
00000200: 43a3 dd3f cad2 87bf 8bcb c0be 37d2 7abf
00000210: f937 aabf 5bb8 853d 0658 c53c ead8 903d
00000220: 7f9e 89bf ce96 c53e 7f01 3abf 5ee1 76bf
00000230: 97e0 64bf e0de 9d3d 5f59 58bf ec3a a83f
00000240: f954 343f 0713 56bf 65f3 88bf e812 c6bd
00000250: 4314 9bbf b9ad 38bf 58de d53f 47a8 033d
00000260: 8411 12bf 2efd a1bf c7ac 3fbf c06e 12bf
00000270: d491 bd3c e2f8 c7be 21e5 573f 5567 94bf
00000280: 60da a63f 1815 02bf cea5 f7bc c031 5cbf
00000290: 71c4 543f 2c79 bebd 96e7 10bf af32 82bf
000002a0: 2142 1340 76a3 8abe e44b ce3d eb7a 82bf
000002b0: d832 cc3c 99b7 52bf 8aa7 38bf 9e2a a63f
000002c0: 7851 33bf cbbc afbf 45a0 6bbf 59cb 503f
000002d0: c074 4ebf f5e1 aabf 30b6 e73f 1098 55bd
000002e0: 31d8 52bf 5b27 9ebf 9ad1 7a3f ed24 d63f
000002f0: 3843 bc3c eeb8 64bf 9c16 533d 4bc0 583d
00000300: b96e ca3f 1f4b b0bf d6b2 49bf 7da2 9abf
00000310: f92e 9dbf 6181 413d 24b3 08be ae52 83bd
00000320: f432 4ebf b873 9dbe 823d 5dbf 99ed 69bf
00000330: 4757 99bf 35b5 b43d 03ec ffbe 38fa dc3f
00000340: 81d5 5a3e 9ef6 03bf 372e aebf 35c7 2bbc
00000350: 264e 35bf 1c2a 32bf edc4 6c3f 1ac4 163c
00000360: 3c6a 0ebf 7a01 a3be f16b 5cbf 9f14 97bf
00000370: b683 e83d 2a0a 34bf f7e5 97be e444 68bf
00000380: a1bf 843f 1dac a8bf d81d 0ebd 85c8 e7be
00000390: b91c 8bbf 8e5a 99bd 50c2 54bf 6ce1 70bf
000003a0: fa62 d73f 3bfc 08bf a205 bcbd 93fe c3be
000003b0: d62d 813d 9e53 5ebf 90a2 44bf 2063 ea3f
000003c0: b388 4dbf 102b b1bf 2376 abbf 506c 0240
000003d0: 3915 a1bf 7470 30bf 91b0 dd3f 24c7 78bd
000003e0: 5332 7ebf ebfd f4be c68b 0940 93d2 f63e
000003f0: 94e5 c53d 6e47 94bf 10ea edbd 7d8b 123d

backbone.4.bias f4 [4]
1.3438298 0.19169024 0.6397416 1.1701117
00000000: 9d02 ac3f 724a 443e 1bc6 233f 38c6 953f
