models/dqn_state_model_trained.pt (torch, 21911 bytes, 6 tensors)

backbone.0.weight f4 [64, 8]
00000000: 0b95 6a3f 2284 e3bf acd4 903c af3f df3f
00000010: 651e b7bf 6d29 af3d cedd 403d e97f 0b3f
00000020: ea36 80bf 9ab8 21bf 6e47 82be c478 d8bf
00000030: 5e44 30bf 42c1 9c3e 492e 7dbe a37b 11bd
00000040: fb12 723f cc53 fd3d a2f4 983e cc36 053e
00000050: c9ff c03e f411 49bf fd56 0fbf a7ee 1e3f
00000060: 92d7 5e3e 8705 3bbf 8c0a f4bf d7cb 27bf
00000070: e7d9 8c3f a09b 04bf 99d3 ef3e 8949 cc3e
00000080: 7a77 2540 edd6 f1bd 93c3 863f e9dd 853e
00000090: 7f62 3ebf a596 afbe 4482 d4bd 9c9d 98bc
000000a0: d1b5 3b3f a44e 2a3e 0de0 633f 2fd3 473f
000000b0: 383b 80bf 338c d6bd efb3 b63e 1be1 f8be
000000c0: 27d9 be3e 65b7 0bbe 8304 0c3f 66e3 71bf
000000d0: 59a5 11bf c91f 483e 91fa eebe 8ec9 f03e
000000e0: b93c 5e3d 6262 403c 6894 1dbe 456f eb3c
000000f0: 8730 4a40 caa6 5bbe 951a 74be 9f98 3abe
00000100: 939c adbd a2f8 dc3e a279 1f3f 8f2c 8bbf
00000110: bb9a 5dbf 63bb bdbf cd42 74bd de09 073f
00000120: effe bf3e c18b a83e 4e81 cdbf 2d99 5bbf
00000130: fdc0 8d3e 31aa 143f 8a6d 283f 3d2c 20bf
00000140: 49ae 13c0 86e4 10bd 25d1 07bf 001a 80bf
00000150: e16c c43f bd54 9a3e 98d8 053f 4a0c 5abe
00000160: 631e ecbe 2352 8f3d c0f9 cfbd f2a4 35bf
00000170: 9f09 763f 4dcf ac3f 4772 433f b31d 59bf
00000180: b217 823c 683e 923d 2d7f 57c0 137d e23e
00000190: 130f 97bb 07d5 7fbd 038d 213e c98b 4b3e
000001a0: a037 953f 4f8d 47be bd4d 213f e395 a13e
000001b0: 8d68 1640 054c f6be 59ce c6bd b562 1a3e
000001c0: ff03 aa3f f7bf 90be 22c4 8c3f ed53 00bf
000001d0: a907 753f d00d b23e 5565 aebd a979 82bf
000001e0: fadb 8ebf e89b 72be 323b 3fbf b68f d2bf
000001f0: 77aa 9cbe e90b 1d3d a842 9e3d 0d67 c33b
00000200: 9be3 0240 aceb 30bf e6d9 883f 30a2 3abf
00000210: eb8e e6be 0ec1 3ebd 7c3b a1bd 8dc4 b83c
00000220: 47d0 06c0 7322 af3e 1463 7abf 19ba 47bf
00000230: befe ddbe 2000 6bbe c6ec 303f 1de3 52bd
00000240: 78c3 a23e 9604 4bbf c7e1 cf3e eb91 b03f
00000250: 6622 8e3f 3122 2e3f 8c3e 2c3e 1abf 0e3f
00000260: e00f 233f 7301 80bf 07e5 15bf d5c8 c4bf
00000270: e8b0 dd3e 057d 043e 39d7 2d3f 0f93 433d
00000280: 864e 2b40 a311 c13e ffaa 04bf 8e15 1b3f
00000290: 1a28 b1bf 27db 68bf 0388 c73b 72e0 cb3e
000002a0: 8d5d 83be 8b3d 03bf 7adf 503f 3093 e3be
000002b0: b85a 833f 4d08 ad3f 849d 7d3f 149a c03e
000002c0: 26ea b43e fdc6 9f3e d289 6d3f e582 d1bf
000002d0: 67b8 d2be 70cc f23e 9853 da3e 0dee 09be
000002e0: fa18 963f 155e 3abd 5bc0 643f 9e5c a43e
000002f0: df1b 963e 5d56 ec3d 89c1 88bf d527 06bf
00000300: 304f 983f a71d 56bf 0802 e53e e6f2 2d3f
00000310: 53d0 c0bc d347 e03e 1c9d 0f3f 5a0a 3d3f
00000320: a63e c7be 3864 5bbe 38a3 a3be df4f e2be
00000330: 910f a93e 5cb6 7cbf 666c b5be cde9 babf
00000340: f14f 8c3f 3759 ae3d 9ba7 9d3e 69d9 96be
00000350: 6d07 dbbf 6877 33bf 35ee efbe 8506 903f
00000360: f78d 51be e9df 373d a472 04bf f71a 0abf
00000370: 761e b9bf 99bf 04bf bf90 2cbf bc6e b1be
00000380: 8223 bf3e 4b00 bb3e f6c4 bebf dd79 fe3d
00000390: 2daf 013f 7791 babf 17f8 42bf b0b3 bd3d
000003a0: 5a7b 2ebe 5c7c 2e3f fe35 b23e e7ec 6d3f
000003b0: a882 df3e d8f1 82bf 88f4 15c0 f961 acbf
000003c0: 5954 213f deb0 193e c2f0 a33e ca7d 103e
000003d0: 0d2d b13e 63bc 47bf 3fb5 85bf 5166 52be
000003e0: 54fe ef3e 8311 73bc 3ad4 f5bf 0658 fabf
000003f0: bb89 c93f f55f 213e 152e 7bbd 8e0f a6bd
0.9163367 -1.7774699 0.017679535 1.744131 -1.4306151 0.08552823 0.04708653 0.5449205
-1.0016758 -0.63172305 -0.25445122 -1.6911855 -0.6885432 0.30616194 -0.24724688 -0.0355183
0.9456021 0.123694986 0.2987414 0.13009185 0.3769515 -0.7854302 -0.5599211 0.62082905
0.21761921 -0.7305531 -1.9065719 -0.6554541 1.1003999 -0.51799965 0.46841124 0.39899853
2.5854173 -0.11808572 1.0528435 0.26145867 -0.74369043 -0.3429462 -0.10376409 -0.018629842
0.73324305 0.16631562 0.8901375 0.78056616 -1.0018072 -0.1047596 0.35684153 -0.48609242
0.3727505 -0.13644178 0.54694384 -0.9448761 -0.56892926 0.19543375 -0.46675542 0.47028774
0.05425713 0.011742206 -0.15388644 0.02873958 3.1592119 -0.21450344 -0.23838265 -0.18222283
-0.0847713 0.43158442 0.6229497 -1.0872973 -0.86564225 -1.4822811 -0.05963402 0.5274943
0.37499186 0.32919124 -1.6055086 -0.857806 0.276863 0.5807219 0.65792143 -0.625675
-2.3075125 -0.035374187 -0.53053504 -1.0007935 1.5345727 0.30142775 0.5228362 -0.2129375
-0.46116933 0.06998088 -0.10155058 -0.7095481 0.9610843 1.3500763 0.7634625 -0.8481094
0.01588044 0.07140809 -3.3671372 0.4423605 -0.0046099513 -0.062459018 0.15776448 0.19877543
1.16576 -0.19487499 0.63009244 0.31559667 2.3501313 -0.48104873 -0.097073264 0.15076716
1.328247 -0.28271458 1.0997355 -0.5012806 0.95714813 0.34776163 -0.08515421 -1.0193378
-1.1160882 -0.23692286 -0.746997 -1.6450107 -0.30598804 0.038341437 0.077275574 0.0059632123
2.045142 -0.69109607 1.0691497 -0.7290373 -0.45030913 -0.04657083 -0.07872674 0.02255466
-2.1064622 0.3420597 -0.9780743 -0.7801834 -0.43358415 -0.22949266 0.6911129 -0.051486123
0.31789756 -0.7930387 0.40601942 1.3794531 1.1104248 0.6802092 0.16820735 0.5576035
0.636961 -1.0000442 -0.58552593 -1.5373789 0.4329903 0.12938316 0.6790653 0.047747668
2.6766677 0.37708768 -0.5182342 0.60579765 -1.3840363 -0.909594 0.006089212 0.39819676
-0.2565731 -0.5126578 0.81591 -0.44448233 1.026206 1.3518158 0.99068475 0.37617552
0.3533489 0.31206504 0.9278842 -1.6368071 -0.41156313 0.47421598 0.42641902 -0.13469715
1.1726372 -0.04549988 0.8935601 0.3210191 0.2931814 0.1153991 -1.0684062 -0.5240453
1.1899166 -0.83638996 0.44728112 0.6794876 -0.023536837 0.43804798 0.56099105 0.7384392
-0.38914984 -0.21424949 -0.31960464 -0.44201562 0.3301969 -0.9871576 -0.35434264 -1.46026
1.0961896 0.0851311 0.30791935 -0.29462746 -1.7111641 -0.70104074 -0.46861425 1.125199
-0.20464312 0.04489127 -0.5173743 -0.53947395 -1.4462421 -0.51854855 -0.67408365 -0.34654796
0.37331778 0.3652366 -1.4903858 0.12425587 0.5065792 -1.4575642 -0.76159805 0.09262788
-0.17039242 0.6815851 0.34806818 0.9293961 0.4365437 -1.0230055 -2.34305 -1.3467399
0.6301933 0.15008876 0.3201962 0.14110485 0.34604684 -0.7802183 -1.0445937 -0.20546843
0.46873724 -0.014835718 -1.9205391 -1.9558113 1.5745157 0.15759261 -0.061323244 -0.081084356

backbone.0.bias f4 [64]
00000000: 42a7 463f 719e 79bf 2c35 91bf 7089 cdbe
00000010: 070b d4bd eeb8 86bf 6263 fd3e 8f58 59bc
00000020: 94e4 8abe 3459 7a3e 2528 bfbe 76de 5bbf
00000030: 0d3e 02be 76b0 34bd bc0e 393e eb24 f23e
00000040: f450 16be b422 ee3c 87f2 d0be f49b 20bf
00000050: b109 04bf db93 0abf 510e 3ebe 7a34 05be
00000060: 3051 81bf e087 a53e 7db4 26bf b7ba 013f
00000070: 8a58 16be b1a9 493f 1e43 aebf ab89 fa3e
00000080: 85b7 143f 3830 a83f baaf 473f 85a2 7b3b
00000090: b3e2 c23f 2350 a63d fbf9 26bf b4c8 683e
000000a0: 23e9 55bf 0a44 2a3f 6a3c efbe 931d b4be
000000b0: a4bd 27bf bdec ab3e 06b4 7f3e bccc 643f
000000c0: 99f8 313f c252 953e 135a 0c3f cfdb 7bbf
000000d0: 6de3 1ebf 5a6b 48bf 6c42 a33e 4d85 33bf
000000e0: c834 fd3e 4df1 42bf 5c4c 07bf eb1a e03e
000000f0: 3f4a a13d fd24 1dbf c57f a13f 1d18 18bf
0.77598965 -0.9750739 -1.1344352 -0.4014392 -0.10353666 -1.0525186 0.49489886 -0.013265743
-0.27127516 0.24448091 -0.37335315 -0.85886323 -0.12718983 -0.0441136 0.18072027 0.4729379
-0.14679319 0.029069282 -0.40810034 -0.62737966 -0.5157729 -0.5413186 -0.18560149 -0.130083
-1.0102901 0.32330227 -0.65119153 0.5067553 -0.14682212 0.78774554 -1.3614233 0.48933157
0.5809253 1.3139715 0.7800251 0.003839643 1.5225433 0.081207536 -0.6522519 0.22732812
-0.83558863 0.6651007 -0.4672578 -0.35178813 -0.65523744 0.33579054 0.24971017 0.893749
0.69519955 0.29164702 0.5482494 -0.98382276 -0.62065774 -0.78288805 0.31886613 -0.70125276
0.4945433 -0.76149446 -0.5285089 0.43770537 0.078754894 -0.61384565 1.2617117 -0.59411794

backbone.2.weight f4 [64, 64]
00000000: 0c96 34be b6ef cebf aa60 393f 9e7d fa3e
00000010: a762 18c0 f26b 8fbf 1404 e93e 12cf 7b3f
00000020: 64f4 f33e 60cf 023e 53e6 64c0 a5e6 8fbf
00000030: 9176 023f bfd7 a43f c812 91be fd58 3e3e
00000040: 41a2 62c0 faed 0dbe 7389 ca3e bc03 043d
00000050: e598 20c0 f430 ea3d a26d de3e f0ec fbbf
00000060: 1db9 abbf 3896 093f 7f2e 3dbf 9a62 a33e
00000070: 3826 c83d 10b2 e4be a753 773e da6e 6b3e
00000080: 51c6 3f3f 5c19 c0bd fa62 f73d eda4 8a3e
00000090: 4225 fb3e e9a9 13c0 ec7b 683f 8521 143f
000000a0: ec3c a2bf 90f0 a5be 91e2 7fbe 7f00 e33f
000000b0: 7b09 cc3e 40f9 3d3f 0a98 5f3f aabf b1bd
000000c0: 5e63 9cbf 104f 733e d8e0 393e 73d3 f93e
000000d0: 96aa c1bf d9da 473f dd8e 3c3e 1a7e 293f
000000e0: e663 213f c8ae 03c0 b46f d33d 69a4 b5bd
000000f0: c27c 40be c063 afbf 07a6 4cbd 69a8 9abe
00000100: a4f6 8ebf 16d0 843f 94f1 4bbf 42fa 323e
00000110: b164 0ebf 5dd6 6bbe 0fc2 edbd c194 163f
00000120: c558 d23e 1dba d6be ed12 c03d ac23 983e
00000130: 7f8c 64bd ca2e d13d 2ea5 da3e f86f 4c3f
00000140: 2f09 5c3f 252f 4f3f e6a3 97be 0eb1 103f
00000150: a5fe 9c3e 5455 e5ba f568 53bb 5036 a83e
00000160: b4ef 4f3f e4c8 423f de3d 183f 2d18 283f
00000170: bed9 8b3f 2bf1 bebf e576 d9be 61b4 b8bd
00000180: 44a7 63bf c519 35bf 11c9 d0be b877 07bf
00000190: 303b 85bf 3387 8dbf 687f e4bd 3b32 943e
000001a0: 8e90 a73f cdbe 253f 1c44 da3d 6663 113e
000001b0: 5468 83be 13c3 243f bdbd 5e3f a45e 44bf
000001c0: 1747 723e 1afd 1f3f 4de5 eebf 6627 4d3f
000001d0: 008c 57bf 672e 643f 9832 71be bc82 283f
000001e0: 10b8 593f a4b1 893b fe54 09bf 0383 013f
000001f0: 5650 6f3f 949f 6f3e 85a9 06bf d31b 723f
00000200: 6e47 00c0 7fcd 5c3f 95b2 9f3e 2f2e f0bd
00000210: 94c6 83be 9a02 9fbe f2de 92bd 6504 c5bf
00000220: a6a3 853f 5adf 1d3f 6faa bbbe 6b58 8f3e
00000230: b964 853f 70f3 53be 8125 aa3e 7a1b 983f
00000240: 973b 713f 5d41 c93e e1c6 42c0 db6c 263f
00000250: bb49 603d 831c cdbf b625 3e3f 4c52 46bf
00000260: dac2 13bf 0c21 ff3e fbc2 b03f 7128 393f
00000270: 0858 3ebe 3428 bdbf 7725 4a3f 6cde 0c3f
00000280: 1520 683e 64e7 33bf 80ba e8bc b27a 48be
00000290: 7c31 0bbf 6dc6 b03e d22f f9be 62b8 283f
000002a0: c041 553f d0da 8d3f b2cd 853d 8e8c 22bc
000002b0: 5cb9 1dbf 9bba f93e 08e5 8c3e 5eb3 123f
000002c0: aec8 aebd b798 d53e 4e3b 2cc0 a2d6 03bf
000002d0: 7522 133f 0aad 703f b857 afbf e726 8ebf
000002e0: dad4 aa3f 1213 663f 9cae 853d 9e01 4b3f
000002f0: 65aa 093f 3737 3c3f eb16 133f fdc3 bf3d
00000300: 0e50 2cbf 8f8b 913f 4db1 653f db04 b8bc
00000310: e325 583e 307b e43f 3c1e c7bd 6831 fbbe
00000320: 0bd2 393f 1de4 0bbf 5c8a 683e 6fd5 e53e
00000330: 6e4d b33e 6e3c fa3e 1da6 813f 64a0 3b3e
00000340: bcce 883f 1769 41be b557 8e3e d1f7 833e
00000350: 8dfe f83e 094a b6bd 356b 84bd 0ab4 763f
00000360: efe3 d03f 93d1 6a3f 46b3 5e3f a6ac febc
00000370: f27d 883f 019e 1ebf 24f7 923e c587 63be
00000380: 9c5f afbf 042b 45bf 88dc 6d3d 9493 3fbf
00000390: 71b4 a7bf 43ff c6be 8098 223d 64e7 053f
000003a0: 0627 7f3f 4d81 503f 58cd 203f 481a 08be
000003b0: f752 143d 9e74 b03c 4590 423f fedf d0be
000003c0: 7d73 a43e 8a2a f83e 25a5 38bf 7367 d13f
000003d0: 34dc 81bf d246 5f3f 3565 42bf 31cf 7f3e
000003e0: 4e13 143f d6ff 853f 268d 2fbe 5f74 5b3f
000003f0: ad58 273f 184f d63f 6a53 25bc 8270 203f
-0.17635363 -1.6166904 0.7241312 0.48923963 -2.3810213 -1.1204817 0.45510924 0.9836284
0.47647393 0.1277442 -3.5765579 -1.1242262 0.5096217 1.287834 -0.2833464 0.18588634
-3.5411532 -0.13860312 0.3955799 0.032230124 -2.509332 0.11435118 0.43443018 -1.9681683
-1.3415867 0.5374484 -0.7389907 0.31911165 0.09772915 -0.446671 0.24153005 0.22991505
0.7491198 -0.09379837 0.12079425 0.27078953 0.49051863 -2.3072455 0.9081409 0.57863647
-1.2674842 -0.32410097 -0.24988772 1.7734526 0.39850983 0.7420845 0.8734137 -0.08679135
-1.2217824 0.23760629 0.18152177 0.48794135 -1.5130184 0.7806831 0.18413873 0.6620804
0.6304306 -2.0575428 0.1032404 -0.088692494 -0.18797591 -1.3702316 -0.049963024 -0.30206612
-1.1169019 1.0376003 -0.79665494 0.17478278 -0.5562239 -0.23030992 -0.11609279 0.5882073
0.4108335 -0.41938868 0.0937861 0.29714715 -0.05579805 0.102140024 0.42704147 0.7985835
0.85951513 0.8093131 -0.29617232 0.56520164 0.30663028 -0.0017496743 -0.0032258604 0.32853937
0.8122513 0.76087785 0.594694 0.6566189 1.0925825 -1.4917349 -0.42473522 -0.090187795
-0.889271 -0.70742446 -0.40778401 -0.5291705 -1.0408688 -1.1056885 -0.11157113 0.28944573
1.309099 0.64744264 0.10657522 0.14198074 -0.25665534 0.6436016 0.8700827 -0.7670691
0.23659931 0.6249558 -1.8663727 0.8013824 -0.84198 0.89133304 -0.23554456 0.65824485
0.8504648 0.0042020846 -0.5364531 0.50590533 0.9348196 0.23400718 -0.52602416 0.94573706
-2.0043597 0.8625106 0.31190935 -0.11727559 -0.2573744 -0.31056672 -0.0717143 -1.5391966
1.0440567 0.6166893 -0.36653468 0.27997145 1.0421363 -0.20698333 0.33231738 1.1883385
0.9423155 0.3930768 -3.0433886 0.6500985 0.054757815 -1.6024326 0.7427629 -0.77469325
-0.57719195 0.498299 1.3809503 0.72327334 -0.18588269 -1.4777894 0.78963417 0.5502689
0.22668488 -0.7027495 -0.028409243 -0.19578055 -0.5437238 0.34526387 -0.48669297 0.65906346
0.8330345 1.1082401 0.06533374 -0.009921206 -0.6161096 0.4877518 0.27518487 0.5730494
-0.0853437 0.41718075 -2.6911197 -0.5149938 0.5747445 0.94014037 -1.3698645 -1.1105622
1.3346207 0.8987285 0.06527445 0.7929934 0.53775626 0.7352175 0.57456845 0.09363554
-0.67309654 1.1370715 0.89723665 -0.022463253 0.21108203 1.7850094 -0.097225636 -0.4906113
0.72586125 -0.5464495 0.2270903 0.448894 0.35020012 0.4887423 1.0128819 0.18322903
1.068809 -0.18887745 0.2780129 0.25775006 0.48631707 -0.0890084 -0.064657606 0.9636847
1.631956 0.91726035 0.869923 -0.031088185 1.0663435 -0.61959845 0.28704178 -0.2221976
-1.3701053 -0.7701876 0.058071643 -0.7483456 -1.3101941 -0.38866624 0.039696217 0.523062
0.9966892 0.814473 0.6281333 -0.13291276 0.036211934 0.021539982 0.7600139 -0.40795892
0.3211936 0.48469955 -0.7212699 1.6359695 -1.0145326 0.8721744 -0.7593568 0.24981381
0.57841957 1.04687 -0.17143688 0.85724443 0.65369684 1.6742887 -0.010090688 0.62671673

backbone.2.bias f4 [64]
00000000: 0bf6 793f d22c 51bf 47ca 1c3e eb9b 7dbf
00000010: 2359 393f ca1c 86bc d5e3 b9bd 80d4 80bc
00000020: 1b58 05bf 1b34 dd3e c639 89bf b22d 5ebf
00000030: 0c85 bc3e c79e cbbd 8f0a 383f 9321 0a3f
00000040: 811e 283f 7780 6bbf 915b 97be f2ea abbd
00000050: 635d 71bf 275f a43e ec14 883f a2ec cebd
00000060: 9a32 25bf ac6d 7fbf 92b7 55bf e7eb 6cbf
00000070: 0575 0b3d 0a45 01be 8924 4c3d 10e4 85bf
00000080: e52d 8a3f 4d7f 5fbf 58e8 893e 6c56 49bf
00000090: 111e 60bf 597d d9bd 4f84 26bf 1b02 223f
000000a0: d2f9 963f 9101 21bf 7a17 13be fd1f 10be
000000b0: 45c9 8d3c 6875 dd3e ffa6 50bf c154 1b3f
000000c0: d7df a2bd d580 7a3f de54 b2bf be77 ca3f
000000d0: 03e5 bbbe cdb5 3fbf bb14 253f 5350 68bc
000000e0: be6b 98bf 8a02 96bf 8cdf 303f 785d f13e
000000f0: 00cb 36bb ef77 7fbf b04c 31be 3c55 dfbd
0.97641057 -0.81709015 0.15311538 -0.99066037 0.72401637 -0.01637115 -0.09076659 -0.015726328
-0.52087563 0.43203816 -1.0720756 -0.86788476 0.36820257 -0.09942394 0.7189111 0.5395748
0.65671545 -0.91992897 -0.29562047 -0.08394422 -0.9428312 0.32103845 1.0631385 -0.10103728
-0.64530337 -0.9977672 -0.8348323 -0.9254746 0.034047145 -0.12623993 0.04983953 -1.0460224
1.0795256 -0.8730362 0.26935077 -0.78647494 -0.8754588 -0.10619611 -0.65045637 0.6328446
1.1794989 -0.62893015 -0.14364424 -0.14074703 0.017307887 0.43253636 -0.81504816 0.606762
-0.0795285 0.9785283 -1.393215 1.5817792 -0.3669816 -0.7488678 0.6448476 -0.014179307
-1.190788 -1.1719525 0.69091105 0.47141623 -0.0027891994 -0.9979238 -0.1731441 -0.10904929

backbone.4.weight f4 [4, 64]
00000000: 9c0d 0340 bc31 0cbf a878 2cbf cf15 6fbf
00000010: 88f5 68bf fe14 6abd 8da2 64bd ac92 bbbd
00000020: 28c5 9fbf 6212 3fbf 8ad8 88bf 985d 63bf
00000030: 2dda 85bf 68da 993d af24 93bf 29b0 f43f
00000040: 74a8 003f 30f5 8bbf 3785 56bf f4d4 a0bd
00000050: 3f4d 3ebf c12b 88bf e22d a73f 3410 32bd
00000060: 693b 52bf a4a8 45bf c80d 6abf fd0a 3fbf
00000070: 386d 223d ef96 65bf 9dc4 3dbf 678f 1cbf
00000080: c0f9 803f 8e12 1abf e5d1 ac3f 8e36 81bf
00000090: a073 9c3f 08d1 8b3c bce3 59bf 5857 acbf
000000a0: b076 0340 b929 57bf c060 89bd 0026 19bf
000000b0: 4c65 c53d 0390 54bf 3f5d 3fbf 6a24 dd3f
000000c0: e287 48bf cd41 a4bf 4665 79bf 3521 bf3f
000000d0: b5b7 81bf 74e5 45bf 21f1 d23f 48d7 22bd
000000e0: 5ff3 25bf 2f47 0cbf b630 e53f 0420 803f
000000f0: 1489 2dbd f30f 78bf 6be7 a6bd 0149 e3bc
00000100: 3410 ec3f aef2 d0be 9059 ebbe ccb1 7abf
00000110: 55a2 53bf 0a2a a63b 0ee3 a53d 27b5 893d
00000120: cf54 a9bf e114 14bf e846 9fbf 7456 4bbf
00000130: cd62 66bf bfb6 86bc 1aae 9cbf b46a e83f
00000140: 65ef 0f3f 3a56 86bf a6d6 95bf d120 c93d
00000150: 849f 9cbf 56b8 69bf e362 d43f 005e 8b3d
00000160: 6648 95bf 0e28 86bf f804 f9be de4b 95bf
00000170: 30f2 d3bc 2eec a1bf 5402 0a3f 7f4b cabf
00000180: e01b 423f caa1 9cbf 497f 9d3f f73b b2bf
00000190: a8a1 cabf 95d3 ba3d 1259 a3bf 9b2f b8bf
000001a0: 9a95 1140 b8a1 adbf f7b4 c93d 5868 3dbf
000001b0: bbd9 203c e9d4 8cbf 3f1a a6bf c955 993f
000001c0: 38cc 20bf 0b8f a6bf d689 69bf da87 bf3f
000001d0: 4c15 28be c666 35bf a2a4 be3f f640 e63d
000001e0: 6a0f 34bf 4c68 61bf 9543 f83f 880b 7f3f
000001f0: f424 16bd fc24 39bf af8e 5e3c 77ed 0a3d
00000200: 8b53 0240 f7cd a2bf 86a2 0abf 3cd2 85bf
00000210: 330f afbf 5bb8 853d 0658 c53c ead8 903d
00000220: a194 92bf e97b 023f 9a21 47bf ef51 87bf
00000230: c8f7 78bf e0de 9d3d 3d01 8abf a728 ca3f
00000240: 8a36 423f 68dd 4bbf ffe0 24bf e812 c6bd
00000250: d9a9 99bf 77fd 37bf 62a1 d63f 47a8 033d
00000260: 0b1d 12bf c746 a5bf 897b 82bf a67e 4ebf
00000270: d491 bd3c e26a 63bf be9e c93f fc20 a4bf
00000280: 3ed2 993f e10d 11bf 9f4a 4f3f 7f91 42bf
00000290: f6c7 373f 2c79 bebd 7138 03bf 6393 b3bf
000002a0: bec0 0e40 21a7 38be e44b ce3d 5f75 8cbf
000002b0: d832 cc3c e955 6bbf a127 46bf 7001 9d3f
000002c0: 989e 4ebf 6073 8ebf 7de6 7abf 4352 393f
000002d0: 11f2 bbbf 1b96 adbf e69f d53f 1098 55bd
000002e0: c608 5cbf 2c2a 44bf 1879 cb3f 66dd d93f
000002f0: 3843 bc3c ec50 6abf 9c16 533d 4bc0 583d
00000300: e58a e13f 983b febf 77ba 57bf d9a5 54bf
00000310: fe57 63bf 6181 413d 24b3 08be ae52 83bd
00000320: 4122 0bbf a8b0 4ebf 590c 7fbf 6375 71bf
00000330: d75a 88bf 35b5 b43d 63e7 8abf 529d f03f
00000340: 78cb 553e 4674 c6be b614 cebf 35c7 2bbc
00000350: 8982 87bf 6298 89bf 55c5 893f 1ac4 163c
00000360: 316d 92be b872 34bf 44f2 aabf f9bf 6fbf
00000370: b683 e83d ffd8 8dbf 183e 0fbf 786e 88bf
00000380: 6611 8d3f a5ce b1bf b612 ad3f a8ef 14bf
00000390: 4c91 093f 8e5a 99bd 19fd 74bf 930c adbf
000003a0: 293c e63f f6af ebbe a205 bcbd 1492 2ebf
000003b0: d62d 813d cd56 3abf 145e 72bf d3ce 0a40
000003c0: 3f8d 24bf a6bb 9dbf 4d2e a0bf 4ed4 f73f
000003d0: adc5 8abf 8919 89bf fd6f ee3f 24c7 78bd
000003e0: 7eec 91bf ce2c 73be 2d4d 0040 3345 393f
000003f0: 94e5 c53d 1828 90bf 10ea edbd 7d8b 123d
2.0477057 -0.5476339 -0.67371607 -0.9339265 -0.9099965 -0.057148926 -0.055819083 -0.09158835
-1.2482042 -0.74637425 -1.0691082 -0.8881469 -1.0457207 0.07512361 -1.149557 1.911626
0.5025704 -1.09342 -0.8379702 -0.078531176 -0.7433662 -1.0638353 1.3060877 -0.043472484
-0.821219 -0.7721045 -0.9142728 -0.7462614 0.03965494 -0.8968343 -0.74128133 -0.61156315
1.0076218 -0.6018456 1.3501555 -1.0094774 1.2222786 0.017067447 -0.8511312 -1.3464155
2.054119 -0.8404804 -0.06707907 -0.5982361 0.096384615 -0.83032244 -0.7475166 1.7276738
-0.7833234 -1.2832581 -0.97420156 1.4932009 -1.0134188 -0.7730324 1.6479837 -0.03975609
-0.6482448 -0.5479612 1.790549 1.000977 -0.042367056 -0.96899337 -0.08149608 -0.027744772
1.8442445 -0.4081015 -0.45966768 -0.97927547 -0.82669574 0.0050709294 0.08099948 0.06724005
-1.3229007 -0.5784436 -1.2443514 -0.7942879 -0.8999451 -0.016444562 -1.2240632 1.8157563
0.5622466 -1.0495064 -1.170613 0.09820712 -1.223618 -0.912969 1.6592678 0.068050385
-1.1662719 -1.0480974 -0.48636603 -1.1663778 -0.02587232 -1.2650201 0.539098 -1.580429
0.75823784 -1.2236874 1.2304469 -1.392455 -1.5830584 0.09122387 -1.2761557 -1.4389528
2.274756 -1.3564978 0.098489694 -0.7398734 0.009817536 -1.1002475 -1.297676 1.1979305
-0.62811613 -1.3012403 -0.91225946 1.4963334 -0.16414374 -0.70859945 1.4893992 0.11242859
-0.7033602 -0.8804977 1.9395624 0.9962697 -0.036656335 -0.7232206 0.013583823 0.03391787
2.036349 -1.2719105 -0.5415424 -1.0454783 -1.3676513 0.06529304 0.024089824 0.07072623
-1.1451608 0.5097032 -0.77785647 -1.0571879 -0.97253084 0.07708526 -1.0781628 1.5793656
0.7586447 -0.79634714 -0.64405817 -0.09671575 -1.2004958 -0.7187113 1.6768 0.032142904
-0.57075566 -1.2912225 -1.019395 -0.80662 0.023140825 -0.88834965 1.5751569 -1.2822566
1.2017286 -0.566618 0.8097324 -0.7600326 0.7178949 -0.093004555 -0.51258 -1.4029354
2.230514 -0.18032505 0.10073069 -1.0973319 0.024926588 -0.91927963 -0.7740422 1.2266064
-0.80710745 -1.112896 -0.9800795 0.72391146 -1.4683248 -1.3561434 1.6689422 -0.05214697
-0.8595089 -0.7662685 1.589633 1.702069 0.022981271 -0.91529727 0.051535234 0.05291776
1.7620512 -1.9861937 -0.842689 -0.83065563 -0.8880614 0.047242526 -0.13349587 -0.06412254
-0.5434914 -0.80738306 -0.99628216 -0.9431974 -1.0652722 0.08823625 -1.0851864 1.879801
0.20878398 -0.38760585 -1.610007 -0.010484506 -1.0586711 -1.0749629 1.0763346 0.009202028
-0.2859893 -0.70487547 -1.3355184 -0.936523 0.11353247 -1.1081847 -0.5595412 -1.0658712
1.1020935 -1.3891188 1.3521335 -0.58178186 0.5373733 -0.07487975 -0.95698696 -1.3519462
1.798711 -0.46032685 -0.09180762 -0.6819165 0.06307571 -0.727887 -0.946748 2.1688735
-0.64278024 -1.2322891 -1.251413 1.9361665 -1.0841576 -1.0710918 1.8627926 -0.06073679
-1.1400297 -0.2374756 2.0047104 0.72371215 0.09662929 -1.1262236 -0.116169095 0.035777558

backbone.4.bias f4 [4]
00000000: 1457 b03f b9a5 bb3e 1c92 4b3f 1fb8 893f
1.3776574 0.36649874 0.7951982 1.0759314
