models/dqn_state_model0.pt (torch, 21911 bytes, 6 tensors)

backbone.0.weight f4 [64, 8]
0	0x3e8a6571	0.2703052
1	0x3e963f5b	0.2934521
2	0xbda9a1a4	-0.08282784
3	0x3ea64951	0.3247781
4	0xbd9ea5e0	-0.07746482
5	0x3d921cb0	0.07134378
6	0xbe3042a6	-0.17212924
7	0x3e549e7a	0.20763579
8	0x3e9f9389	0.31167248
9	0xbe84cd06	-0.2593767
10	0x3e9d5761	0.30730727
11	0x3d878490	0.06617081
12	0x3e85bd1b	0.2612084
13	0x3d441fd8	0.04788193
14	0x3e2e921a	0.17047921
15	0xbd4c7768	-0.049918562
16	0x3e8b8b95	0.2725493
17	0x3d560cd8	0.052258343
18	0xbe29039c	-0.16505283
19	0x3db890ec	0.09012017
20	0xbe26cdf2	-0.162895
21	0xbd29d448	-0.041462213
22	0xbe130b86	-0.14359865
23	0x3e702a7a	0.23453704
24	0xbe8ee42a	-0.2790845
25	0xbe26e750	-0.16299176
26	0xbdcc760c	-0.09983453
27	0xbe59af13	-0.21258192
28	0x3d08ae70	0.03336948
29	0xbeb2c9fd	-0.3491973
30	0x3ea37aef	0.31929728
31	0xbe99c52a	-0.30033237
32	0x3e8bc07b	0.27295288
33	0x3d710028	0.05883804
34	0xbdeb1c76	-0.11480038
35	0x3e5fb8c6	0.21847829
36	0x3d61b230	0.055101573
37	0x3e9241cb	0.2856582
38	0x3d1e4fd0	0.038650334
39	0xbde45ac6	-0.11150126
40	0x3dc28c38	0.09499401
41	0xbdc45ad8	-0.095876396
42	0x3e185de2	0.14879563
43	0x3ea19e39	0.31566027
44	0x3e5147aa	0.20437494
45	0xbe1e45fb	-0.15456383
46	0x3e50fdfe	0.2040939
47	0x3d818e70	0.06325996
48	0x3e37db1e	0.1795468
49	0xbe5caa16	-0.21549258
50	0xbeb3314c	-0.34998548
51	0xbe0be0a1	-0.13659908
52	0xbe8ad891	-0.27118352
53	0x3e94888d	0.2901043
54	0x3dd08e94	0.101834446
55	0x3e15f618	0.14644659
56	0x3de4ff60	0.111815214
57	0xbbc98940	-0.0061503947
58	0x3e8daacf	0.2766938
59	0xbe809de0	-0.2512045
60	0x3cb65cc0	0.022261024
61	0xbe771b1e	-0.24131438
62	0x3ddf454c	0.10901889
63	0xbdf95c02	-0.12175752
64	0x3dddde7c	0.10833451
65	0xbd96daf8	-0.07365984
66	0x3e9622cf	0.29323432
67	0xbe5694bd	-0.20955177
68	0xbe57eb4c	-0.21085852
69	0xbe57eea3	-0.21087126
70	0x3ea2d109	0.31800106
71	0x3df14cb0	0.11782205
72	0x3eae2f9d	0.340207
73	0xbe956416	-0.29177922
74	0xbeb38c7b	-0.35068116
75	0xbe8d9f7b	-0.27660736
76	0xbe738a1a	-0.2378315
77	0x3e12a3e4	0.14320332
78	0x3e01a326	0.12659892
79	0x3e9669d3	0.29377612
80	0xbe3af749	-0.18258394
81	0xbe76ce58	-0.24102151
82	0x3e4016fe	0.18758771
83	0xbe125670	-0.14290786
84	0x3e5bbada	0.21457997
85	0xbdabd2f4	-0.083898455
86	0x3e4f1a4e	0.20224878
87	0xbe8ca56f	-0.27469966
88	0xbe36b3e6	-0.17842063
89	0x3ddcc110	0.10779011
90	0x3d991350	0.07474387
91	0xbdb89c20	-0.090141535
92	0x3e57ccda	0.21074238
93	0x3e761e02	0.24034885
94	0xbe834539	-0.2563875
95	0xbe4147eb	-0.18875091
96	0x3ea5c0a5	0.3237354
97	0xbdf453c6	-0.11930041
98	0xbe005940	-0.12534046
99	0xbeaf2741	-0.34209636
100	0xbe4f542a	-0.2024695
101	0x3db4e090	0.088318944
102	0xbd3f2580	-0.046666622
103	0xbe83663f	-0.25663945
104	0x3c07e020	0.008293182
105	0xbe774d4a	-0.24150577
106	0xbe999382	-0.29995352
107	0xbe475c75	-0.19468863
108	0xbe9e6e28	-0.30943418
109	0xbe668618	-0.2251209
110	0x3eb4f2d3	0.3534151
111	0x3d88c294	0.06677738
112	0x3ddf21a8	0.10895091
113	0xbea8d57a	-0.3297537
114	0xbe6dc70b	-0.2322046
115	0xbdf1036c	-0.11768231
116	0x3d627318	0.055285543
117	0xbe9f4864	-0.31109917
118	0xbe1bfe22	-0.15233663
119	0xbe58bdbd	-0.2116613
120	0x3a806c00	0.0009797812
121	0xbe06b73b	-0.13155834
122	0xbcc8b3b0	-0.024499744
123	0xbe755402	-0.23957828
124	0xbe788068	-0.24267733
125	0xbe5336c9	-0.20626368
126	0xbdf7d98e	-0.12102042
127	0xbe8ee006	-0.2790529
128	0x3e97c77d	0.29644385
129	0xbd8fb40c	-0.07016763
130	0x3e9bbf9b	0.3041962
131	0x3de19c08	0.11016089
132	0xbe994960	-0.29938793
133	0x3e7a8b22	0.24467137
134	0xbdc739e4	-0.09727839
135	0xbe0ac763	-0.13552622
136	0xbe964241	-0.29347423
137	0xbeb3f659	-0.35148886
138	0x3dcf2a8c	0.10115537
139	0xbd9e2b94	-0.077231556
140	0x3e0cf334	0.1376465
141	0xbe948e53	-0.29014835
142	0x3e8664df	0.26248834
143	0xbe84e0bf	-0.25952718
144	0xbd7a0ec8	-0.061049253
145	0x3d973ce0	0.07384658
146	0x3e3ae732	0.18252257
147	0x3e922387	0.2854273
148	0x3ea4e6b7	0.3220727
149	0xbe8f88c4	-0.2803403
150	0x3db63a00	0.08897781
151	0xbe1bb8e4	-0.15207249
152	0xbd1eb220	-0.038744092
153	0xbe877dbe	-0.2646312
154	0x3ea4e20d	0.32203713
155	0xbe84dbf6	-0.25949067
156	0x3e417df6	0.18895707
157	0x3dfe782c	0.12425265
158	0x3deb4b10	0.114889264
159	0xbe43bc1e	-0.1911473
160	0x3ea489ad	0.32136288
161	0x3d9f1dc4	0.07769349
162	0x3d3a4a68	0.045481116
163	0xbe9f862f	-0.3115706
164	0x3e17faca	0.14841762
165	0xbd5940c8	-0.053040296
166	0xbe25dbd4	-0.16197139
167	0x3e9b7c67	0.3036835
168	0x3da16ea4	0.07882431
169	0xbe484eb5	-0.19561274
170	0xbe373deb	-0.17894714
171	0xbc8a50c0	-0.016884208
172	0x3e4a25fe	0.19741055
173	0xbdb906b8	-0.090344846
174	0xbe4e91f7	-0.20172869
175	0xbdf7f482	-0.12107183
176	0xbe873c28	-0.26413083
177	0x3e011d60	0.12608862
178	0x3e8c1dc3	0.27366456
179	0xbeaa6b3d	-0.3328494
180	0x3da82ae0	0.08211303
181	0x3e3b06b6	0.18264279
182	0x3d834be8	0.06410962
183	0xbe00ee4f	-0.12590908
184	0x3e3cf696	0.1845344
185	0x3e3e418e	0.18579695
186	0x3e07604a	0.13220325
187	0xbd7e78c8	-0.062126905
188	0xbdbfbc90	-0.09362137
189	0x3d1aecc8	0.03782347
190	0xbd7fd290	-0.062456667
191	0xbdd7c69c	-0.105359286
192	0x3e676aea	0.22599378
193	0x3e9b9165	0.30384365
194	0xbd0f5d10	-0.03500086
195	0xbda21e60	-0.0791595
196	0x3ba90e00	0.0051591396
197	0xbcacef00	-0.021110058
198	0x3dae138c	0.08499822
199	0x3dcae92c	0.09907755
200	0xbea4697b	-0.32111725
201	0xbe059b1e	-0.13047454
202	0x3e987115	0.29773775
203	0x3e0d08b2	0.13772848
204	0xbc900e30	-0.01758489
205	0xbe5a4673	-0.21315937
206	0xbe5d7f42	-0.21630576
207	0xbea226b0	-0.3167014
208	0xbdec05a2	-0.11524512
209	0x3df48620	0.11939645
210	0x3e66d7fa	0.22543326
211	0x3e2726fe	0.16323468
212	0xbea002ce	-0.3125214
213	0xbe59b76a	-0.21261373
214	0xbd648b00	-0.055796623
215	0x3eaf1be5	0.3420097
216	0x3d517c88	0.051144153
217	0xbdbb83cc	-0.09155998
218	0x3e15c7ea	0.14627042
219	0xbe09e4d3	-0.13466196
220	0xbe6a54e2	-0.22883943
221	0x3e841fab	0.2580541
222	0xbe249ea0	-0.16076136
223	0xbd912748	-0.070875704
224	0xbeb4142d	-0.35171643
225	0x3e724d46	0.2366229
226	0x3e892583	0.26786432
227	0x3e03f1c0	0.12885189
228	0xbe7c70b2	-0.24652365
229	0xbeb2a7bb	-0.34893593
230	0xbe930525	-0.28714862
231	0x3e86fc75	0.26364484
232	0x3e2dd11e	0.16974303
233	0x3e98541d	0.29751673
234	0x3e3da942	0.18521598
235	0x3db74220	0.08948159
236	0xbb62e680	-0.0034622252
237	0xbe89aa92	-0.26887947
238	0xbe9b17a3	-0.3029147
239	0xbea950f2	-0.3306957
240	0x3e143472	0.14473131
241	0xbe31bfd8	-0.17358339
242	0xbd91b8f0	-0.07115352
243	0xbe505aeb	-0.20347182
244	0xbd83f1a8	-0.06442577
245	0xbe7ed0c1	-0.24884321
246	0xbe6c8fce	-0.23101732
247	0x3df02f2c	0.11727747
248	0xbdd73174	-0.10507479
249	0x3e5f808a	0.21826378
250	0xbde84a54	-0.11342302
251	0xbe84ca34	-0.2593552
252	0xbd7f82c8	-0.062380582
253	0xbe2f7f4f	-0.17138408
254	0xbddd867e	-0.10816668
255	0xbeac5461	-0.33658126

backbone.0.bias f4 [64]
0	0x3de15d80	0.11004162
1	0xbe8a1838	-0.26971602
2	0xbe6513fa	-0.22370902
3	0xbe967f0e	-0.2939381
4	0x3e9db9c7	0.308058
5	0xbeab6a17	-0.33479378
6	0x3e888e13	0.26670894
7	0xbc42bae0	-0.011885375
8	0xbd286b30	-0.041117847
9	0x3e62728a	0.22114006
10	0xbd05d978	-0.032678097
11	0x3e630dd6	0.22173247
12	0x3e82e133	0.25562438
13	0xbe9d29ae	-0.30695862
14	0x3e0b4e82	0.13604167
15	0x3d88b0cc	0.06674346
16	0x3d9baf64	0.076018125
17	0x3d536b10	0.051615775
18	0x3dc60ebc	0.09670779
19	0xbe2e2a30	-0.17008281
20	0xbd394750	-0.045234025
21	0x3eabfd77	0.33591816
22	0x3e733c4a	0.23753467
23	0xbc599ea0	-0.013282448
24	0xbeaa4118	-0.33252788
25	0x3c7de0a0	0.015495449
26	0xbe7689ec	-0.2407605
27	0x3e933411	0.2875066
28	0xbe5bca03	-0.2146378
29	0xbcd11e40	-0.02552712
30	0xbda0b424	-0.07846859
31	0x3d80da34	0.06291619
32	0x3eaa581d	0.3327035
33	0x3d099a40	0.03359437
34	0x3e51ae06	0.20476541
35	0x3e8c82d9	0.2744358
36	0x3e922391	0.2854276
37	0xbdfa0fa8	-0.122100174
38	0xbda1f1d8	-0.07907456
39	0x3e2e7aea	0.17039075
40	0xbdc593cc	-0.09647331
41	0x3e29879a	0.16555634
42	0xbd9e3000	-0.07723999
43	0xbe758db7	-0.23979841
44	0x3e135d8c	0.14391154
45	0x3d5e0738	0.054206103
46	0x3e216a12	0.15763119
47	0x3eb3d717	0.35125038
48	0x3e772cfe	0.24138257
49	0x3eab9a59	0.33516195
50	0x3c9b04c0	0.018923163
51	0xbe9bb711	-0.30413106
52	0xbe7dfae0	-0.24802732
53	0xbe60e390	-0.21961808
54	0xbe9f85e3	-0.31156835
55	0xbe357892	-0.17721775
56	0xbea6a3fc	-0.32546985
57	0xbea702de	-0.32619375
58	0xbe58567e	-0.21126744
59	0xbeb2747a	-0.3485449
60	0xbe5e394e	-0.21701548
61	0x3e0a0c6a	0.13481298
62	0x3e96facd	0.2948822
63	0xbdd762d6	-0.10516898

backbone.2.weight f4 [64, 64]
0	0xbd14ee10	-0.036359847
1	0x3d88b12a	0.06674416
2	0xbd7c9b1c	-0.06167136
3	0xbd72171c	-0.05910407
4	0x3d9dbaaa	0.07701619
5	0xbddf0da0	-0.10891271
6	0x3c7a6b30	0.015284345
7	0x3de22552	0.110422745
8	0x3caf9a28	0.021435812
9	0x3d0b3c38	0.033992976
10	0xbd951796	-0.07279889
11	0xbae20b00	-0.001724571
12	0x3be13760	0.0068730563
13	0x3cfb5320	0.030679286
14	0x3d46ef80	0.04856825
15	0x3dde720e	0.10861598
16	0xbdc36798	-0.09541243
17	0x3b758ec0	0.0037469119
18	0xbd7fd054	-0.062454537
19	0xbdca832a	-0.09888299
20	0xbc23ffc0	-0.010009706
21	0xbde15734	-0.11002961
22	0x3db2a986	0.0872374
23	0x3c6d3050	0.014476851
24	0xbd89f928	-0.06736976
25	0x3d85c7be	0.065322384
26	0xbdf2491a	-0.11830349
27	0xbd460a8c	-0.048349902
28	0xbcc77e90	-0.024352342
29	0xbdd9893c	-0.106218785
30	0xbda2c994	-0.07948604
31	0xbca722c8	-0.020402327
32	0x3dc23e66	0.09484558
33	0x3df7351e	0.12070678
34	0x3da2e218	0.0795328
35	0xbd98dd1e	-0.0746405
36	0xbda77b0a	-0.08177765
37	0x3ddf68d2	0.10908665
38	0x3d351a74	0.04421468
39	0x3b59a480	0.0033209622
40	0x3c8a9480	0.016916513
41	0xbdcdbf12	-0.100462094
42	0xbd2af308	-0.04173568
43	0x3df66e24	0.120327264
44	0xbcfc8d28	-0.030829027
45	0xbbcd78e0	-0.006270513
46	0xbdd49094	-0.103791386
47	0xbd8f354e	-0.06992589
48	0xbb274700	-0.0025524497
49	0xbd9f044e	-0.07764493
50	0xbc7df8c0	-0.015501201
51	0x3d505cf4	0.050869897
52	0xbdfa69d4	-0.12227216
53	0x3d1811f8	0.03712651
54	0xbda944f0	-0.08265102
55	0xbd79e1d4	-0.061006382
56	0x3d448fd0	0.047988713
57	0x3dcb8d00	0.09939003
58	0xbd0bef1c	-0.03416358
59	0xbd52361c	-0.051321134
60	0xbde77c00	-0.11302948
61	0xbd840224	-0.06445721
62	0xbde029be	-0.10945462
63	0xbcea5d08	-0.028608814
64	0x3cd0f3e8	0.025506929
65	0xbdefd716	-0.11710946
66	0x3ddf845e	0.10913919
67	0x3da09cb0	0.07842386
68	0xbdfa9c32	-0.12236823
69	0xbd748c50	-0.059704125
70	0x3d26fdd0	0.0407694
71	0xbcd26400	-0.02568245
72	0xbc5f2f10	-0.01362206
73	0xbd672d10	-0.05643946
74	0x3dcd9fcc	0.100402445
75	0xbd8f1a82	-0.06987478
76	0x3dd44b7c	0.1036596
77	0x3c042440	0.008065283
78	0x3ccdd8a8	0.025127724
79	0x3dc7b6b8	0.09751648
80	0xbca8b850	-0.0205957
81	0xbd91c07c	-0.071167916
82	0xbca59da8	-0.020216778
83	0x3dcfa132	0.101381674
84	0xbdbdf2e2	-0.09274842
85	0x3ce86d90	0.028372556
86	0xbdfb9838	-0.12284893
87	0x3d8638aa	0.065537766
88	0x3d3d2ae0	0.046183467
89	0x3bada380	0.0052990317
90	0x3d5bbf34	0.053649142
91	0x39136c00	0.00014059246
92	0x3d8da888	0.069169104
93	0xbdcaa7a4	-0.09895256
94	0xbc966080	-0.018356562
95	0x3d632174	0.055451825
96	0x3dfeedda	0.1244771
97	0x3d82677a	0.06367393
98	0xbdba281a	-0.0908968
99	0x3dc4e388	0.09613711
100	0xbce459a8	-0.027874783
101	0xbcdaa388	-0.026689306
102	0xbde8ae4e	-0.11361371
103	0xbca13138	-0.01967679
104	0x3db5135e	0.088415846
105	0x3c8ecaa0	0.017430604
106	0xbd951bb4	-0.072806746
107	0x3d1d998c	0.03847651
108	0xbd242b80	-0.040080547
109	0x3de9b9fa	0.11412425
110	0xbdde3246	-0.10849433
111	0xbd21ba70	-0.03948444
112	0xbdf72fd4	-0.12069669
113	0xbd49a41c	-0.049228773
114	0x3d216824	0.039405957
115	0x3df66dea	0.12032683
116	0x3cabfa20	0.020993292
117	0x3dfaf8c6	0.12254481
118	0x3cc85908	0.024456516
119	0x3d93d966	0.072192
120	0x3dcd39bc	0.100207776
121	0x3dd5ff12	0.104490414
122	0xbd8f4a0e	-0.06996547
123	0x3deb5d24	0.114923745
124	0x3d9b1372	0.07572068
125	0xbd6f6684	-0.058447376
126	0xbd745400	-0.05965042
127	0xbdd6b812	-0.104843274
128	0x3d009510	0.031392157
129	0xbdcf8028	-0.10131866
130	0x3d58480c	0.052803084
131	0x3d21b03c	0.03947471
132	0xbdde69d2	-0.108600274
133	0x3d0b853c	0.03406261
134	0xbc2690a0	-0.010166317
135	0x3d69e404	0.05710222
136	0x3d92e3e0	0.0717237
137	0xbdfe804a	-0.12426813
138	0x3deac6fe	0.11463736
139	0x3dd6b13e	0.10483025
140	0x3d4bb768	0.049735457
141	0xbde9f95a	-0.11424513
142	0xbd36e5a4	-0.044652596
143	0xbd1461d4	-0.03622611
144	0xbd03953c	-0.032124743
145	0x3d905d44	0.07049039
146	0x3d3a25ec	0.04544632
147	0x3dcacc40	0.09902239
148	0xbd3fc180	-0.046815395
149	0x3d2c4ef0	0.04206747
150	0x3d362ac8	0.044474393
151	0xbdd524ac	-0.10407385
152	0xbdf85338	-0.12125248
153	0xbd84d5ea	-0.06486113
154	0x3daf3e84	0.08556846
155	0xbdf10380	-0.11768246
156	0xbdded4c0	-0.108804226
157	0x3d8f694e	0.07002507
158	0x3d8a1e92	0.06744112
159	0x3dd28854	0.10279909
160	0xbdc143aa	-0.09436734
161	0xbdbb5dc8	-0.09148747
162	0x3d835318	0.06412333
163	0x3ddea016	0.10870378
164	0x3d992cbc	0.074792355
165	0x3ca06968	0.019581512
166	0x3d28be04	0.041196838
167	0x3df2f9f8	0.11864084
168	0xbda52c1c	-0.08065054
169	0xbd68743c	-0.056751475
170	0x3db31044	0.08743337
171	0xbdaf2a54	-0.08552995
172	0xbd8d2960	-0.06892657
173	0x3dbae0b2	0.091248885
174	0x3d218c1c	0.03944026
175	0x3d256970	0.040383756
176	0xbd59019c	-0.05298005
177	0xbae21b80	-0.0017250627
178	0x3dea4cb2	0.1144041
179	0xbd99a806	-0.07502751
180	0x3a80d080	0.0009827763
181	0x3d7381c8	0.05944994
182	0xbdb0bb30	-0.08629453
183	0x3df89f0c	0.12139711
184	0xbd7fccf4	-0.062451318
185	0xbcf5e638	-0.030017003
186	0xbd0a8830	-0.033821285
187	0xbda6d31e	-0.08145736
188	0xbdfb3428	-0.122658074
189	0x3d905894	0.07048145
190	0x3d080670	0.033209264
191	0xbdefc512	-0.1170751
192	0xbda4c4ba	-0.08045335
193	0x3dfd05b0	0.123546004
194	0x3d43b450	0.04777938
195	0x3d4d6ff0	0.05015558
196	0xbd992a10	-0.07478726
197	0xbd607574	-0.054799512
198	0xbc9a93b8	-0.018869266
199	0xbcbb44e0	-0.02285999
200	0xbdaf6c70	-0.08565605
201	0x3c28b970	0.010298118
202	0x3c4b8bf0	0.0124235
203	0xbc81a8f0	-0.015827626
204	0x3c8df580	0.017328978
205	0xbd4aee78	-0.049543828
206	0x3d053fbc	0.032531485
207	0x3d41188c	0.04714255
208	0xbd86d85e	-0.065842375
209	0xbdfdd820	-0.12394738
210	0x3d85ffcc	0.0654293
211	0x3cf442f8	0.02981709
212	0xbd8232d2	-0.063573495
213	0x3df6b52c	0.120462745
214	0xbd678d0c	-0.056530997
215	0x3dacfdbe	0.08446835
216	0x3d81e048	0.063416064
217	0xbdd6a1ea	-0.104801014
218	0x3da51ae0	0.080617666
219	0xbdeb6294	-0.11493412
220	0xbd8dd3e8	-0.069251835
221	0xbcaab750	-0.020839363
222	0xbdac8e50	-0.084255815
223	0x3dfa16c4	0.122113734
224	0xbccd64c0	-0.025072455
225	0x3d4b5c74	0.049648717
226	0xbde495e0	-0.11161399
227	0x3d935ee0	0.0719583
228	0xbd1f1f0c	-0.038847968
229	0xbdc2bb5a	-0.09508391
230	0x3c95bb78	0.018277869
231	0x3d780b60	0.060557723
232	0x3ddd8aaa	0.10817464
233	0xbd9c5ce8	-0.07634908
234	0xbd7bf518	-0.061513036
235	0x3cc4e090	0.024032861
236	0x3d0ae2c0	0.033907652
237	0x3d44d98c	0.04805903
238	0x3d8c8316	0.0686094
239	0xbce83220	-0.028344214
240	0x3d8e39d0	0.069446206
241	0x3dbcbf24	0.09216145
242	0xbd05bed4	-0.03265269
243	0x3db62210	0.08893216
244	0x3d7a2718	0.06107244
245	0x3de1ce36	0.1102566
246	0xbd917a66	-0.07103424
247	0xbd7cd488	-0.061726123
248	0xbd140a04	-0.036142364
249	0x3bcfc660	0.006340787
250	0x3d99a6a4	0.07502487
251	0xbd92240e	-0.07135783
252	0x3d802adc	0.06258175
253	0xbd377dc4	-0.044797674
254	0x3d9aa6e8	0.07551366
255	0xbbc27780	-0.0059346557

backbone.2.bias f4 [64]
0	0x3d97d4fc	0.074136704
1	0x3d11868c	0.035528705
2	0xbbb7b5e0	-0.005606398
3	0x3cffcf20	0.031226695
4	0x3df6fd24	0.120600015
5	0x3d221bb8	0.039577216
6	0xbd7f5994	-0.062341288
7	0x3d460e9c	0.048353776
8	0xbd4b2eb4	-0.049605086
9	0xbb917200	-0.0044386387
10	0xbda4e240	-0.08050966
11	0xbb6fad40	-0.003657177
12	0x3bd5af20	0.0065211207
13	0xbd9b421c	-0.07580969
14	0x3da4951c	0.08036253
15	0x3dec7050	0.115448594
16	0xbdd620b4	-0.104554564
17	0x3d145c04	0.036220565
18	0xbdb0d884	-0.08635047
19	0xbccb8720	-0.024844706
20	0x3d7541a0	0.059877038
21	0xbb0fcdc0	-0.0021942705
22	0x3d1b2704	0.037879005
23	0xbd25e338	-0.040499896
24	0x3df44e94	0.1192905
25	0xbd7060d0	-0.058686078
26	0x3cbfa848	0.023395672
27	0x3c5238d0	0.012830928
28	0x3dae61a2	0.08514716
29	0x3c512320	0.012764722
30	0x3d9a58ea	0.0753649
31	0x3d03eb20	0.032206655
32	0x3da33af0	0.07970226
33	0x3acf1300	0.0015798509
34	0x3d2ad86c	0.041710302
35	0x3dfc8604	0.12330249
36	0xbd26ceb4	-0.04072447
37	0xbd5058ec	-0.050866053
38	0x3db9d534	0.090738684
39	0x3d43c9d0	0.047799885
40	0xbdf1a3fe	-0.11798857
41	0x3d361970	0.044457853
42	0xbdfb12b6	-0.12259428
43	0xbd8afcfc	-0.06786534
44	0x3d485e3c	0.048917994
45	0x3d86daba	0.065846875
46	0xbce736c8	-0.028224364
47	0x3dd8b202	0.10580827
48	0x3dfe68a0	0.124222994
49	0x3dc79f50	0.09747183
50	0xbdeb2006	-0.11480717
51	0xbd3a3bd4	-0.045467213
52	0x3bf93440	0.0076051056
53	0x3dd011d4	0.101596504
54	0xbcabc600	-0.020968437
55	0x3cd5e9b0	0.026112407
56	0x3d86be58	0.06579274
57	0xbd85f064	-0.065399915
58	0xbd9b084e	-0.07569943
59	0x3dfd2ac8	0.123616755
60	0xbb36cb00	-0.0027891994
61	0x3db5247a	0.08844848
62	0xbdf99fa0	-0.12188649
63	0xbd436e08	-0.047712356

backbone.4.weight f4 [4, 64]
0	0x3db3a1bc	0.08771083
1	0xbc464680	-0.012101769
2	0x3d2c7458	0.04210314
3	0xbdd674d2	-0.104715005
4	0x3df92bf0	0.121665835
5	0xbd7f8b6c	-0.062388822
6	0xbbcf1ca0	-0.006320551
7	0xbda7add8	-0.08187455
8	0xbd63292c	-0.055459186
9	0xbddb772c	-0.107160896
10	0xbde012de	-0.10941099
11	0xbcd132e8	-0.02553697
12	0xbd61d678	-0.055136174
13	0x3dbd1b58	0.09233731
14	0xba1e8a00	-0.0006047785
15	0x3dc71090	0.09719956
16	0xbcab8260	-0.020936191
17	0x3cd93f28	0.026519373
18	0x3df5dcf2	0.120050326
19	0xbdc617c6	-0.09672503
20	0xbd5dcd14	-0.054150656
21	0x3ddadad6	0.10686271
22	0xbceac4f8	-0.028658375
23	0xbd09e384	-0.03366424
24	0x3c245c20	0.01003173
25	0xbd896e7c	-0.06710526
26	0x3c1349b0	0.008989736
27	0xbd54cd54	-0.05195363
28	0x3d226d38	0.03965494
29	0xbcd95ec0	-0.026534438
30	0xbd2bcf08	-0.041945487
31	0xbd40dfa8	-0.047088295
32	0x3d05059c	0.032476053
33	0x3d807894	0.062729985
34	0xbdea0ba2	-0.11428
35	0xbdb28ac2	-0.08717872
36	0xbdf5b00e	-0.119964704
37	0x3d6effe8	0.05834952
38	0x3dbffe70	0.09374702
39	0xbdf5f716	-0.120100185
40	0x3d05198c	0.032495067
41	0x3ccfabd8	0.025350496
42	0xbd8960c0	-0.06707907
43	0x3cdd3cb8	0.027006492
44	0x3dc5654c	0.096384615
45	0x3dfb1a42	0.12260868
46	0x3d5d66dc	0.054053172
47	0xbccb0b28	-0.024785593
48	0xbd91a8b8	-0.07112259
49	0xbd42ffe8	-0.047607332
50	0x3a866180	0.0010252446
51	0xbc1665c0	-0.0091795325
52	0x3dbacc6e	0.09121023
53	0xbde75980	-0.11296368
54	0x3c36cc00	0.011157036
55	0xbd22d748	-0.03975609
56	0x3c2ac930	0.010423943
57	0x3df62e24	0.120205194
58	0x3b6fa700	0.0036568046
59	0xbcb199b8	-0.021679744
60	0xbd2d8914	-0.042367056
61	0xbdff78de	-0.124742255
62	0xbde7f04a	-0.113251284
63	0x3d5f1688	0.054464847
64	0xbd9c54ac	-0.076333374
65	0x3d9157dc	0.07096836
66	0xbd112888	-0.035439044
67	0x3d38b768	0.045096785
68	0x3dbae0fa	0.09124942
69	0x3c95cc50	0.0182859
70	0x3d2fccc0	0.042919874
71	0x3dd856e0	0.10563445
72	0xbd20e36c	-0.039279386
73	0x3dbc447e	0.09192751
74	0xbdd74d78	-0.10512823
75	0x3dea6b0e	0.114462
76	0xbd27f17c	-0.04100178
77	0xbb9a2a20	-0.0047047287
78	0x3d8f9ce6	0.07012348
79	0x3c165b70	0.009177074
80	0x3ddfd996	0.10930173
81	0xbd61086c	-0.054939672
82	0xbd8d1980	-0.06889629
83	0x3de4883c	0.11158797
84	0xbd9a84fa	-0.075448945
85	0x3db02ce0	0.08602309
86	0x3df68ed8	0.12038964
87	0x3dad4b62	0.08461644
88	0xbd4192f0	-0.04725927
89	0xbaf23180	-0.0018477887
90	0xbde6b512	-0.11265005
91	0xbd8b6552	-0.06806435
92	0xbcd3f230	-0.02587232
93	0xbda9237c	-0.08258721
94	0x3d93b094	0.07211414
95	0x3d862458	0.06549901
96	0xbd1283f4	-0.03577037
97	0xbca10b38	-0.01965867
98	0x3df74934	0.12074509
99	0xbbfc4a60	-0.007699296
100	0x3dd96fea	0.10617049
101	0x3ded22d4	0.115789086
102	0xbd339904	-0.0438471
103	0xbdf4804c	-0.11938533
104	0x3deec9d2	0.11659588
105	0xbd89a39c	-0.06720659
106	0x3df4ce62	0.11953427
107	0xbda36df6	-0.07979958
108	0x3cb9b9d0	0.02267161
109	0x3d1761f0	0.036958635
110	0xbcf1e390	-0.029527456
111	0x3dc7a1e8	0.09747678
112	0xbde81bc6	-0.11333422
113	0xbd54c15c	-0.051942214
114	0xbca130e0	-0.019676626
115	0x3dc410f2	0.095735446
116	0x3d6d21f0	0.057893693
117	0x3da4ac48	0.080406725
118	0x3d5c62a4	0.05380501
119	0x3de640f6	0.11242859
120	0xbcff04e0	-0.031130254
121	0xbd1e0f78	-0.03858897
122	0xbc8c9d50	-0.017164856
123	0x3d496a14	0.04917343
124	0xbd1624f4	-0.036656335
125	0x3d3c0c44	0.045910135
126	0x3d0c5fec	0.034271166
127	0x3cf0c640	0.029391408
128	0x3dd092e0	0.10184264
129	0x3ca318e0	0.019909322
130	0x3da9e098	0.08294791
131	0xbd0ebf18	-0.03485021
132	0xbde60ca4	-0.1123288
133	0x3d9c74fa	0.07639499
134	0x3d5457cc	0.051841542
135	0x3dd70f20	0.10500932
136	0x3d43a1b0	0.04776162
137	0x3b23b7c0	0.002498135
138	0xbdb8c822	-0.09022547
139	0xbdf2b5d6	-0.11851089
140	0x3ccd8218	0.025086448
141	0x3dd0d888	0.1019755
142	0xbc1f35c0	-0.009717405
143	0xbd270860	-0.04077947
144	0x3d801260	0.06253505
145	0xbd77e1d0	-0.060518086
146	0x3d34aa84	0.04410793
147	0xbdcfbd28	-0.101435006
148	0xbde80156	-0.1132838
149	0xbd955998	-0.07292479
150	0xbcaf5430	-0.021402448
151	0x3d2ca558	0.04214987
152	0x3d818764	0.06324652
153	0xbda208fc	-0.0791187
154	0xbcd24eb8	-0.025672302
155	0x3d289584	0.041158214
156	0xbce1d308	-0.027566448
157	0x3af63600	0.0018784404
158	0x3da5bc64	0.08092573
159	0xbd13b41c	-0.036060438
160	0x3d83fbe0	0.06444526
161	0x3dd002a8	0.10156757
162	0x3d2aaeb4	0.041670516
163	0xbcb5f410	-0.022211105
164	0xbda2182a	-0.07914765
165	0xbda933d8	-0.082618415
166	0xbcc6f6a8	-0.024287537
167	0x3d200228	0.039064556
168	0x3d8c02cc	0.06836471
169	0xbbc597a0	-0.006030038
170	0x3dce4be4	0.10073069
171	0xbd4aca00	-0.04950905
172	0x3ccc32d8	0.024926588
173	0xbd831084	-0.063996345
174	0x3d09945c	0.033588752
175	0x3dda7cf8	0.10668367
176	0x3d336788	0.043799907
177	0x3c0938c0	0.008375347
178	0xbd3c6e48	-0.04600361
179	0xbdd2093e	-0.10255669
180	0xbdaf2eec	-0.085538715
181	0xbddb983a	-0.10722394
182	0x3db5f364	0.08884314
183	0xbd559810	-0.05214697
184	0xbc993780	-0.018703222
185	0xbde5673c	-0.11201331
186	0xbd0ec414	-0.034854963
187	0x3dd9bea2	0.106320634
188	0x3cbc4338	0.022981271
189	0xbcb6d958	-0.022320434
190	0x3d856df0	0.065151095
191	0x3dc55d2e	0.09636913
192	0x3dc735f2	0.09727086
193	0xbdbd69dc	-0.09248707
194	0x3c130a40	0.008974612
195	0xbdd23834	-0.10264626
196	0xbdb08158	-0.0861842
197	0x3dc4940e	0.09598552
198	0xbdcbf5ca	-0.0995899
199	0xbd7b17f0	-0.061302125
200	0x3d758a40	0.0599463
201	0x3df914c8	0.12162167
202	0xbdf8aeba	-0.121427014
203	0xbda53116	-0.08066003
204	0xbd48c5b8	-0.049016684
205	0x3dc64ffc	0.096832246
206	0x3d95307e	0.0728464
207	0x3d9f98b4	0.07792798
208	0x3da408e8	0.08009511
209	0xbd00227c	-0.031282887
210	0x3dbcc214	0.09216705
211	0xbb6632c0	-0.0035125464
212	0x3c406ac0	0.011744201
213	0xbd07c748	-0.033149034
214	0x3d59322c	0.053026363
215	0x3d64a3d4	0.0558203
216	0xbc5916c0	-0.013250053
217	0x3de15dea	0.11004241
218	0xbd0499d8	-0.03237328
219	0x3d019798	0.03163871
220	0x3de883b6	0.11353247
221	0x3d903c08	0.070427
222	0xbd3a70c0	-0.045517683
223	0xbd67ed24	-0.05662264
224	0x3cc5a098	0.024124429
225	0xba785800	-0.0009473562
226	0x3c1022d0	0.008797362
227	0x3da4e7f2	0.080520526
228	0x3d32f82c	0.043693706
229	0xbd8f9376	-0.07010548
230	0xbdd103e0	-0.10205817
231	0x3df206e4	0.118177205
232	0xbc6176e0	-0.013761252
233	0xbd49b59c	-0.04924546
234	0xbdbc05a2	-0.09180762
235	0x3df5d4d6	0.12003486
236	0x3d812dd6	0.06307571
237	0xbda2499a	-0.07924195
238	0xbddd1942	-0.10795833
239	0x3dde648a	0.1085902
240	0x3d5c6ff8	0.05381772
241	0xbc966a50	-0.01836124
242	0xbdd4c20e	-0.103885755
243	0x3d9b29c6	0.07576327
244	0xbdadc736	-0.08485262
245	0x3d7b9928	0.061425358
246	0xbdf324c0	-0.11872244
247	0xbde44086	-0.11145119
248	0xbdf59652	-0.11991562
249	0x3de8132c	0.11331782
250	0x3de8a31c	0.11359236
251	0xbdda70cc	-0.106660455
252	0x3dc5e594	0.09662929
253	0xbd9b9a82	-0.075978294
254	0xbdedea10	-0.116169095
255	0x3d7667c8	0.060157567

backbone.4.bias f4 [4]
0	0x3d911de2	0.07085778
1	0x3d911ba0	0.07085347
2	0x3cb3b590	0.021937162
3	0x3df5af68	0.11996347
