models/dqn_state_model50000.pt (torch, 21911 bytes, 6 tensors)

backbone.0.weight f4 [64, 8]
000000 2c 96 ea 3e bc 7d 37 3d 95 b5 65 bf 2a fe e0 3f
       0.45817697 0.044797644 -0.897302 1.7577565
000010 2a f6 64 be f0 56 57 3f 74 23 70 be 35 c1 41 3f
       -0.22359529 0.8411703 -0.23451024 0.75685436
000020 b5 1d b9 3e 38 c0 13 bf c5 20 dc be a8 4c 9c bf
       0.36155477 -0.5771518 -0.4299375 -1.2210894
000030 35 dc 9a bc 63 60 8c 3e 92 94 a7 3e 0e 63 b4 3c
       -0.018903831 0.27417287 0.32730538 0.02201989
000040 e7 28 6e 3f 2a 10 6a be 28 34 60 3e ef 6b 38 3e
       0.9303116 -0.22857729 0.21894896 0.18009923
000050 33 1b 94 be 3e 25 70 bf 10 7b b2 be 56 de e6 3e
       -0.28927 -0.9380683 -0.34859514 0.45091504
000060 8e f6 59 be 3e cc d1 bc 17 79 58 bf c8 80 26 bf
       -0.2128546 -0.025610086 -0.8455977 -0.65040255
000070 10 54 8f 3e 5f 75 24 bf 80 9c e4 3e 37 3d b9 3e
       0.27993822 -0.64241594 0.4465065 0.36179516
000080 23 67 62 3f ec 53 4f 3d 13 46 48 be f1 0a 56 3e
       0.88438624 0.050617144 -0.19557981 0.20902611
000090 18 87 08 3e bf 5c 44 3f bd d9 b2 3e a5 b2 a7 3e
       0.13332784 0.7670402 0.34931746 0.32753482
0000a0 2a d3 6e 3f 3c 54 64 be 64 9a 0b 3e 19 e9 1c 3f
       0.9329096 -0.22297758 0.13633114 0.6129318
0000b0 d3 8f 1b be f1 aa 51 bf 1c b2 5f 3e 23 22 f0 bd
       -0.15191583 -0.8190146 0.21845287 -0.11725261
0000c0 0a 3a 26 3f 5d 58 2e be cb 9b 15 3e 8f 6c 4d bf
       0.6493231 -0.17025895 0.14610212 -0.8024377
0000d0 62 da 56 bd 12 7b 47 3f 1a 88 c5 3c 54 c4 37 3f
       -0.05245436 0.77922165 0.02411275 0.7178395
0000e0 6f 3f 24 be 83 42 aa 3e 9c 00 1b bf c8 35 ca bf
       -0.16039823 0.3325387 -0.60547805 -1.5797663
0000f0 18 21 12 3e af bd 2a be 23 12 d3 3e d9 80 8d be
       0.14270437 -0.16673921 0.41224775 -0.27637365
000100 10 92 1b 3f f9 8a 0e bf f4 f6 11 3f b9 0d 4f be
       0.6076975 -0.55680805 0.57017446 -0.20220079
000110 28 6a 18 bf e0 0a 74 bf e6 35 ef bd 1c 63 22 3f
       -0.5953698 -0.95329094 -0.11680202 0.6343248
000120 2c c4 d4 3e df b3 87 3e 54 1b ec bf 8a d5 39 bf
       0.41555917 0.26504418 -1.844584 -0.7259146
000130 ce 6e 10 bf 0e 11 e8 3e 52 56 d6 3c 00 b3 fe bd
       -0.56419075 0.45325512 0.026164208 -0.12436485
000140 ea 23 86 bf 3b 7b c8 bd ec ca 6b bf 43 b7 3f bf
       -1.047971 -0.09789129 -0.9210651 -0.7488901
000150 39 5c fe 3e d0 35 c9 3e 11 5e 05 3f 4e 86 22 be
       0.49679735 0.39298868 0.5209666 -0.15871546
000160 e1 53 0d bf 6f 5f 4b 3e 28 eb 43 be ca a1 e1 be
       -0.55206114 0.19860624 -0.19132674 -0.44068748
000170 fe 77 aa bd 3f 20 a5 3f 3d dd d0 3d ea c3 14 bb
       -0.08323668 1.2900466 0.10198448 -0.0022699782
000180 cf 6e fa 3d ed cf f0 bd 29 aa d1 bf b7 52 98 bf
       0.12228166 -0.11758409 -1.6380054 -1.1900243
000190 e6 0c df be a3 7e af 3e c5 d4 de bc 67 2b 1a be
       -0.43564528 0.34276304 -0.027201066 -0.15055619
0001a0 7e 61 10 3f f2 df 9b 3b e3 33 42 bd 84 d9 48 bd
       0.5639876 0.004756921 -0.047412764 -0.049035564
0001b0 83 50 a1 be 80 e0 73 bf 7e db bd 3d 77 b2 95 be
       -0.31506738 -0.95264435 0.092703804 -0.2923772
0001c0 6b 81 90 3e b0 69 2c bf 58 01 13 bf 43 0e 4d bf
       0.28223738 -0.67348766 -0.57423925 -0.80099887
0001d0 43 95 48 3e d9 90 9b be 0b 65 b0 be 62 d5 80 bc
       0.19588189 -0.30383947 -0.3445209 -0.015726749
0001e0 7e 49 dd be 6d b0 24 be 78 63 02 bf bf 4a 92 bf
       -0.43220133 -0.16082926 -0.5093303 -1.1429061
0001f0 9f 6d d9 be bf 62 01 3e fc 37 e9 3d 98 ca 28 3e
       -0.42466447 0.12635325 0.11387631 0.16483533
000200 c0 c4 1e 3f 36 19 3a bf 88 85 57 3f 9a a6 a9 3e
       0.62018967 -0.7269472 0.8418813 0.3313492
000210 ec 5b 41 bf 2f 4f 18 3d c1 75 5a 3d 53 15 08 3e
       -0.75530887 0.03718489 0.053334955 0.13289385
000220 b1 f7 17 bf 90 ca 17 bf 2c 13 b3 be b8 8b 04 bf
       -0.5936232 -0.5929346 -0.34975564 -0.51775694
000230 84 1a 8c 3e 33 99 10 bf 83 65 0d 3f 96 27 98 3e
       0.2736398 -0.56483763 0.5523302 0.29717702
000240 c7 02 da 3e 0b 38 36 be 1d 9c 17 3f c2 8d 90 3f
       0.42580244 -0.17794816 0.59222585 1.1293261
000250 39 70 d1 3f 29 12 fa bd 7e 3d 99 3e ae af 48 3f
       1.6362373 -0.12210495 0.29929727 0.78393066
000260 78 3f bc 3e fb 0e 01 bf a9 b7 10 bf 27 b0 89 bf
       0.36767173 -0.50413483 -0.56530243 -1.0756882
000270 74 8b d2 3c 42 0c 9d 3e 8e ab d8 3e cb e5 85 3d
       0.025701262 0.30673414 0.42318386 0.0653797
000280 e0 b7 37 3f b4 3c 04 3e 5a aa c5 bc 03 7d 67 bf
       0.71764946 0.12913781 -0.024129082 -0.9042513
000290 43 87 78 3e d5 5b 5b 3e ce 86 4f 3e 0a bb e3 3e
       0.24270348 0.2142175 0.20266268 0.44478637
0002a0 e8 6c 8d 3d e6 fe 19 be be 14 49 3e ea 26 90 3e
       0.06905538 -0.15038642 0.19636819 0.2815469
0002b0 83 bd 2a 40 5b df 37 be 95 8b d1 bd aa 9c f8 3e
       2.6678169 -0.17956297 -0.10231701 0.48557025
0002c0 95 7d bd 3d f9 ff c4 3d bd 5b 28 3e 6f 31 bc bf
       0.092524685 0.096191354 0.16441245 -1.4702586
0002d0 ff c8 c3 3e 45 1a c6 3e e7 65 a8 3e 3c 42 17 bd
       0.38239285 0.38691917 0.32890245 -0.0369284
0002e0 81 b0 0c 3f 14 8c 94 3e 0a b6 59 3e 34 21 40 bf
       0.54956824 0.2901312 0.21260849 -0.75050664
0002f0 39 09 00 3c cc 6c 48 3e e7 1a 4e bc a2 84 4c 3e
       0.007814699 0.19572753 -0.012579656 0.1997247
000300 62 27 5e 3f 41 5f cf 3d e9 4b bb 3d 4e 02 3d be
       0.86778843 0.1012559 0.09145338 -0.1845791
000310 4c 4a 2b 3e ae ee 95 3e 33 40 2a 3f fa f0 d3 3e
       0.16727561 0.2928366 0.6650421 0.41394788
000320 8f dd bb be f3 90 55 be 61 6b 94 be 50 6f 3d be
       -0.36692473 -0.20856075 -0.28988174 -0.18499494
000330 54 cf a6 be 78 ec 83 bf 2b 6f 32 bd 75 00 27 bf
       -0.32580054 -1.030654 -0.04356305 -0.6523507
000340 bc 33 c1 3e ce a9 af be e5 53 db 3e 03 1d a8 be
       0.37734783 -0.34309238 0.42837444 -0.32834634
000350 78 e6 81 bf 07 72 91 bf 9c 6c 9a be a6 d5 4b 3f
       -1.0148458 -1.1362923 -0.30160987 0.79622877
000360 37 9d 1c bf e6 56 56 bf 54 d0 9f 3f 6d 41 40 bf
       -0.6117739 -0.83726346 1.2485452 -0.7509983
000370 46 cb e8 be 14 a2 fb 3e 36 e6 b8 be c3 5c a1 3e
       -0.45467585 0.49147093 -0.36113137 0.31516084
000380 a2 44 be bd ad f2 6e be e6 b6 76 bc 23 95 a8 be
       -0.092904344 -0.23334761 -0.015058255 -0.32926282
000390 27 6d 22 bf c5 d5 af bf 82 5b 68 be b2 17 d8 3d
       -0.63447803 -1.3737112 -0.22691157 0.105513945
0003a0 0b 9d 10 bf 0c 2b 75 3f c5 5a 87 be 94 01 00 3f
       -0.5648963 0.9576881 -0.2643644 0.5000241
0003b0 6d 9d 93 be c7 1f b6 bf 41 11 18 bf 50 b2 44 bf
       -0.28831044 -1.4228448 -0.5940133 -0.76834583
0003c0 c4 fe 57 3f 66 db c2 be 6a 55 c1 3e 42 51 f5 bb
       0.84373116 -0.38058013 0.37760478 -0.0074864933
0003d0 15 12 a1 be 1a 0a 89 bf 3d 99 18 bf 7c e0 a1 3e
       -0.31459108 -1.0706208 -0.59608823 0.3161658
0003e0 d0 19 1a be 5d 3e 99 bc 32 1b 0a c0 f6 51 83 bf
       -0.15048909 -0.018706495 -2.1579099 -1.0259387
0003f0 ac fa 3f 3d 78 a9 0c bf a4 44 b9 3e 43 b2 12 3e
       0.04686992 -0.5494609 0.3618518 0.14325814

backbone.0.bias f4 [64]
000000 1b 7b a7 3e 99 65 17 be 35 73 e2 be d7 d3 68 be
       0.3271111 -0.1478485 -0.4422852 -0.2273706
000010 54 6d 5a 3e 45 85 06 bf f3 b1 c3 3e 6b bb d9 bd
       0.21330768 -0.52547103 0.38221702 -0.1063145
000020 e6 ae 01 be 35 dd 2f 3d 94 5d 26 bf 4c 06 27 bf
       -0.12664375 0.04293557 -0.6498654 -0.65243983
000030 18 f3 49 3d 93 0d 87 bc 74 70 0f 3e bf 01 41 3e
       0.049304098 -0.016485965 0.14007741 0.18848322
000040 0c 30 58 be a6 3a 04 3b 91 b6 ca bc 18 86 36 be
       -0.21112078 0.0020176559 -0.024745258 -0.1782459
000050 4d 22 b4 be b3 c3 10 bd 37 ff fd bd b7 fc d3 bd
       -0.3518242 -0.035342883 -0.12402194 -0.10350936
000060 5e 68 47 bf 63 31 02 3f f2 46 ea bd c3 f5 b3 3e
       -0.77893627 0.5085661 -0.11439313 0.3514844
000070 29 fc 6b 3b 47 71 c6 3e 9e be cc be ba f0 52 3d
       0.0036008453 0.387583 -0.3998918 0.051499106
000080 3f da e4 3c b6 88 87 3f e3 63 ff 3e 63 06 65 3d
       0.0279361 1.0588596 0.49880895 0.055914294
000090 81 30 99 3f 96 bb e3 bd c8 8d e4 bd 63 0b 96 3e
       1.1967927 -0.111197636 -0.11159855 0.29305562
0000a0 a3 89 30 3d a5 26 04 3f 7b 35 a2 be a7 fb e9 3d
       0.04310001 0.51621467 -0.31681427 0.11424952
0000b0 6e 1e 72 be 87 76 d2 3e 25 e3 dc 3e f4 6c 4e 3f
       -0.2364442 0.41106054 0.43142048 0.80635
0000c0 cf 7b 38 3f 87 b8 24 3f 20 f5 b3 3e ab 25 18 bf
       0.72063917 0.64344066 0.35147953 -0.59432477
0000d0 80 93 61 be 98 a5 10 bf b2 1c 81 3e 98 c5 ca be
       -0.22028923 -0.56502676 0.25217205 -0.39603877
0000e0 52 5d 60 bd 6c 1a 20 bf e2 e2 fe be 03 4e ed ba
       -0.054776497 -0.62540317 -0.49782473 -0.0018104914
0000f0 73 d0 e1 bd 37 71 97 be 4a af 97 3f 13 a0 73 be
       -0.11026087 -0.29578564 1.1850369 -0.23791532

backbone.2.weight f4 [64, 64]
000000 02 13 45 bf 81 0c da be 65 8b 86 be cc e9 33 3f
       -0.7698213 -0.42587665 -0.26278225 0.7027862
000010 33 c6 74 3e 5b 41 38 be 3b bc 25 3e f8 2b 58 3d
       0.23903732 -0.17993681 0.16185085 0.052776307
000020 35 33 c2 be 54 01 67 3e e1 5d b6 bf 37 98 c1 be
       -0.37929693 0.225591 -1.42474 -0.37811443
000030 23 6d 03 bd dc 42 47 3e 46 0e f9 be c2 2f 61 3e
       -0.032086503 0.19459099 -0.48643702 0.21990874
000040 8e 62 ab bf 40 fa 78 3f 01 47 5d 3f 2d b9 36 bf
       -1.3389452 0.9725685 0.8643647 -0.71376306
000050 8c 88 7c bf 5b 2a 8e 3f db bc 86 be 69 53 2e bf
       -0.98645854 1.1106676 -0.2631596 -0.68096024
000060 3d dd b3 bf ff 8d fa bd e1 80 cb be 5b 1c f7 3e
       -1.4051892 -0.12234115 -0.39746764 0.4826382
000070 9f 36 ea bb 67 38 12 be 55 dd 06 bf 29 a4 02 be
       -0.0071476246 -0.14279328 -0.52681476 -0.12757935
000080 09 4d 8f 3f 54 fb 0d 3e da d8 fa bc 06 6f 8e be
       1.1195384 0.13865405 -0.030620981 -0.2781908
000090 3a 60 ee 3e cc b3 c6 be 15 01 4a 3f 7e 2f 50 3e
       0.4655779 -0.3880905 0.789079 0.20330617
0000a0 29 ce 07 bf 81 81 26 be e7 d0 ab be d3 eb ce 3f
       -0.5304895 -0.1626034 -0.33557817 1.6165718
0000b0 7e 94 0d 3f 5b a0 ec 3e 6e 31 1e be 03 44 b8 bc
       0.55304706 0.46216092 -0.15448543 -0.022493368
0000c0 3a 12 1c bf 2a 09 7a be ca 18 e7 bc 84 50 06 bf
       -0.6096531 -0.24417558 -0.028210063 -0.5246661
0000d0 3a 87 71 be a7 9f ea be df d0 cd bc ec b1 2c 3f
       -0.23586741 -0.4582493 -0.025124012 0.6745899
0000e0 c2 c7 14 bf 1e 1f 84 bf ac 94 ac 3d 6f 89 2c bc
       -0.58117306 -1.0321996 0.084267944 -0.010530814
0000f0 62 b0 b7 be fe e3 8a bf 6f ac 48 bd e0 89 4c bf
       -0.35876757 -1.0850828 -0.04899257 -0.7989788
000100 53 36 e2 be 87 b7 f4 3d 06 27 19 3f 39 76 c2 3e
       -0.4418207 0.119490676 0.5982517 0.37980822
000110 db 34 eb bd e5 5e 61 3e f2 68 cd 3d 69 70 af 3e
       -0.11484691 0.22008856 0.10029782 0.3426545
000120 aa 45 e5 3e 24 42 8b 3d 05 5f 31 3f 35 ac 35 bd
       0.44779712 0.06799725 0.69285613 -0.044353683
000130 ae 37 bc 3e 26 5b 2e 3e 4e 86 e6 3d 0a c8 22 3f
       0.3676123 0.17026958 0.11256085 0.63586485
000140 eb 32 45 3f 8c ae b1 3c 34 97 22 bf d5 2c aa 3e
       0.7703082 0.021689676 -0.6351197 0.3323733
000150 31 07 a3 3d 61 b6 2e be 99 ec 0b 3d 0d bf 6c 3e
       0.07960356 -0.1706176 0.034161184 0.23119755
000160 7c 0c 0b 3f c8 bc c9 3e 44 c7 1f 3f 7f 5b df 3d
       0.54315925 0.3940184 0.6241343 0.10906123
000170 07 3b c1 3e 3b 60 5f bf f6 eb f2 3e 1d 36 16 3e
       0.37740347 -0.8725621 0.4744565 0.1466908
000180 94 d5 4b be 03 83 29 bf ec df 9f bd 0f 9f 8b 3d
       -0.19905692 -0.66215533 -0.078063816 0.068174474
000190 18 42 30 bf 52 65 de 3e 00 cc eb bd 7b 57 a4 3d
       -0.6885085 0.43436676 -0.11513519 0.08024498
0001a0 5f 11 04 3f a5 30 c3 3e e9 8f 93 3d 0a 44 de 3d
       0.51589006 0.3812305 0.07205183 0.10852821
0001b0 bb f0 23 be 6e 6f 62 3e 15 7c 91 3e 79 55 39 be
       -0.160098 0.2211282 0.2841498 -0.18099011
0001c0 7f 2b a5 3c e5 65 cf 3d c2 6a 8d bf d5 d4 26 3e
       0.020162342 0.10126857 -1.1048205 0.16292126
0001d0 d0 c3 0d 3f 83 b4 d0 3e 25 14 08 be 43 d5 26 3d
       0.5537691 0.4076272 -0.13288935 0.040730726
0001e0 4c ed 64 3f 33 5e bc 3e 9e 82 01 3d 40 ba f9 3e
       0.89424586 0.36790618 0.031618707 0.4877491
0001f0 5e 1d d5 3e d1 35 1e 3e c8 3c 6a bd 84 30 b2 3e
       0.41623968 0.15450217 -0.05718687 0.3480264
000200 48 df 6e bf 62 6b 50 3e 3f 72 00 3f 50 c9 4c 3f
       -0.9330945 0.20353463 0.50174326 0.7999468
000210 83 fc 66 be 9c 76 e3 bb 39 a8 7c bd 31 32 75 3f
       -0.22557263 -0.0069416296 -0.061683867 0.9577971
000220 de 57 26 3f d0 e1 bf 3e e3 03 10 3f 33 e0 eb 3d
       0.64977825 0.3747697 0.5625593 0.11517372
000230 9b 44 2c 3f c6 0d d9 3d 6f 30 60 3e 46 c1 59 3f
       0.67292184 0.1059833 0.21893476 0.85060537
000240 07 d4 eb 3e 52 05 eb 3e 67 53 99 bf 5f b9 54 3e
       0.46060202 0.45902497 -1.1978577 0.20773838
000250 15 ba a5 3d 81 67 00 bf c7 69 ae 3e de b9 f2 3d
       0.08092133 -0.50157934 0.34065077 0.118518576
000260 e1 6b 79 3e 45 69 16 be cf f3 10 3f e4 3a 5f 3d
       0.24357559 -0.14688595 0.5662202 0.05449952
000270 74 33 fe bd dc 05 af bf 42 0a 0b 3f 3a 06 27 3f
       -0.12412158 -1.3673663 0.5431253 0.65243876
000280 fc f2 1d bf bf ac ac bf 33 2a c9 3e a0 5d 64 3e
       -0.6169889 -1.3490218 0.39290008 0.2230134
000290 12 b6 58 bf 04 bd df 3e b3 17 df 3d 18 62 08 3e
       -0.8465282 0.43698895 0.10893192 0.1331867
0002a0 28 ba 9a 3e ab ea b9 3e d3 22 ec 3d 49 70 e0 ba
       0.3022015 0.3631185 0.1153008 -0.0017123307
0002b0 09 50 1e bf f0 b9 46 3e 60 ea cf 3d ba 58 5a 3e
       -0.61840874 0.19406867 0.10152125 0.21322909
0002c0 53 1a 01 3e 64 af e8 3e 6f 32 e5 bf 75 fe cb bd
       0.12607698 0.45446312 -1.7906016 -0.09960643
0002d0 db 5d 5a 3f ae f0 12 3f 46 b7 4d 3c 12 fa 08 be
       0.8529946 0.573985 0.012555903 -0.13376644
0002e0 a7 8e c6 3f 6d b1 02 3e cb 97 59 bc a4 c7 9d 3e
       1.5512284 0.12762995 -0.013280819 0.30816376
0002f0 08 18 41 3e d1 7b 15 3f a5 86 c3 3e 94 8f e5 3e
       0.18856823 0.58392054 0.38188663 0.44836104
000300 56 97 35 be f9 ac c4 3e 93 b3 56 3f 04 00 a7 3e
       -0.17733511 0.38413218 0.8386776 0.326172
000310 df 0a 1f 3e 5b 00 4c 3f 93 49 f1 3d f1 46 8e 3e
       0.1553149 0.7968804 0.11781611 0.277885
000320 c3 3a 02 3f 0a 66 52 bd e2 65 19 3f 15 a1 28 3d
       0.50870913 -0.051366843 0.59921086 0.041169245
000330 a2 14 1e 3e 9f af df 3e 96 51 57 3e ef f6 d9 3e
       0.15437558 0.43688676 0.21027216 0.42571208
000340 bb c5 18 3f af 17 9b 3b aa d2 5a be b6 98 8d 3e
       0.5967671 0.004733048 -0.21369424 0.27655572
000350 ee d0 a5 3e af 7f bf bd ec dd a5 3d 2c 46 0f 3f
       0.32385963 -0.093505256 0.08098969 0.5596645
000360 da dd 8b 3f a0 b0 f2 3e 44 75 4b 3f 8d ac 03 be
       1.0927079 0.4740038 0.7947581 -0.12858792
000370 50 84 dd 3e 26 92 27 bf 79 96 1f 3f c7 58 02 3e
       0.4326501 -0.6545738 0.6233898 0.12729178
000380 f5 ce 99 be 57 17 23 bf 95 9a 9c bd 26 e0 41 bd
       -0.30040708 -0.6370749 -0.07646672 -0.047332905
000390 cf 6b 4c bf d7 52 ba 3e 82 40 65 3e 18 57 4b 3e
       -0.79852 0.36391327 0.22387889 0.19857442
0003a0 c3 df 3b 3f cb 46 ae 3e e8 23 f3 3c 13 be 03 be
       0.7338831 0.34038386 0.029680207 -0.12865476
0003b0 e4 69 f1 3c d1 d6 34 3e 34 a4 19 3f b6 b3 96 3c
       0.029469438 0.17660071 0.6001618 0.01839624
0003c0 3a 3c 67 3e a0 97 a1 3e bb 12 91 bf dd a9 dc 3e
       0.22581568 0.31560993 -1.1333841 0.43098345
0003d0 06 a5 10 3f c6 b4 cd 3e 32 56 b3 be 2d db a3 bd
       0.56501806 0.40176982 -0.350267 -0.08000789
0003e0 13 11 36 3f 92 4f 25 3f d8 70 b1 3e d4 b1 45 3f
       0.71119803 0.6457454 0.34656405 0.7722447
0003f0 e2 dc 35 3f 76 47 24 3f 9c be 56 3e 73 3d cd 3e
       0.71040165 0.6417154 0.20971149 0.40085945

backbone.2.bias f4 [64]
000000 ad 1f 2c 3f 87 5e 57 be 8b b2 d0 bd ab 28 8d be
       0.67235833 -0.21032153 -0.10190304 -0.2757009
000010 07 26 2c 3f ca 1c 86 bc d5 e3 b9 bd 80 d4 80 bc
       0.67245525 -0.01637115 -0.09076659 -0.015726328
000020 fd d1 43 be 06 4b d4 bd 6d 8a 00 bf 2f 54 b4 be
       -0.19123073 -0.10365872 -0.5021122 -0.35220477
000030 4f d7 2c 3f c7 9e cb bd 70 7c 13 3f 40 fd f4 3e
       0.67516035 -0.09942394 0.5761175 0.47849464
000040 5c 41 cc 3e 69 a5 b9 be 73 77 1f be f2 ea ab bd
       0.39893615 -0.3625901 -0.1557291 -0.08394422
000050 d2 c3 be be 6c 36 c0 3e 49 2b 42 3f a2 ec ce bd
       -0.37258774 0.3754152 0.758473 -0.10103728
000060 b3 61 88 be 5b 34 fd be 70 f5 b0 be 97 c5 86 be
       -0.2663704 -0.49454007 -0.34562254 -0.26322624
000070 05 75 0b 3d cb a1 95 3e 3e 61 27 3e 0c db 9f be
       0.034047145 0.29225 0.16345689 -0.31221807
000080 19 bb 4f 3f dd a8 48 be 06 24 ac 39 cb 07 8e be
       0.81144863 -0.19595666 0.00032833236 -0.2774032
000090 7f 93 a5 be 43 73 98 bd fb 3e 8d be 2c e2 3c 3f
       -0.32339093 -0.074438594 -0.27587113 0.7378261
0000a0 1b 9d 48 3f 11 dd bc be 7a 17 13 be 48 1a df be
       0.78364724 -0.3688741 -0.14364424 -0.43574739
0000b0 45 c9 8d 3c 55 88 29 3f 98 b8 bf be db 8a 06 3f
       0.017307887 0.6622365 -0.3744552 0.52555627
0000c0 58 26 1d bc 5f 05 73 3f de f7 06 bf 6e 2e 88 3f
       -0.009591661 0.9493007 -0.52721965 1.0639169
0000d0 f0 da a1 be e2 3e 70 be 51 a2 17 3f 53 50 68 bc
       -0.3161235 -0.23461488 0.5923205 -0.014179307
0000e0 aa 4d b7 be 7d 2d 0b bf ca b6 b0 3e 7e e4 d8 3e
       -0.3580144 -0.54366285 0.34514457 0.42361826
0000f0 00 cb 36 bb b4 88 60 be 9a c5 10 be 16 66 d9 bd
       -0.0027891994 -0.21927148 -0.14137879 -0.106151745

backbone.4.weight f4 [4, 64]
000000 6c 2f d9 3f a6 6d e8 be 4a 23 c9 be cd 90 03 bf
       1.6967597 -0.45396155 -0.39284736 -0.51392823
000010 e5 5c d4 be fe 14 6a bd 8d a2 64 bd ac 92 bb bd
       -0.41477123 -0.057148926 -0.055819083 -0.09158835
000020 83 12 30 bf 2d e2 1e bf de dd 12 bf 14 e2 07 bf
       -0.68778247 -0.62063867 -0.5736979 -0.5307934
000030 e7 e5 46 bf 68 da 99 3d 33 48 4c bf cf 2c a7 3f
       -0.77694553 0.07512361 -0.7979767 1.306055
000040 3a 1a e8 3e bf 2f e2 be 66 5f 67 be f4 d4 a0 bd
       0.4533251 -0.44177052 -0.22594985 -0.078531176
000050 32 dd 08 bf 3f 88 ec be 5b 60 8d 3f 34 10 32 bd
       -0.5346252 -0.46197698 1.104503 -0.043472484
000060 9a c3 c6 be 2c eb 09 bf bb 7a d3 be fa 54 e0 be
       -0.38821107 -0.5387447 -0.41304573 -0.43814832
000070 38 6d 22 3d a1 d2 4c be 3e cd ed be 80 d7 ff be
       0.03965494 -0.20002224 -0.4644565 -0.499691
000080 77 2f 3f 3f 93 d8 d6 be 71 08 f4 bd 6e 22 16 bf
       0.746818 -0.41962108 -0.119156726 -0.58646286
000090 0d f9 18 bf 58 77 47 3d 2e 53 c2 be 22 d3 84 bf
       -0.5975502 0.0486978 -0.37954086 -1.0376933
0000a0 4e f3 fb 3f 55 70 de be c0 60 89 bd 8c 2d f0 be
       1.9683626 -0.43445078 -0.06707907 -0.4690975
0000b0 4c 65 c5 3d a8 d8 1f bf 0f bd d8 be 00 40 91 3f
       0.096384615 -0.62439966 -0.4233174 1.1347656
0000c0 bd d5 16 bf 05 5d a6 bf e8 08 e2 be a9 26 95 3f
       -0.5891989 -1.2997137 -0.4414742 1.1652423
0000d0 ec 3f 09 3e ab 66 22 bf 43 d9 9f 3f 48 d7 22 bd
       0.1340329 -0.6343791 1.2488178 -0.03975609
0000e0 78 ed d1 be 83 26 ac be 33 a1 8b 3f 74 a7 dc 3d
       -0.41001487 -0.33623132 1.0908569 0.10774127
0000f0 14 89 2d bd 17 f6 0d bf 4a f0 e7 bd 45 25 0b 3d
       -0.042367056 -0.5545363 -0.113251284 0.03397109
000100 b3 d5 ed 3e cb 7c 2e be da e6 3d bf 11 00 a9 be
       0.46452102 -0.17039792 -0.74180377 -0.33007863
000110 d8 d3 22 bf 0a 2a a6 3b 0e e3 a5 3d 27 b5 89 3d
       -0.636045 0.0050709294 0.08099948 0.06724005
000120 9b 54 24 bf 81 18 dd be 9c 99 03 bf 26 45 7f be
       -0.641916 -0.43182757 -0.51406264 -0.24928722
000130 f1 45 19 bf bf b6 86 bc 10 c4 26 bf d5 ed c2 3f
       -0.5987235 -0.016444562 -0.6514292 1.522883
000140 5c fa 0f 3f cf c7 f1 be 62 d2 5b bf d1 20 c9 3d
       0.56241393 -0.47222754 -0.85867894 0.09820712
000150 17 2e e7 be 51 88 2b bf 69 60 c8 3f 00 5e 8b 3d
       -0.4515235 -0.6700488 1.5654422 0.068050385
000160 3f 57 e0 be f8 cb c7 be 71 a8 14 bf f9 d5 da be
       -0.43816563 -0.39022803 -0.5806952 -0.42741373
000170 30 f2 d3 bc d9 63 25 bf 2d ac 4a 3c a7 68 a0 be
       -0.02587232 -0.6460548 0.0123701515 -0.31329843
000180 53 81 4c 3f 84 26 e1 be d4 f3 c9 3d 36 62 d3 be
       0.79884833 -0.43974698 0.0986096 -0.41285866
000190 d8 42 d6 3d 95 d3 ba 3d 3e 8c f8 be 29 c3 6d bf
       0.10461968 0.09122387 -0.48544496 -0.92875916
0001a0 7e 3d ef 3f ab a1 f6 be f7 b4 c9 3d 06 23 09 bf
       1.8690641 -0.48170218 0.098489694 -0.53569067
0001b0 bb d9 20 3c 74 ef 37 bf e9 a5 f8 be 69 12 88 3f
       0.009817536 -0.7184975 -0.4856408 1.0630618
0001c0 3c e1 3e bf ba 36 78 bf cb dc cc be 81 42 8b 3f
       -0.7456243 -0.96958506 -0.40012202 1.087967
0001d0 e5 47 e8 3e 54 ab 69 be a1 ab bb 3f f6 40 e6 3d
       0.4536735 -0.22819263 1.4661752 0.11242859
0001e0 f5 4c e4 be f8 ef 14 bf 5b eb 6c 3f 59 1d 0c 3f
       -0.44589964 -0.58178663 0.92546624 0.5473228
0001f0 f4 24 16 bd b0 f9 a5 be af 8e 5e 3c 92 b1 d1 3b
       -0.036656335 -0.3241706 0.013583823 0.006399342
000200 c8 e0 96 3f 09 ce ff be 56 f5 d2 be 44 de 00 bf
       1.1787348 -0.4996188 -0.412028 -0.5033915
000210 23 7b 9b bf 5b b8 85 3d 06 58 c5 3c ea d8 90 3d
       -1.2146953 0.06529304 0.024089824 0.07072623
000220 0f 7f 0b bf 58 a1 f4 3b 51 6b e3 be ce a0 35 bf
       -0.5449075 0.0074655227 -0.44417813 -0.70948493
000230 21 52 07 bf e0 de 9d 3d 03 4c 0c bf 3d a1 60 bf
       -0.52859694 0.07708526 -0.54803485 -0.8774603
000240 84 18 15 3f 67 a1 df be 76 56 1e bf e8 12 c6 bd
       0.5824053 -0.43677828 -0.6185068 -0.09671575
000250 dc ca 30 bf eb 5d 81 bf b2 a0 b4 3f 47 a8 03 3d
       -0.6905954 -1.0106786 1.411154 0.032142904
000260 d7 e6 6c be 62 38 2d bf 76 d5 d3 be f3 5b 71 be
       -0.23134933 -0.6766416 -0.41373795 -0.23570232
000270 d4 91 bd 3c 79 93 50 be 2e 9e 1a 3f 29 a0 0d bf
       0.023140825 -0.20368756 0.60397613 -0.5532251
000280 28 e3 ad 3f c2 28 2b be 6e 8c e1 3c db e4 00 bf
       1.3584948 -0.16714767 0.027532782 -0.50349206
000290 68 c8 39 bc 2c 79 be bd d2 50 ef be 57 93 07 bf
       -0.0113392845 -0.093004555 -0.46741349 -0.529592
0002a0 75 a5 06 40 02 62 e4 be e4 4b ce 3d 34 a5 18 bf
       2.1038487 -0.44606024 0.10073069 -0.5962708
0002b0 d8 32 cc 3c af 6a 80 bf 18 b9 f7 be 3a 11 8c 3f
       0.024926588 -1.0032557 -0.48383403 1.0942757
0002c0 40 dd ef be a4 a8 61 bf 90 42 fd be 84 96 29 3f
       -0.46848488 -0.8814795 -0.49464846 0.66245294
0002d0 09 eb 0c bf a5 cf 22 bf d0 cc c9 3f 10 98 55 bd
       -0.55046135 -0.6359809 1.5765629 -0.05214697
0002e0 01 ff d6 be 0f 80 2b bf 60 d5 bc 3e 43 33 9f 3f
       -0.41991428 -0.66992277 0.36881542 1.2437519
0002f0 38 43 bc 3c 1b 78 f3 be 9c 16 53 3d cf e9 9c 3d
       0.022981271 -0.4755257 0.051535234 0.07661783
000300 a3 7c d0 3e 11 dd 24 bf e8 f6 2e bf ae fe 13 bf
       0.4072009 -0.6439982 -0.683455 -0.57810485
000310 69 19 79 bf 61 81 41 3d 24 b3 08 be ae 52 83 bd
       -0.973044 0.047242526 -0.13349587 -0.06412254
000320 28 27 18 bf 07 fa 0d 3d 8b b1 0b bf c0 4d 05 bf
       -0.5943475 0.034662273 -0.54567784 -0.5207176
000330 45 49 7b bf 35 b5 b4 3d 68 06 27 bf 0e e8 53 3f
       -0.98158675 0.08823625 -0.6524415 0.8277596
000340 c9 e5 8e 3e cd e8 c8 be a9 f8 52 bf 35 c7 2b bc
       0.27909687 -0.39240113 -0.82410675 -0.010484506
000350 94 5b a3 be 09 f7 46 bf cb 09 10 3f 1a c4 16 3c
       -0.31905806 -0.77720696 0.5626494 0.009202028
000360 7c 5f b6 be 8b 47 a0 bd ba 8e cd be 07 3f f0 be
       -0.35619724 -0.07826146 -0.40147954 -0.46923086
000370 b6 83 e8 3d 6c 0d 17 bf f1 cb 75 be c8 29 e3 be
       0.11353247 -0.59004855 -0.24003579 -0.44367814
000380 4d eb 87 3f 1c 66 2d bf 3f 34 4c 3b 19 b6 74 be
       1.0618683 -0.6773393 0.003115907 -0.2389759
000390 5e 46 6b bf 8e 5a 99 bd c0 5e 02 bf 81 d1 17 bf
       -0.91904247 -0.07487975 -0.5092583 -0.5930405
0003a0 b2 d7 ae 3f 8f c5 cc be a2 05 bc bd 6c 91 87 bd
       1.3659575 -0.39994475 -0.09180762 -0.06619534
0003b0 d6 2d 81 3d 71 63 60 bf de 54 00 bf e1 81 f4 3f
       0.06307571 -0.87651736 -0.501295 1.9102136
0003c0 d9 a7 0b bf 91 0f 2e bf f5 c1 36 bf f7 89 0a 40
       -0.5455299 -0.679925 -0.71389705 2.1646707
0003d0 c3 fa 69 bf 82 b8 89 be 52 1e 94 3f 24 c7 78 bd
       -0.91398257 -0.2689858 1.1571753 -0.06073679
0003e0 17 6a 1d bf 86 51 c8 bd 06 9d e7 3f 72 36 98 3e
       -0.61490005 -0.09781174 1.8094795 0.29729038
0003f0 94 e5 c5 3d 80 95 14 bf 10 ea ed bd 3b ff 50 3d
       0.09662929 -0.5804062 -0.116169095 0.051024657

backbone.4.bias f4 [4]
000000 51 99 68 3f f2 58 f2 bd f8 c9 18 3f c0 e8 38 3f
       0.9085894 -0.11833371 0.5968318 0.7223015
