models/dqn_state_model150000.pt (torch, 21911 bytes, 6 tensors)

backbone.0.weight f4 [64, 8]
0.89615345 0.43042913 -0.03236415 1.0601697 0.30716565 1.1640617 -0.80864954 -1.2199402
1.4291719 0.024937555 0.7048683 -0.30850118 -0.4541317 -0.15056454 -0.41081512 -0.18847191
0.80231047 0.054230653 -0.05813396 -0.7248444 -0.5237426 -1.5688776 -1.07045 0.15401028
-0.2724429 0.15833753 -1.2975124 -0.81710804 0.5629323 -0.0501513 0.042693004 -0.34409857
0.73870003 -0.28269303 0.09769418 -0.34825015 -1.3635192 0.15569894 -0.6988323 -0.45454994
0.5364022 -0.63967174 -0.2202316 0.07659237 0.6110449 -0.23083183 0.23426703 0.2949758
0.5591916 -0.383135 -0.60490113 -0.6058158 0.2620862 -0.37456623 0.37478143 0.42344713
0.70711493 -1.3647708 1.7748035 -0.5897089 -0.92990226 -0.03226025 0.20231186 0.15240078
-0.36603755 -1.9373386 0.25326467 -1.1360233 -1.1476111 -0.55278295 0.4045331 0.32182506
0.91760176 -0.62110066 0.73188627 -1.2381529 -0.9160893 0.34358358 -0.15170549 0.4609342
-1.845412 0.17703682 -0.23505746 -0.35503766 0.873615 0.020009309 -0.13416609 -0.01203368
-0.5282311 0.28783855 -0.21453616 0.11692339 0.33460116 0.05573047 -0.415366 -0.27093112
0.12005634 0.00234256 -1.4916434 -2.2035253 -0.8240854 0.09550035 0.24213059 -0.18435428
0.74201 -0.52341795 -0.48866296 -1.1138178 0.3298211 -1.4740919 0.0067502754 -0.30806288
-0.23786902 0.13311496 -1.97873 -0.44699168 0.26689485 -0.3742967 -0.4783083 -0.15711959
0.5624755 0.9663893 0.043097347 -0.10763955 -0.2961432 -1.1448791 -0.8330459 -1.2723354
1.0243878 0.9197717 0.028030513 0.8969449 0.25535312 0.20634647 -0.10642748 -0.41648445
-0.64416575 -2.06 0.6253677 -1.3804353 -0.40915635 0.24763376 0.3312024 0.030793821
0.43089053 -0.15251508 0.25000829 0.49779278 0.863093 -0.3365032 -0.870316 -0.42966944
-2.3246324 -0.43888706 0.05858029 -1.2037464 0.6432137 0.115553826 -0.09097186 -0.08261311
0.2317278 -0.103477634 1.3418124 -1.6884798 1.2268015 0.167163 -0.05867006 0.689019
0.4872025 -0.08590387 -1.1984538 1.433102 1.1927372 -0.8792689 -0.21766162 -0.9826841
-0.47196165 0.13426456 0.28087336 -0.15980582 -0.03366635 -0.011963138 0.05986563 -0.04333634
0.034058686 0.25298712 0.07235846 0.35800397 -0.2166418 -0.0074866773 -0.020817388 -0.042870868
0.51476294 -0.08044762 2.5102901 -0.0003022625 -0.35632062 -0.24766986 0.59452003 0.04453648
-0.1595714 0.21628575 0.5619342 -2.0770633 0.91775036 -0.072772086 -0.22116669 -1.086157
0.24777919 0.49718785 0.7106192 0.7769856 -1.3228618 -1.7610304 -1.2932626 -0.2557394
0.578265 -0.5111584 0.9065088 -1.0229263 -1.057043 -0.88755876 -0.18492082 0.0040288237
0.16153242 1.3943939 -0.04587162 2.2097156 0.32969728 -1.4445592 -0.13913406 0.55219525
0.12370637 0.84295946 -0.19342054 1.165312 0.9166325 -1.4925607 -0.36191943 -1.4781406
0.5569407 -0.7754961 0.29843825 -0.5974985 -1.2190069 -0.80114055 -0.38638434 -0.51400214
0.9368042 0.64477944 0.5070386 -0.41502264 0.58532304 -0.33693483 0.034606896 -0.073456
00000000: 506a 653f 3561 dc3e 4590 04bd a4b3 873f
00000010: d144 9d3e f9ff 943f a803 4fbf 0027 9cbf
00000020: 1bef b63f d849 cc3c 4072 343f def3 9dbe
00000030: f383 e8be 972d 1abe 5c56 d2be c8fe 40be
00000040: 3864 4d3f f620 5e3d e01d 6ebd 678f 39bf
00000050: ff13 06bf fbd0 c8bf 8104 89bf dfb4 1d3e
00000060: a37d 8bbe 3c23 223e e314 a6bf fe2d 51bf
00000070: 551c 103f 736b 4dbd dcde 2e3d b02d b0be
00000080: 721b 3d3f 24bd 90be e313 c83d d84d b2be
00000090: cc87 aebf 8b6f 1f3e ace6 32bf c5ba e8be
000000a0: a851 093f 87c1 23bf 6484 61be 76dc 9c3d
000000b0: 706d 1c3f 2e5f 6cbe b2e3 6f3e 1107 973e
000000c0: 2e27 0f3f 452a c4be cdda 1abf bf16 1bbf
000000d0: 2a30 863e 25c7 bfbe 5ae3 bf3e 10ce d83e
000000e0: 7c05 353f cfb0 aebf c32c e33f 2af7 16bf
000000f0: 130e 6ebf 5323 04bd d72a 4f3e f30e 1c3e
00000100: 4669 bbbe b6fa f7bf e8ab 813e 3669 91bf
00000110: ece4 92bf 2f83 0dbf f61e cf3e 41c6 a43e
00000120: f3e7 6a3f 7400 1fbf e65c 3b3f cb7b 9ebf
00000130: d484 6abf 30ea af3e af58 1bbe 91ff eb3e
00000140: 7636 ecbf 2449 353e e7b2 70be 7fc7 b5be
00000150: 3ca5 5f3f 90ea a33c d662 09be ea28 45bc
00000160: 273a 07bf 935f 933e 5eaf 5bbe 8875 ef3d
00000170: d850 ab3e a245 643d daaa d4be 7cb7 8abe
00000180: 19e0 f53d a385 193b 2cee bebf 8f06 0dc0
00000190: 43f7 52bf b095 c33d 15f1 773e 5ec7 3cbe
000001a0: 5ef4 3d3f b8fe 05bf 0832 fabe 9591 8ebf
000001b0: 50de a83e 0baf bcbf 6a31 dd3b 6bba 9dbe
000001c0: f093 73be 4a4f 083e 0647 fdbf 18dc e4be
000001d0: 71a6 883e d1a3 bfbe d3e4 f4be f5e3 20be
000001e0: 65fe 0f3f 4a65 773f d886 303d 2072 dcbd
000001f0: 15a0 97be 668b 92bf 7f42 55bf e3db a2bf
00000200: 241f 833f 2876 6b3f 3fa0 e53c 2e9e 653f
00000210: a5bd 823e 7d4c 533e a7f6 d9bd 733d d5be
00000220: 0ce8 24bf 0ad7 03c0 1918 203f 1bb2 b0bf
00000230: f17c d1be b493 7d3e 5c93 a93e 5343 fc3c
00000240: af9d dc3e ea2c 1cbe 1601 803e b2de fe3e
00000250: aaf3 5c3f 264a acbe 08cd 5ebf a2fd dbbe
00000260: c7c6 14c0 ceb5 e0be e3f1 6f3d 5d14 9abf
00000270: a7a9 243f 7ca7 ec3d 744f babd 1031 a9bd
00000280: 0d4a 6d3e 15ec d3bd 82c0 ab3f 1b20 d8bf
00000290: d507 9d3f c72c 2b3e 0450 70bd 8d63 303f
000002a0: 9b72 f93e 5eee afbd ef66 99bf e36f b73f
000002b0: 9dab 983f c417 61bf b0e2 5ebe 2f91 7bbf
000002c0: f5a4 f1be a67c 093e a2ce 8f3e 23a4 23be
000002d0: bae5 09bd 0a01 44bc aa35 753d 7281 31bd
000002e0: 1f81 0b3d 8787 813e ac30 943d 4c4c b73e
000002f0: 59d7 5dbe cd52 f5bb 3a89 aabc 5d99 2fbd
00000300: 81c7 033f b9c1 a4bd 98a8 2040 fc78 9eb9
00000310: a86f b6be 2b9d 7dbe 7732 183f e26b 363d
00000320: af66 23be 037a 5d3e ebda 0f3f 9bee 04c0
00000330: b0f1 6a3f 8809 95bd 8579 62be 3107 8bbf
00000340: d4b9 7d3e 688f fe3e 24eb 353f 87e8 463f
00000350: 8953 a9bf 7269 e1bf a189 a5bf 46f0 82be
00000360: 2d09 143f 47db 02bf f610 683f 40ef 82bf
00000370: 2f4d 87bf 0d37 63bf e25b 3dbe 3904 843b
00000380: c168 253e 807b b23f e1e3 3bbd fb6b 0d40
00000390: 15ce a83e 51e7 b8bf 2979 0ebe ab5c 0d3f
000003a0: c459 fd3d 31cc 573f 0910 46be f228 953f
000003b0: 6da8 6a3f 3b0c bfbf 814d b9be b633 bdbf
000003c0: aa93 0e3f ea86 46bf e6cc 983e a9f5 18bf
000003d0: 6b08 9cbf 8c17 4dbf 2bd4 c5be a595 03bf
000003e0: 66d2 6f3f 4410 253f 48cd 013f d97d d4be
000003f0: bbd7 153f b982 acbe f6bf 0d3d 1970 96bd

backbone.0.bias f4 [64]
0.43484205 -0.101218574 -0.65262127 0.29284155 0.45180672 -0.268531 0.7333849 -0.3807227
-0.28320414 1.0676146 0.027859857 0.853283 0.009046792 -0.15382394 0.55698884 0.852693
0.2450703 1.1878217 0.30451792 -0.19063953 0.23808186 0.8520136 0.78411853 0.66280764
-0.15597515 -0.010398109 0.08292819 1.0302134 0.46605057 0.43867138 -0.49651173 0.32635188
0.49704 0.50770193 0.6384769 0.0008329054 1.336788 0.2350556 -0.5758529 -0.050330807
1.2311544 1.0927546 -0.008449156 0.12966615 0.57635474 0.7182498 0.3290992 0.84694904
0.61761093 0.8570044 0.68802804 -0.7281445 -0.75742364 -0.043405034 0.22099039 0.050756093
-0.25989023 -0.55923074 -0.40764007 -1.301799 0.27096608 0.88948244 0.61983436 -0.06445232
00000000: 9ea3 de3e af4b cfbd 3012 27bf 54ef 953e
00000010: 3653 e73e e57c 89be 1dbf 3b3f 16ee c2be
00000020: 2200 91be 98a7 883f 5b3a e43c c170 5a3f
00000030: ff38 143c 0684 1dbe d296 0e3f 174a 5a3f
00000040: b5f3 7a3e 8b0a 983f c6e9 9b3e 0237 43be
00000050: bbcb 733e 901d 5a3f febb 483f c3ad 293f
00000060: f3b7 1fbe d55c 2abc 41d6 a93d 08de 833f
00000070: 2e9e ee3e 8999 e03e c936 febe 9817 a73e
00000080: 077c fe3e c1f8 013f 3973 233f 5657 5a3a
00000090: df1b ab3f 6ab2 703e 186b 13bf ad27 4ebd
000000a0: 7896 9d3f 62df 8b3f 546e 0abc 34c7 043e
000000b0: fc8b 133f 38df 373f b17f a83e a7d1 583f
000000c0: c01b 1e3f a464 5b3f 9b22 303f ae67 3abf
000000d0: 84e6 41bf 7ac9 31bd 4e4b 623e 9fe5 4f3d
000000e0: 5510 85be bf29 0fbf 33b6 d0be 5aa1 a6bf
000000f0: 11bc 8a3e 1fb5 633f 77ad 1e3f 94ff 83bd

backbone.2.weight f4 [64, 64]
-0.036359847 0.040990077 -0.091388755 -0.07298852 0.0623635 -0.10891271 0.0013998946 0.06527583
-0.023908477 0.01491191 -0.11402522 -0.016187077 -0.039807852 0.016794816 0.034683827 0.060257874
-0.12426506 -0.038078453 -0.062454537 -0.13923176 -0.05160494 -0.12391378 0.04111799 -0.028136589
-0.09052562 0.036563206 -0.14773841 -0.090752736 -0.052585263 -0.13523628 -0.12219653 -0.03428677
0.054697406 0.10400239 0.036264546 -0.11673779 -0.13003168 0.09520231 0.030330287 -0.023683935
-0.011860403 -0.14934282 -0.05561968 0.074091196 -0.030829027 -0.006270513 -0.13202347 -0.11679499
-0.016436841 -0.12451979 -0.06604512 0.050869897 -0.13615653 -0.0047181263 -0.08265102 -0.061006382
0.005329859 0.057878163 -0.03416358 -0.051321134 -0.15506762 -0.092430726 -0.15722883 -0.042493206
0.13307782 0.21681589 0.61513263 0.19906932 -0.14793153 -0.1524765 -0.6867338 -0.056599233
-0.0024517819 0.115678385 0.45054004 -0.18373036 -1.1507802 -0.12523082 -0.13166174 0.59624124
-0.278636 -1.2486292 -0.35038403 0.5728259 0.44492275 -0.42548814 0.0078855315 0.30447704
-0.315358 -1.4229765 0.5138486 0.49993122 -0.08282861 -0.2965403 0.14680293 0.4198044
-0.8815318 0.5911053 0.52039015 -1.867804 0.34667772 -0.034838878 -0.55911386 -0.4978496
0.26731107 0.25429565 -1.8001847 0.5002452 -0.48635527 0.14208777 0.7086955 0.20680036
-0.11024946 0.48391137 0.1664104 -0.16194792 -0.50664526 0.5303295 0.116903394 0.016261704
0.82695025 0.64181906 -0.72542745 0.6301353 -0.6147491 -0.035041377 0.4312454 -0.6202937
-0.1956738 -0.3960184 0.48179626 -0.5794405 0.27820793 -0.116135806 -0.10982752 1.2995244
1.082059 -0.30010194 -0.3673704 -0.27238536 0.08735674 0.43261325 0.054163676 -0.719329
0.23801726 -0.1485645 0.73195994 -0.36768273 0.011667737 -0.21042725 0.20114344 0.19957063
0.3914419 -1.1927439 1.6151887 0.6210561 -2.8270643 -1.4633203 1.3293124 0.31020766
-0.015168518 0.21612804 0.8822015 -0.109001026 -1.2852575 -0.48701102 -0.04816226 0.4764358
-0.6579881 -0.7574337 0.72038794 0.8905894 -0.05556087 1.1555195 -1.6032772 0.27214026
-0.14182806 0.21102941 -1.8281432 -0.9005977 -0.38243848 -0.0043909033 -0.19579698 0.38845164
0.7399933 1.4246511 -0.49896592 0.18521841 0.34774184 0.34807432 0.25378147 0.079001054
-0.34247825 0.66293955 1.3644335 0.2651586 0.029876722 0.27549163 0.4588322 0.9784902
0.74363667 0.14169373 0.031465087 -0.51867425 0.45527545 0.43585375 0.5917729 -0.6680016
0.13250536 -0.63405865 0.6469391 0.62110347 -0.0017429913 0.4365879 -0.06660436 0.2754026
0.6614009 -1.3160378 2.4870071 0.6110011 -1.978313 -0.89495486 0.9089887 0.44771245
-0.22617699 0.47954392 0.7314585 0.2358882 -1.1185485 0.0849973 0.16977231 -0.6141814
-0.28384566 -0.37014836 0.4024799 0.87326974 0.5121056 0.23493393 -0.84520864 0.31553996
0.8592932 0.5489513 -1.6425415 -0.08349571 0.85968894 0.53018206 -0.3493781 0.4601583
1.09245 1.2327574 0.07932189 0.8516872 0.58317053 0.26467642 0.572783 0.39477083
00000000: 10ee 14bd 36e5 273d 072a bbbd 017b 95bd
00000010: df70 7f3d a00d dfbd ab7c b73a 56af 853d
00000020: b6db c3bc 1551 743c 0e86 e9bd c39a 84bc
00000030: 8f0d 23bd 4895 893c a110 0e3d f6d0 763d
00000040: ae7e febd 27f8 1bbd 54d0 7fbd c592 0ebe
00000050: b45f 53bd 82c6 fdbd 566b 283d b47e e6bc
00000060: 7f65 b9bd 4dc3 153d bd48 17be 92dc b9bd
00000070: a563 57bd 617b 0abe 2d42 fabd 4970 0cbd
00000080: 630a 603d 34ff d43d 228a 143d 3914 efbd
00000090: 0627 05be 6ef9 c23d 3977 f83c d004 c2bc
000000a0: 2352 42bc 53ed 18be 76d1 63bd 20bd 973d
000000b0: 288d fcbc e078 cdbb 2931 07be 3632 efbd
000000c0: 8ea6 86bc 3b04 ffbd aa42 87bd f45c 503d
000000d0: 9e6c 0bbe 839a 9abb f044 a9bd d4e1 79bd
000000e0: 19a6 ae3b a711 6d3d 1cef 0bbd 1c36 52bd
000000f0: 0cca 1ebe 524c bdbd 9800 21be 5b0d 2ebd
00000100: 8d45 083e fc04 5e3e 5579 1d3f d4d8 4b3e
00000110: 5d7b 17be cd22 1cbe c9cd 2fbf 99d4 67bd
00000120: 13ae 20bb cae8 ec3d 2fad e63e d023 3cbe
00000130: c44c 93bf 823c 00be 56d2 06be 44a3 183f
00000140: 61a9 8ebe 15d3 9fbf 8965 b3be b8a4 123f
00000150: eacc e33e 95d9 d9be 5132 013c 6ae4 9b3e
00000160: 9b76 a1be 1824 b6bf 958b 033f fcf6 ff3e
00000170: 0ca2 a9bd 21d4 97be 8253 163e 9af0 d63e
00000180: 11ac 61bf ad52 173f 4a38 053f 3414 efbf
00000190: be7f b13e 36b3 0ebd 1622 0fbf 25e6 febe
000001a0: ffdc 883e 0a33 823e 746c e6bf 1210 003f
000001b0: 8f03 f9be 757f 113e 116d 353f 79c3 533e
000001c0: 78ca e1bd 3bc3 f73e 7d67 2a3e add5 25be
000001d0: 81b3 01bf adc3 073f 0c6b ef3d 4437 853c
000001e0: 03b3 533f 414e 243f 9db5 39bf 8c50 213f
000001f0: 3260 1dbf 8c87 0fbd 32cc dc3e 91cb 1ebf
00000200: b65e 48be ecc2 cabe 00ae f63e 3656 14bf
00000210: 4571 8e3e 9cd8 edbd 40ed e0bd d156 a63f
00000220: e980 8a3f f6a6 99be f917 bcbe 1876 8bbe
00000230: 17e8 b23d 7c7f dd3e bbda 5d3d f225 38bf
00000240: ccba 733e 4b21 18be ba61 3b3f e940 bcbe
00000250: 092a 3f3c 3e7a 57be 8cf8 4d3e 3e5c 4c3e
00000260: 136b c83e d5ab 98bf 81be ce3f 88fd 1e3f
00000270: 9fee 34c0 144e bbbf e926 aa3f 8ad3 9e3e
00000280: 6085 78bc ab50 5d3e f5d7 613f ee3b dfbd
00000290: 5183 a4bf 8259 f9be ca45 45bd 65ef f33e
000002a0: e871 28bf 2de7 41bf 586b 383f abfd 633f
000002b0: cb93 63bd 10e8 933f 3038 cdbf f855 8b3e
000002c0: 603b 11be 1818 583e 9900 eabf 928d 66bf
000002d0: face c3be 91e1 8fbb 017f 48be 22e3 c63e
000002e0: 3370 3d3f f85a b63f 7678 ffbe e5a9 3d3e
000002f0: 380b b23e cc36 b23e a5ef 813e 4ecb a13d
00000300: 4f59 afbe 68b6 293f c2a5 ae3f dec2 873e
00000310: 07c0 f43c 3d0d 8d3e 0eec ea3e 557e 7a3f
00000320: f95e 3e3f 2918 113e 89e1 003d d6c7 04bf
00000330: dd19 e93e 3928 df3e 6e7e 173f 2702 2bbf
00000340: 7caf 073e ab51 22bf cd9d 253f a300 1f3f
00000350: 1575 e4ba 7388 df3e de67 88bd 9201 8d3e
00000360: 9251 293f ed73 a8bf 202b 1f40 916a 1c3f
00000370: 5c39 fdbf c31b 65bf 7cb3 683f 913a e53e
00000380: f19a 67be c886 f53e dd40 3b3f ad8c 713e
00000390: 992c 8fbf 1013 ae3d cbd8 2d3e fe3a 1dbf
000003a0: 3854 91be 1684 bdbe d811 ce3e 9b8e 5f3f
000003b0: 5a19 033f 8592 703e 985f 58bf 748e a13e
000003c0: a4fa 5b3f 1388 0c3f cd3e d2bf ccff aabd
000003d0: 9314 5c3f 03ba 073f b0e1 b2be de99 eb3e
000003e0: 67d5 8b3f ffca 9d3f 8473 a23d 2c08 5a3f
000003f0: aa4a 153f ab83 873e e8a1 123f 671f ca3e

backbone.2.bias f4 [64]
0.026492173 -0.24107097 0.32047373 0.08546481 0.26204073 0.51480114 -0.14335278 1.2183264
-0.09709325 -0.20358825 -0.484514 0.21276899 0.39900696 -0.16188228 0.5167743 0.8498723
-0.12549552 0.11398759 0.39513934 0.20124187 0.15392047 -0.24517888 0.5685407 0.15158834
0.17947695 0.45501888 -0.00657186 0.039466143 1.1125973 0.100501105 0.54574573 0.17453755
0.055122904 -0.048213486 -0.00837556 0.10186407 0.080722004 0.23424341 0.33745986 -0.069400825
-0.18464318 0.06074792 0.44313377 -0.13907784 -0.10819729 -0.3069609 0.05318108 1.5445898
-0.050089095 0.04952831 0.106436394 -0.05963557 0.16407043 0.050172415 -0.37081227 -0.016205695
0.23566025 0.37118775 0.33746737 0.07584097 -0.034554627 0.4457199 -0.18821137 0.5424456
00000000: 1d06 d93c 4fdb 76be 2215 a43e 2d08 af3d
00000010: 342a 863e 02ca 033f 12cb 12be 1ff2 9b3f
00000020: d3d8 c6bd 7079 50be 3812 f8be 1de0 593e
00000030: a44a cc3e 78c4 25be 524b 043f 3b91 593f
00000040: e681 00be 5372 e93d b44f ca3e 5912 4e3e
00000050: 549d 1d3e 2c10 7bbe e28b 113f f939 1b3e
00000060: cec8 373e 3cf8 e83e c258 d7bb 40a7 213d
00000070: 9769 8e3f 86d3 cd3d feb5 0b3f f9b9 323e
00000080: 8ec8 613d 817b 45bd a539 09bc 1c9e d03d
00000090: 9451 a53d 81dd 6f3e 8ac7 ac3e 0522 8ebd
000000a0: 1a13 3dbe d0d2 783d 6ee2 e23e 6c6a 0ebe
000000b0: 8a96 ddbd fb29 9dbe 67d4 593d 1eb5 c53f
000000c0: 392a 4dbd 32de 4a3d 53fb d93d 6d44 74bd
000000d0: 1402 283e 9781 4d3d 1bdb bdbe cec1 84bc
000000e0: ec50 713e 520c be3e 86c8 ac3e 8352 9b3d
000000f0: 2789 0dbd 6635 e43e 7bba 40be b7dd 0a3f

backbone.4.weight f4 [4, 64]
0.08771083 -0.8753296 -0.51450336 -0.59306985 -0.67035294 1.3527242 0.036187243 1.8568716
-0.055459186 -1.1595845 -0.5438055 -0.8648237 -0.18336906 0.009106107 -0.51733536 -1.3074474
-0.020936191 -0.35959718 -0.56382227 0.24169199 -0.48300308 -0.91924655 1.4319361 1.2709208
-0.43580127 -0.78124475 -0.45088315 -0.55073315 0.021183351 -1.6970588 2.347916 -0.84057474
0.032476053 -0.46844298 -0.13849509 -0.4691893 -0.6136269 -0.58770645 -0.58831185 -1.5648266
0.056177836 -0.36427912 0.7168105 -0.8016948 0.2292238 -0.6223757 -0.25284114 1.754127
-0.43718225 -0.2419623 -0.532018 -0.021719936 2.2602086 -0.12265233 -0.5344838 -0.06637049
-0.6048347 -0.58440965 1.4240234 -0.033707198 -0.042367056 -0.79688567 -0.113251284 1.277625
-0.10454802 -0.5984875 -0.50672203 -0.36471814 -0.94267786 1.2398174 0.04611351 2.2371604
-0.08196272 -0.37808806 -0.3828998 -0.533746 -0.59385216 0.015405153 -0.25749096 -1.0489722
0.10930173 -0.37096742 -0.58270496 0.6434709 -0.48391193 -0.6172887 1.226816 1.2818393
-0.2843729 -1.0393407 -0.5392 -0.46896425 -0.57690257 -1.6721382 2.4991593 -0.6420758
-0.01392671 -0.5507981 0.09665778 -0.38941523 -0.41515407 -0.50769395 -0.6222711 -1.7397346
0.049137007 -0.4852026 0.6892233 -0.65070254 -0.6543053 -0.7456054 -0.49919784 1.5799936
-0.47850034 -0.5634726 -0.9510789 0.08372089 2.070823 0.039194323 -0.45275828 0.06022668
-0.39285094 -0.5439847 1.6738175 0.034581006 -0.004890701 -0.6837719 0.0042188587 1.0778013
0.056536213 -0.7219723 -0.41773954 -0.40692464 -1.2379402 1.7989984 0.034700423 1.9467833
0.021881107 -0.27980477 -0.94433683 0.36013353 0.41804367 0.056461696 -0.7534594 -1.2177016
0.041614093 -0.5401503 -0.47589347 -0.64568615 -0.64636636 -0.4801137 0.18002906 0.37822258
-0.49118394 -1.1745176 -0.66516155 -0.56608295 -0.39433208 -1.1350976 2.2235043 -0.77207524
0.059284214 -0.42693022 0.008312364 -0.5161379 -0.48435757 -0.7864229 -0.35051218 -1.0253954
0.086226866 -0.5677526 1.2113274 -0.27232128 -0.23912351 -0.3754863 -0.81205344 1.620555
-0.42406395 -0.66918993 -0.2974709 -0.116213165 2.923129 -0.116549164 0.012382028 -0.08561988
-0.34490293 -0.63264424 0.8357284 0.06443771 0.022981271 -0.18050006 0.059990115 1.5103228
0.083393104 -1.11309 0.09989384 -0.70902145 -0.61903375 1.715554 -0.12535088 1.5504174
0.019848526 -0.7050633 -0.8243296 -0.55715406 -0.12038563 -0.03650125 -0.22327705 0.16135196
0.08009511 -0.5355964 -0.246489 -0.40773788 -0.5343199 -1.0739299 1.0058348 2.030446
-0.5641967 -1.063258 -0.4311359 -0.43216014 0.54807365 -1.6824946 2.1185424 -1.0766816
0.024124429 -0.53884596 -0.059946556 -0.25417063 -1.4647689 -0.9831097 -1.1626045 -1.5412868
-0.023313893 -0.37562153 0.1758787 0.9084579 0.0369892 -0.044424053 -0.8996742 2.3805227
-0.28361014 -0.18648101 -0.9140996 0.06224086 1.8043516 0.033992227 -0.78949827 -0.11769745
-0.53189516 -0.20868064 1.7400678 -0.1103878 0.09662929 -0.6056622 -0.08441646 1.3285474
00000000: bca1 b33d 9a15 60bf 7eb6 03bf 6dd3 17bf
00000010: 409c 2bbf 1126 ad3f 1339 143d f8ad ed3f
00000020: 2c29 63bd 446d 94bf d636 0bbf 1665 5dbf
00000030: 19c5 3bbe c831 153c 1770 04bf 705a a7bf
00000040: 6082 abbc 1f1d b8be a856 10bf 1b7e 773e
00000050: 2e4c f7be be53 6bbf af49 b73f 88ad a23f
00000060: 5821 dfbe a8ff 47bf 28da e6be d9fc 0cbf
00000070: b588 ad3c 3939 d9bf 4144 1640 e82f 57bf
00000080: 9c05 053d c2d7 efbe a8d1 0dbe 9439 f0be
00000090: a716 1dbf ee73 16bf 9b9b 16bf 3d4c c8bf
000000a0: bb1a 663d cb82 babe e580 373f df3b 4dbf
000000b0: a5b9 6a3e 0454 1fbf 6574 81be 3c87 e03f
000000c0: 5ad6 dfbe f7c4 77be 5532 08bf 02ee b1bc
000000d0: 42a7 1040 2531 fbbd eed3 08bf 40ed 87bd
000000e0: 72d6 1abf df9b 15bf 6646 b63f 8f10 0abd
000000f0: 1489 2dbd b300 4cbf 4af0 e7bd 3789 a33f
00000100: 461d d6bd 7a36 19bf 89b8 01bf 56bc babe
00000110: 5653 71bf 56b2 9e3f 85e1 3c3d a32d 0f40
00000120: 12dc a7bd c294 c1be 710b c4be 94a3 08bf
00000130: b206 18bf e565 7c3c dbd5 83be b944 86bf
00000140: 96d9 df3d 71ef bdbe 272c 15bf 82ba 243f
00000150: 4ec3 f7be a206 1ebf 4f08 9d3f 4f13 a43f
00000160: 5399 91be 1e09 85bf 0309 0abf 151c f0be
00000170: e3af 13bf a008 d6bf 3af2 1f40 145f 24bf
00000180: db2c 64bc 1b01 0dbf 84f4 c53d 6f61 c7be
00000190: 138f d4be 3bf8 01bf 294d 1fbf a0af debf
000001a0: e343 493d 7a6c f8be f070 303f 7194 26bf
000001b0: 8d80 27bf ffdf 3ebf dc96 ffbe 3b3d ca3f
000001c0: fffd f4be be3f 10bf e879 73bf dc75 ab3d
000001d0: 5d88 0440 3a8a 203d efcf e7be 40b0 763d
000001e0: c223 c9be 9542 0bbf a73f d63f d0a4 0d3d
000001f0: 2c42 a0bb ad0b 2fbf 5a3e 8a3b 65f5 893f
00000200: 8492 673d 2dd3 38bf f5e1 d5be 6d58 d0be
00000210: d374 9ebf 9445 e63f 0822 0e3d 3230 f93f
00000220: 0240 b33c 9242 8fbe 0fc0 71bf 6c63 b83e
00000230: d209 d63e 6144 673d b7e2 40bf a5dd 9bbf
00000240: 8a73 2a3d 4a47 0abf 4fa8 f3be b04b 25bf
00000250: 4478 25bf 76d1 f5be 8a59 383e 64a6 c13e
00000260: 767c fbbe 9856 96bf 0748 2abf d0ea 10bf
00000270: e5e5 c9be e14a 91bf e54d 0e40 b9a6 45bf
00000280: 01d4 723d 9996 dabe 9530 083c 9d21 04bf
00000290: b7fd f7be 0353 49bf 5576 b3be 2840 83bf
000002a0: b697 b03d 3c58 11bf c70c 9b3f b26d 8bbe
000002b0: cbdc 74be be3f c0be bce2 4fbf 596e cf3f
000002c0: e91e d9be 0850 2bbf 1b4e 98be 2b01 eebd
000002d0: 8c14 3b40 54b1 eebd fddd 4a3c 7a59 afbd
000002e0: 1e97 b0be f9f4 21bf 4cf2 553f ebf7 833d
000002f0: 3843 bc3c 02d5 38be 32b8 753d 4252 c13f
00000300: 01ca aa3d bc79 8ebf 2495 cc3d 6e82 35bf
00000310: ff78 1ebf 4697 db3f fb5b 00be 1474 c63f
00000320: 6099 a23c 077f 34bf 4407 53bf a6a1 0ebf
00000330: be8c f6bd 5682 15bd bda2 64be 7339 253e
00000340: e808 a43d d81c 09bf 9d67 7cbe 05c3 d0be
00000350: 30c9 08bf 8976 89bf 32bf 803f d4f2 0140
00000360: 326f 10bf d718 88bf d8bd dcbe 1844 ddbe
00000370: 8e4e 0c3f fc5b d7bf 3396 0740 b4d0 89bf
00000380: 98a0 c53c cff1 09bf 858a 75bd a722 82be
00000390: 8c7d bbbf 14ad 7bbf 39d0 94bf e348 c5bf
000003a0: c7fc bebc 7751 c0be 8c19 343e b290 683f
000003b0: fd81 173d fff5 35bd 0c51 66bf 7c5a 1840
000003c0: 5935 91be e1f4 3ebe 6e02 6abf 46f0 7e3d
000003d0: fef4 e63f 6f3b 0b3d 8f1c 4abf 5c0b f1bd
000003e0: 482a 08bf 61b0 55be 8bba de3f 0013 e2bd
000003f0: 94e5 c53d ae0c 1bbf 89e2 acbd d70d aa3f

backbone.4.bias f4 [4]
1.1062294 -0.6669827 0.357764 1.3652234
00000000: ed98 8d3f 61bf 2abf d82c b73e a4bf ae3f
