models/dqn_state_model50000.pt (torch, 21911 bytes, 6 tensors)

backbone.0.weight f4 [64, 8]
0	0x3f3d2c20	0.73895454
1	0x3f0b7deb	0.5448901
2	0xbf5d650f	-0.8648233
3	0x3f757965	0.9588836
4	0x3f017e14	0.50583005
5	0x3ee8054a	0.45316535
6	0xbf51d33a	-0.8196293
7	0xbd49674e	-0.049170785
8	0x3f9c248b	1.2198652
9	0x3e3597cf	0.17733692
10	0x3e8c4656	0.27397412
11	0xbe6e3d23	-0.2326551
12	0xbe1be40c	-0.15223712
13	0xbb5a6da0	-0.0033329502
14	0xbe93b792	-0.2885099
15	0xbef0da92	-0.47041756
16	0x3f92647e	1.1436918
17	0xbd0c9dbf	-0.034330126
18	0xbe598dcf	-0.21245502
19	0xbe891667	-0.26774904
20	0xbeb2cc3c	-0.34921443
21	0xbf96b665	-1.1774412
22	0xbeac71eb	-0.33680663
23	0x3ef95cdb	0.48703656
24	0xbe81a817	-0.25323555
25	0x3e322b1b	0.17399256
26	0xbf1017a4	-0.5628607
27	0xbf186270	-0.59525204
28	0x3e549b17	0.20762287
29	0xbd0fdb79	-0.035121415
30	0x3d6ba8a3	0.05753387
31	0xbec0e868	-0.37677312
32	0x3f47b26a	0.78006613
33	0xbec6bc0a	-0.38815337
34	0x3df58ffc	0.119903535
35	0xbbe57162	-0.0070020417
36	0xbf3e7303	-0.74394244
37	0x3f5a9710	0.85386753
38	0xbee81524	-0.4532863
39	0xbf20b493	-0.62775534
40	0x3cd6fab9	0.0262426
41	0xbd9e3731	-0.07725371
42	0x3dfaef80	0.12252712
43	0x3ea893aa	0.3292516
44	0x3e9427f1	0.28936723
45	0xbe109af7	-0.14121614
46	0x3e235187	0.15949069
47	0x3c98d5e9	0.018656688
48	0x3e0c9da1	0.13732006
49	0xbe63f685	-0.22262008
50	0xbf81f48f	-1.0152758
51	0xbf01f778	-0.5076823
52	0x3cb6f5cf	0.022334008
53	0xbd26fe77	-0.04077002
54	0x3eea7970	0.45795774
55	0x3f05135a	0.51982653
56	0xbe5a0611	-0.21291377
57	0xbfc4be5c	-1.5370593
58	0x3f6f6aad	0.9352215
59	0xbf571265	-0.8401244
60	0xbe45834d	-0.19288369
61	0xbeb31072	-0.34973484
62	0x3ec56d9a	0.38560182
63	0x3d91427a	0.070927575
64	0xbd65e7fd	-0.056129444
65	0xbfa929df	-1.3215903
66	0x3f3f90fd	0.7483061
67	0xbf4af97d	-0.7928694
68	0xbeffc893	-0.49957713
69	0xbd55db88	-0.052211314
70	0x3ead5fa4	0.3386203
71	0x3edbdc10	0.42941332
72	0x3f8ec7c8	1.1154718
73	0xbf4d85b9	-0.8028217
74	0x3f251eac	0.64499927
75	0xbf3fbd2b	-0.7489802
76	0xbfaee501	-1.3663636
77	0x3d80c970	0.06288421
78	0x3d99c4a1	0.07508207
79	0x3e904295	0.28175798
80	0xbf028191	-0.5097895
81	0x3ae50344	0.0017472287
82	0xbbfeac16	-0.007771979
83	0xbd2ee766	-0.042701147
84	0x3eacf06e	0.33777183
85	0x3eaf7d66	0.3427536
86	0xbc980eb7	-0.018561704
87	0xbe06dec6	-0.13170919
88	0xbf02c5d9	-0.5108314
89	0x3ee71d4d	0.45139542
90	0xbeb060fa	-0.34448987
91	0x3def6ebd	0.116910435
92	0x3f2f16a3	0.68393916
93	0x3ec8b9d6	0.39204282
94	0xbf21a28c	-0.6313865
95	0xbe5d58a7	-0.2161585
96	0xbf181b57	-0.5941672
97	0xbe51a6ce	-0.20473787
98	0xbf369c65	-0.7133239
99	0xbfbd97dd	-1.481197
100	0xbfb9cd24	-1.4515729
101	0x3ea07997	0.31342766
102	0xbe8afa47	-0.2714407
103	0xbf4bc9cb	-0.79604787
104	0xbe43cd15	-0.19121201
105	0xbf70a16f	-0.9399633
106	0x3baaf11c	0.0052167308
107	0xbfad24ec	-1.3526893
108	0xbe9d6c77	-0.30746815
109	0xbfb70989	-1.4299785
110	0x3e5d5c03	0.21617131
111	0xbd95f48c	-0.07322034
112	0x3c21ee1d	0.009883431
113	0xbd890cfe	-0.06691931
114	0xbf88e2ae	-1.0694177
115	0xbec4fbef	-0.3847346
116	0x3e366dd5	0.17815335
117	0xbe8c7d27	-0.27439234
118	0xbf1d6b52	-0.6149188
119	0x3dcd7c3b	0.10033461
120	0x3ec2da1f	0.38057038
121	0x3f554031	0.83301073
122	0xbd6cffa2	-0.057860978
123	0xbe10c9b1	-0.14139439
124	0xbf04acf5	-0.5182641
125	0xbf050216	-0.5195631
126	0xbf6cf986	-0.9256824
127	0xbfc8ed65	-1.5697447
128	0x3f0d582d	0.5521267
129	0x3f59f9ef	0.85146993
130	0x3dd27647	0.10276466
131	0x3f35106e	0.70728195
132	0x3d60bf48	0.05486992
133	0x3f1dd771	0.6165686
134	0xbf2c6ab5	-0.6735032
135	0xbf027a8a	-0.5096823
136	0xbea869e2	-0.32893282
137	0xbfd887be	-1.6916425
138	0x3f1d94fb	0.6155545
139	0xbed128d3	-0.4085146
140	0xbebefd96	-0.37302846
141	0x3e932b71	0.2874408
142	0x3ee99a15	0.45625368
143	0x3d2898fd	0.041161526
144	0x3ef9847a	0.48733884
145	0xbcdee001	-0.027206423
146	0x3e919729	0.2843564
147	0x3e1a109d	0.150454
148	0x3e7882c2	0.2426863
149	0xbdd19466	-0.10233383
150	0xbf265ef6	-0.6498865
151	0xbf48632d	-0.7827633
152	0xbf633d24	-0.8876517
153	0xbf90520e	-1.1275041
154	0x3eb7d37d	0.3590354
155	0xbf176dba	-0.59151804
156	0x3ed5285f	0.41632363
157	0x3f3e44f7	0.7432398
158	0x3e739e8c	0.2379095
159	0xbd04f53f	-0.032460447
160	0x3f12d4ee	0.57356155
161	0x3d5c0d49	0.053723607
162	0x3f0953d7	0.53643554
163	0xbf339490	-0.70148563
164	0x3e950a9e	0.29109663
165	0x3d799d5e	0.060941093
166	0x3de348d3	0.110978745
167	0x3f02d1fc	0.5110166
168	0xbc282537	-0.010262779
169	0x3e3e4e1f	0.18584488
170	0xbf3c4843	-0.7354776
171	0x3e7ea45a	0.24867383
172	0x3f1bbe19	0.6083694
173	0xbe9b2a60	-0.30305767
174	0xbf1d61b5	-0.61477214
175	0xbede012e	-0.43360275
176	0xbed9ef79	-0.42565516
177	0x3e6d49b8	0.23172653
178	0x3ea2ee98	0.31822658
179	0xbeab528d	-0.3346142
180	0x3e2383cd	0.15968247
181	0x3edbc1ee	0.42921394
182	0x3e54c872	0.20779589
183	0x3e00188b	0.12509362
184	0x3cde25bc	0.027117603
185	0x3eae0a49	0.33992222
186	0x3e365134	0.17804414
187	0xbd5776cd	-0.05260353
188	0x3ca5b4d2	0.020227823
189	0x3eaec4ef	0.34134623
190	0x3db1d093	0.086823605
191	0x3e24b19d	0.16083379
192	0x3f4c6d1a	0.79853976
193	0x3e25a4fb	0.16176216
194	0x3f1e08a5	0.6173194
195	0xbee7218f	-0.4514279
196	0x3eba616d	0.36402455
197	0x3e8ae19f	0.2712526
198	0x3ee4ed83	0.44712457
199	0x3df51350	0.11966574
200	0xbec1dbfb	-0.37863144
201	0xbdfb446c	-0.1226891
202	0x3f6bf2c1	0.9216729
203	0xbf9ea17e	-1.2393034
204	0x3f679a56	0.9046987
205	0xbf522795	-0.8209165
206	0xbf1f575d	-0.6224268
207	0xbfaab170	-1.33354
208	0x3eefde5e	0.4684934
209	0x3f050421	0.51959425
210	0x3f0f4061	0.5595761
211	0x3f013e4c	0.5048568
212	0xbf82b255	-1.0210673
213	0xbff6ff3a	-1.9296639
214	0xbee9a4f4	-0.45633662
215	0xbe50962e	-0.20369789
216	0x3f824f2e	1.0180414
217	0xbf55d6c7	-0.8353085
218	0x3f7faf28	0.9987664
219	0xbf3a1bed	-0.7269886
220	0xbf3d0c25	-0.73846656
221	0xbe24d34e	-0.16096231
222	0xbeb1983a	-0.34686452
223	0x3d82ccda	0.063867286
224	0xbf332aa7	-0.6998696
225	0x3fad345d	1.3531605
226	0xbf1c7de1	-0.61129576
227	0x3fc52e79	1.5404807
228	0x3f028448	0.50983095
229	0xbf712859	-0.9420219
230	0xbe95fdef	-0.29295298
231	0x3edeb14e	0.43494648
232	0x3ed18925	0.40924945
233	0x3f565508	0.837235
234	0xbe4b2dd5	-0.19841702
235	0x3ea7a006	0.32739276
236	0x3f0b7a44	0.5448344
237	0xbfc27d29	-1.5194446
238	0xbf4ad2ed	-0.792281
239	0xbfeb9fdb	-1.8408159
240	0xbccb7e23	-0.02484042
241	0xbf5b809d	-0.85743123
242	0x3ea54ba3	0.3228427
243	0xbf7811d2	-0.9690219
244	0xbf0d0e1e	-0.55099666
245	0xbf6f911a	-0.9358078
246	0xbd357c96	-0.044308268
247	0x3d79373e	0.0608437
248	0x3e85849b	0.26077732
249	0x3f73771e	0.95103633
250	0xbe0cba3d	-0.1374292
251	0xbf372d23	-0.7155325
252	0x3e4f47ca	0.20242229
253	0xbe56fcbc	-0.20994848
254	0x3d8ad8fd	0.067796685
255	0x3cd4e0e2	0.025986139

backbone.0.bias f4 [64]
0	0xbdbb9f09	-0.09161193
1	0x3e20052b	0.15626971
2	0xbf2d6810	-0.6773691
3	0x3e6fe266	0.23426208
4	0x3edbeee0	0.42955685
5	0xbec2404d	-0.37939683
6	0x3f27154f	0.6526689
7	0xbd95402f	-0.07287633
8	0xbe78509b	-0.24249499
9	0x3f569378	0.8381877
10	0x3e7b185b	0.2452101
11	0x3f41cca9	0.7570291
12	0x3e5a6340	0.21326923
13	0xbe0f4b64	-0.13993603
14	0x3e9b633d	0.3034915
15	0x3f6556a1	0.8958531
16	0x3e584e8b	0.21123712
17	0x3f4c179d	0.7972353
18	0x3eb810ef	0.3595042
19	0xbe1833b2	-0.1486347
20	0x3ce2b1e6	0.02767272
21	0x3f62b96a	0.8856417
22	0x3f449aaa	0.767985
23	0x3f1a5b3c	0.6029546
24	0xbe9998bf	-0.2999935
25	0x3db1a30c	0.08673677
26	0x3bd3dd08	0.006465558
27	0x3f4b9421	0.795229
28	0x3f2ec375	0.68266994
29	0x3ec357dd	0.38152972
30	0xbe217d50	-0.15770459
31	0x3f144cc0	0.5792961
32	0x3ec2f1d8	0.38075137
33	0x3f091c62	0.53558934
34	0x3f3c6c51	0.7360278
35	0x3f293d2e	0.6610898
36	0x3fa92745	1.3215109
37	0x3e2f93ab	0.17146175
38	0x3db92348	0.090399325
39	0xbdcbed6a	-0.099573925
40	0x3f99c368	1.2012758
41	0x3f8c2764	1.0949521
42	0xbe4b86cc	-0.1987564
43	0x3e375024	0.17901665
44	0x3f5ad65e	0.8548335
45	0x3f00b3d7	0.50274414
46	0x3ef82355	0.48464456
47	0x3f5f74ab	0.87287396
48	0x3f1f6b3f	0.6227302
49	0x3f442a3a	0.7662693
50	0x3f2112fe	0.62919605
51	0xbf0d265b	-0.5513665
52	0xbf067138	-0.5251651
53	0xbe503438	-0.2033242
54	0xbcfeebd9	-0.03111832
55	0x3d8e62b1	0.06952418
56	0xbef494fe	-0.47769922
57	0xbec194ca	-0.3780883
58	0xbe3f8c97	-0.18705975
59	0xbf87d31a	-1.0611298
60	0x3e4c526d	0.19953318
61	0x3f52ae98	0.8229766
62	0x3f35d784	0.71031976
63	0xbd782fab	-0.060592335

backbone.2.weight f4 [64, 64]
0	0xbd14ee10	-0.036359847
1	0x3d27e536	0.040990077
2	0xbdbb2a07	-0.091388755
3	0xbd957b01	-0.07298852
4	0x3d7f70df	0.0623635
5	0xbddf0da0	-0.10891271
6	0x3ab77cab	0.0013998946
7	0x3d85af56	0.06527583
8	0xbcc3dbb6	-0.023908477
9	0x3c745115	0.01491191
10	0xbde9860e	-0.11402522
11	0xbc849ac3	-0.016187077
12	0xbd230d8f	-0.039807852
13	0x3c899548	0.016794816
14	0x3d0e10a1	0.034683827
15	0x3d76d0f6	0.060257874
16	0xbdfe7eae	-0.12426506
17	0xbd1bf827	-0.038078453
18	0xbd7fd054	-0.062454537
19	0xbe0e92c5	-0.13923176
20	0xbd535fb4	-0.05160494
21	0xbdfdc682	-0.12391378
22	0x3d286b56	0.04111799
23	0xbce67eb4	-0.028136589
24	0xbdb9657f	-0.09052562
25	0x3d15c34d	0.036563206
26	0xbe1748bd	-0.14773841
27	0xbdb9dc92	-0.090752736
28	0xbd5763a5	-0.052585263
29	0xbe0a7b61	-0.13523628
30	0xbdfa422d	-0.12219653
31	0xbd0c7049	-0.03428677
32	0x3d600a63	0.054697406
33	0x3dd4ff34	0.10400239
34	0x3d148a22	0.036264546
35	0xbdef1439	-0.11673779
36	0xbe052706	-0.13003168
37	0x3dc2f96e	0.09520231
38	0x3cf87739	0.030330287
39	0xbcc204d0	-0.023683935
40	0xbc425223	-0.011860403
41	0xbe18ed53	-0.14934282
42	0xbd63d176	-0.05561968
43	0x3d97bd20	0.074091196
44	0xbcfc8d28	-0.030829027
45	0xbbcd78e0	-0.006270513
46	0xbe073129	-0.13202347
47	0xbdef3236	-0.11679499
48	0xbc86a68e	-0.016436841
49	0xbdff043b	-0.12451979
50	0xbd8742aa	-0.06604512
51	0x3d505cf4	0.050869897
52	0xbe0b6c9e	-0.13615653
53	0xbb9a9a83	-0.0047181263
54	0xbda944f0	-0.08265102
55	0xbd79e1d4	-0.061006382
56	0x3baea619	0.005329859
57	0x3d6d11a7	0.057878163
58	0xbd0bef1c	-0.03416358
59	0xbd52361c	-0.051321134
60	0xbe1eca0c	-0.15506762
61	0xbdbd4c52	-0.092430726
62	0xbe210098	-0.15722883
63	0xbd2e0d5b	-0.042493206
64	0xbc86907b	-0.016426316
65	0x3d9f5ce3	0.077813886
66	0x3f0796c1	0.5296441
67	0x3e121b8c	0.14268321
68	0xbe188e43	-0.14898019
69	0xbca4d0e0	-0.02011913
70	0xbefa43d6	-0.4887988
71	0xbe267e14	-0.16259032
72	0xbde680f4	-0.112550646
73	0x3de64d10	0.11245167
74	0xbf0c4cae	-0.54804504
75	0xbed45cbd	-0.41477004
76	0xbf6c5fff	-0.9233398
77	0x3dbe2b2e	0.092855796
78	0xbd8495ea	-0.06473906
79	0x3ef49e02	0.477768
80	0xbed8397b	-0.42231354
81	0xbef08dcf	-0.4698319
82	0xbf26f7c5	-0.65221816
83	0xbe33e5ed	-0.17568178
84	0x3e727f4f	0.23681377
85	0xbe4e8b3b	-0.201703
86	0xbea1c435	-0.31595007
87	0x3ac4becf	0.0015010479
88	0xbedfc03b	-0.43701348
89	0xbf63fe24	-0.8905966
90	0x3f4bead3	0.7965519
91	0x3f1a5544	0.60286355
92	0xbe605c7c	-0.2191028
93	0xbec86398	-0.39138484
94	0x3d9e78db	0.07737895
95	0x3ea8f34e	0.32998127
96	0xbeae263e	-0.3401355
97	0x3eda238e	0.4260525
98	0x3ea9db49	0.33175114
99	0xbfb96540	-1.4484024
100	0x3e958374	0.29201853
101	0xbcf15dec	-0.02946373
102	0xbe752bed	-0.23942538
103	0xbed33b76	-0.41256303
104	0x3e055195	0.13019402
105	0x3e4996e6	0.1968647
106	0xbf173a50	-0.5907335
107	0x3e30b18a	0.17255226
108	0xbea27017	-0.31726143
109	0x3e07788f	0.13229583
110	0x3f3af387	0.73027843
111	0x3d8c938e	0.06864081
112	0xbdc6324f	-0.09677564
113	0x3e9693ac	0.2940954
114	0x3d244b5a	0.040110923
115	0x3f0c9918	0.549211
116	0x3eb571de	0.35438436
117	0x3f04aca1	0.5182591
118	0xbd8f214a	-0.06988771
119	0xbd952941	-0.07283259
120	0x3e693655	0.22774632
121	0x3decb60d	0.11558161
122	0xbf363a59	-0.7118278
123	0x3faf796f	1.3708934
124	0x3e02b1a3	0.12763076
125	0xbe4b0992	-0.1982787
126	0x3e813805	0.25238052
127	0xbf676d02	-0.9040071
128	0x3d5c8c7f	0.053844925
129	0xbe8294bf	-0.2550411
130	0x3f98a758	1.1926069
131	0x3e5552c4	0.20832354
132	0xbec81f2c	-0.39086282
133	0x3d96da88	0.073659
134	0x3d31656c	0.043309614
135	0x3f7d9f38	0.99071074
136	0x3f457b26	0.77141035
137	0xbebfacab	-0.37436423
138	0x3d9f1f1e	0.07769607
139	0x3e37716a	0.17914358
140	0x3e304774	0.17214757
141	0x3f4388d4	0.7638066
142	0x3e597f7b	0.21240036
143	0xbf9e435b	-1.2364305
144	0x3eb8ccdb	0.36093792
145	0xbea88d88	-0.3292048
146	0x3d335d18	0.043789953
147	0x3ddfcf0d	0.10928164
148	0x3dbbf305	0.09177212
149	0x3e12fe4a	0.14354816
150	0x3e507f38	0.2036103
151	0x3ddb7ccf	0.10717165
152	0x39567dac	0.00020455447
153	0xbf826bb2	-1.0189116
154	0x3f9abcec	1.2088904
155	0x3ee0876a	0.43853313
156	0xbffef1e7	-1.9917573
157	0xbfe71461	-1.8053094
158	0x3f81eedc	1.0151019
159	0x3efb3c8e	0.49069637
160	0xbd48f7d6	-0.04906448
161	0x3f1d81a8	0.61525965
162	0x3fa25010	1.2680683
163	0x3d3f4f00	0.0467062
164	0xbfb3ea58	-1.4055891
165	0x3ddd60d7	0.10809486
166	0x3e57cf73	0.2107523
167	0x3dec78e2	0.11546494
168	0xbf5b9962	-0.8578092
169	0xbf93138c	-1.149034
170	0xbcdd9af4	-0.027051426
171	0x3f508a03	0.8146059
172	0x3cc01056	0.02344529
173	0x3c9d450e	0.019197967
174	0xbfdb0a30	-1.7112484
175	0x3ee45096	0.44592732
176	0x3e310f39	0.17290963
177	0x3f23d1c3	0.63991946
178	0xbfebb8e7	-1.8415803
179	0xbd6ad50a	-0.057332076
180	0x3e7b412f	0.24536584
181	0x3e6c4a13	0.23075132
182	0xbd68903b	-0.056778174
183	0x3ebaac90	0.3645978
184	0x3f1213d8	0.5706153
185	0x3f2aafef	0.66674703
186	0xbdcaf611	-0.09910215
187	0x3edbfda3	0.42966947
188	0x3f3b61c8	0.7319608
189	0x3ece1215	0.4024817
190	0x3f1e4705	0.6182712
191	0x3cf02088	0.029312387
192	0xbe6107b5	-0.21975596
193	0x3a2cf03e	0.0006597078
194	0x3fb25002	1.3930666
195	0x3e917a5a	0.2841366
196	0xbe98ddf7	-0.29856846
197	0xbc792cbd	-0.01520842
198	0x3e9f4c02	0.31112677
199	0x3f4660c1	0.77491385
200	0x3efeb8d4	0.49750388
201	0x3da60394	0.08106151
202	0x3d22ee12	0.039777823
203	0xbdb1a736	-0.08674471
204	0x3e92a260	0.28639507
205	0x3f483678	0.7820811
206	0x3eab5f96	0.33471364
207	0xbf911d49	-1.1337062
208	0x3e853ce8	0.2602303
209	0xbef54bd7	-0.47909424
210	0xbdde35c7	-0.10850101
211	0x3e954030	0.29150534
212	0x3dea3a4b	0.114369
213	0x3ddf29fd	0.108966805
214	0x3dbe9be5	0.09307078
215	0x3e5f17f6	0.21786484
216	0x3e90d66f	0.282886
217	0xbf526775	-0.8218911
218	0x3fad3ed7	1.3534802
219	0x3ebb562b	0.36589178
220	0xbff63244	-1.923409
221	0xc00ed340	-2.2316437
222	0x3f2f18d4	0.6839726
223	0x3ec8bbee	0.3920588
224	0xbe50c0f5	-0.20386107
225	0x3eb53de3	0.35398778
226	0x3ef50ce5	0.478614
227	0x3e47a004	0.19494635
228	0xbfbcd319	-1.4751922
229	0x3daaf8bd	0.08348224
230	0x3ea0f3cd	0.31436005
231	0xbb9df449	-0.004820381
232	0xbf0653aa	-0.5247141
233	0xbf670afa	-0.90251124
234	0xbe130ac1	-0.14359571
235	0x3f3e49fc	0.7433164
236	0x3d80f074	0.06295863
237	0x3dcb9e02	0.09942247
238	0xbf50e281	-0.8159562
239	0x3e8206b7	0.25395748
240	0x3e24a149	0.1607715
241	0x3efb9422	0.49136454
242	0xc0039270	-2.0558128
243	0x3e93efc7	0.28893873
244	0x3ebbf855	0.367129
245	0x3ed67104	0.418831
246	0xbe2478dc	-0.16061729
247	0x3da9a7b3	0.08283939
248	0x3f1f03f4	0.62115407
249	0x3f0ece9a	0.55784
250	0x3e6254fc	0.22102731
251	0x3ef6a61e	0.48173612
252	0x3f6df7f0	0.9295645
253	0x3e035b8a	0.12827888
254	0x3eeb77d6	0.45989865
255	0x3e669a55	0.2251981

backbone.2.bias f4 [64]
0	0x3cd9061d	0.026492173
1	0xbea00750	-0.3125558
2	0x3e90314d	0.28162614
3	0x3e0808a1	0.13284542
4	0x3e4210a3	0.18951659
5	0x3f201583	0.62532824
6	0xbdba3785	-0.09092621
7	0x3f67676a	0.9039217
8	0xbdc6d8d3	-0.09709325
9	0xbe135f43	-0.14391808
10	0xbe5729c6	-0.21012029
11	0x3e4b35ec	0.19844788
12	0x3efbc5a6	0.4917423
13	0xbe25c478	-0.16188228
14	0x3eaee3aa	0.3415807
15	0x3f172261	0.59036833
16	0xbe0081e6	-0.12549552
17	0x3df8b933	0.12144699
18	0x3eaccb02	0.33748633
19	0x3e0ae357	0.13563286
20	0x3e11e08a	0.14245811
21	0x3d05db3d	0.032679785
22	0x3ec4e488	0.38455606
23	0xbc99b565	-0.018763253
24	0x3e077753	0.13229112
25	0x3eb61c53	0.35568485
26	0x3da85ed8	0.08221215
27	0x3cf6ab94	0.030111112
28	0x3f8131d0	1.0093327
29	0x3c6cf8bf	0.014463603
30	0x3f0de54c	0.55428004
31	0x3e6ce399	0.23133697
32	0x3d61c88e	0.055122904
33	0x3c90d972	0.017681811
34	0xbc0939a5	-0.00837556
35	0x3e3e24c4	0.18568712
36	0x3cd26710	0.02568391
37	0x3e86d92d	0.26337567
38	0x3ec75472	0.38931614
39	0xbda2f4da	-0.07956858
40	0xbe1c8bef	-0.15287755
41	0x3e1dc7b7	0.15408216
42	0x3e58a69b	0.21157305
43	0xbdbca91d	-0.09211943
44	0x3c4c35c4	0.012463991
45	0xbf08ccee	-0.534377
46	0x3ddbb776	0.10728352
47	0x3f9693c3	1.1763843
48	0x3e4e54fd	0.20149608
49	0xbe11e05d	-0.14245744
50	0x3cee03e5	0.029054591
51	0xbd74446d	-0.05963557
52	0x3db3c9ea	0.087787464
53	0x3da7cf1c	0.081938
54	0xbed5fdba	-0.4179514
55	0xbb1062fb	-0.0022031653
56	0x3e34888f	0.17630218
57	0x3ea94c18	0.33065867
58	0x3e344c92	0.17607334
59	0x3ddc60a8	0.10760623
60	0xbb36cb00	-0.0027891994
61	0x3e8f153e	0.27945894
62	0xbe40ba7b	-0.18821137
63	0x3ef6425e	0.4809751

backbone.4.weight f4 [4, 64]
0	0x3db3a1bc	0.08771083
1	0xbf4306f7	-0.761825
2	0xbf08fc50	-0.5351
3	0xbf03a03e	-0.51416385
4	0xbeba9d85	-0.36448303
5	0x3f99f965	1.2029234
6	0xbbcf1ca0	-0.006320551
7	0x3fb8924d	1.4419647
8	0xbd63292c	-0.055459186
9	0xbf6766a3	-0.90390986
10	0xbf108a53	-0.56461066
11	0xbee43cbd	-0.4457759
12	0xbdefd6ca	-0.1171089
13	0x3c1531c8	0.009106107
14	0xbd8cf327	-0.06882315
15	0xbf478a6f	-0.7794561
16	0xbcab8260	-0.020936191
17	0xbede0ba0	-0.43368244
18	0xbee6299f	-0.4495363
19	0x3d26a102	0.040680893
20	0xbf08596c	-0.53261447
21	0xbf078649	-0.5293928
22	0x3f9076ed	1.1286293
23	0x3f2e8cf5	0.68183833
24	0xbeeabb88	-0.458462
25	0xbf3effc4	-0.7460902
26	0xbf06bc8b	-0.52631444
27	0xbf084bbd	-0.5324057
28	0x3e0eb2c9	0.13935389
29	0xbfbc0561	-1.4689142
30	0x40151665	2.3294919
31	0xbf1f262d	-0.62167627
32	0x3d05059c	0.032476053
33	0xbf0a780a	-0.54089415
34	0xbe0dd1a8	-0.13849509
35	0xbf0e6c46	-0.5563396
36	0xbf086ab1	-0.532878
37	0xbeca5379	-0.3951681
38	0xbed0d11e	-0.40784544
39	0xbf74ad78	-0.9557719
40	0x3d661abb	0.056177836
41	0xbebf71e9	-0.37391594
42	0x3f0b388a	0.54383147
43	0xbe22fba9	-0.15916313
44	0x3dc5654c	0.096384615
45	0xbf046adf	-0.5172557
46	0xbeb91a6f	-0.3615298
47	0x3fa6a38f	1.3018664
48	0xbf0d7f9a	-0.5527283
49	0xbee6b04e	-0.45056385
50	0xbf0bd897	-0.54627365
51	0xbcb1ee02	-0.021719936
52	0x3ff6c2db	1.9278215
53	0xbdfb3125	-0.12265233
54	0xbf1fba42	-0.6239358
55	0xbd87ed40	-0.06637049
56	0xbec9143a	-0.39273244
57	0xbeb3760c	-0.35051
58	0x3f99dc70	1.2020397
59	0xbd0a108f	-0.033707198
60	0xbd2d8914	-0.042367056
61	0xbf1370ec	-0.5759418
62	0xbde7f04a	-0.113251284
63	0x3f85ea89	1.04622
64	0xbdd61d46	-0.10454802
65	0xbed4c75d	-0.41558352
66	0xbf0aab6b	-0.54167813
67	0xbeb9f969	-0.36323097
68	0xbe7f5e8f	-0.24938415
69	0x3f8c8b95	1.0980097
70	0x3d17a0f6	0.03701874
71	0x4007c051	2.121113
72	0xbda7dc12	-0.08196272
73	0xbbb0c83b	-0.005394963
74	0xbed834c5	-0.4222776
75	0xbebec3c8	-0.37258744
76	0xbf395eae	-0.72410095
77	0x3c7c65e5	0.015405153
78	0xbe2fb54a	-0.17159
79	0xbf126845	-0.5719035
80	0x3ddfd996	0.10930173
81	0xbed8156f	-0.42203853
82	0xbf0e2879	-0.55530506
83	0x3f686893	0.9078457
84	0xbef4b547	-0.47794554
85	0xbe0b31c6	-0.13593206
86	0x3f1fb1fe	0.6238097
87	0x3f0123a9	0.5044504
88	0xbed2aa98	-0.41145778
89	0xbf0d8065	-0.5527404
90	0xbf090396	-0.53521097
91	0xbef92c37	-0.48666546
92	0xbf33279c	-0.69982314
93	0xbfaf8baf	-1.3714503
94	0x40280151	2.6250803
95	0xbec4ad1c	-0.38413322
96	0xbc642cdb	-0.01392671
97	0xbefd8223	-0.4951335
98	0x3dc5f484	0.09665778
99	0xbebf0721	-0.37310126
100	0xbdcb5345	-0.09927992
101	0xbed03230	-0.4066329
102	0xbeeb9e20	-0.46019077
103	0xbf9c1fd0	-1.2197208
104	0x3da5b00c	0.08090219
105	0xbf04fe14	-0.5195019
106	0x3f232895	0.637338
107	0xbefdc34d	-0.49563065
108	0xbcf6bda7	-0.03011973
109	0xbe23d1af	-0.15997957
110	0xbf00255d	-0.5005701
111	0x3fb51bf2	1.4149153
112	0xbf01ea39	-0.5074802
113	0xbf0a392e	-0.539935
114	0xbf015de1	-0.5053387
115	0x3dab75dc	0.08372089
116	0x3fc7a8c2	1.5598376
117	0x3d915385	0.07096008
118	0xbef98472	-0.4873386
119	0x3d76b040	0.06022668
120	0xbef2e8cb	-0.47443232
121	0xbf121d68	-0.5707612
122	0x3fa8a466	1.317517
123	0x3d0da4d0	0.034581006
124	0xbd1624f4	-0.036656335
125	0xbef62665	-0.48076168
126	0x3b8a3e5a	0.0042188587
127	0x3f2cd12f	0.6750669
128	0x3d679284	0.056536213
129	0xbf2085a9	-0.6270395
130	0xbea75734	-0.32683718
131	0xbee65b5d	-0.4499158
132	0xbf90e14e	-1.1318758
133	0x3fb8cfae	1.4438379
134	0x3cc1da3c	0.023663633
135	0x3fc91dc6	1.5712211
136	0x3cb34002	0.021881107
137	0x3be79874	0.0070677344
138	0xbf22b2d3	-0.63554114
139	0xbf0f98cc	-0.56092525
140	0x3da2e23c	0.07953307
141	0x3d674461	0.056461696
142	0xbf308828	-0.6895776
143	0xbf60aa20	-0.8775959
144	0x3d2a738a	0.041614093
145	0xbef43193	-0.47694072
146	0xbead89ae	-0.33894104
147	0xbf247293	-0.64237326
148	0xbf0c8d36	-0.5490297
149	0xbf183b64	-0.5946562
150	0xbf6070cb	-0.8767211
151	0xbe6af1d4	-0.22943813
152	0xbebdc331	-0.37062982
153	0xbf1c4a41	-0.610508
154	0xbf0fa35a	-0.5610863
155	0xbecd07c0	-0.40044975
156	0xbef58414	-0.4795233
157	0xbf534348	-0.8252454
158	0x3ffd6635	1.9796816
159	0xbf04c4ed	-0.51862985
160	0x3d72d401	0.059284214
161	0xbed2efde	-0.4119863
162	0x3c083095	0.008312364
163	0xbeea1b50	-0.45723963
164	0xbf05ddba	-0.5229145
165	0xbeeff532	-0.46866757
166	0xbeff553b	-0.49869713
167	0xbf1df3b4	-0.61699986
168	0x3db097b6	0.086226866
169	0xbed9cdd5	-0.4253985
170	0x3f70e7a2	0.94103444
171	0xbf79bd47	-0.9755444
172	0x3b72f52d	0.0037072406
173	0xbf46738f	-0.7752008
174	0xbed29f95	-0.41137376
175	0x3fa60da1	1.2972909
176	0xbeb18032	-0.34668118
177	0xbf25ac09	-0.6471563
178	0xbef33ad3	-0.47505817
179	0xbdee012b	-0.116213165
180	0x40437357	3.0539148
181	0xbdeeb154	-0.116549164
182	0xbd23c834	-0.03998585
183	0xbdef2cb3	-0.116784476
184	0xbede740f	-0.4344792
185	0xbf039eac	-0.5141399
186	0x3e74b18e	0.23895857
187	0x3dc503b9	0.09619851
188	0x3cbc4338	0.022981271
189	0xbed6a05f	-0.41919228
190	0x3d75b832	0.059990115
191	0x3f951268	1.1646242
192	0x3daaca01	0.083393104
193	0xbf3a5f6b	-0.72801846
194	0xbd134083	-0.035950195
195	0xbf044f85	-0.5168384
196	0xbf207897	-0.62684005
197	0x3fddb60a	1.7321179
198	0xbdcbf5ca	-0.0995899
199	0x3f9704c1	1.1798326
200	0x3ca29960	0.019848526
201	0x3e1c9942	0.15292838
202	0xbf374dd2	-0.7160312
203	0xbf30acbf	-0.6901359
204	0x3d5a474d	0.053290654
205	0xbd158256	-0.03650125
206	0xbe359204	-0.17731482
207	0x3eb914ec	0.36148775
208	0x3da408e8	0.08009511
209	0xbf19d189	-0.6008535
210	0xbe538f0a	-0.20660034
211	0xbf3ed570	-0.7454443
212	0xbf157d71	-0.58394533
213	0xbf50649b	-0.8140351
214	0x3f4a3092	0.7898036
215	0x3f1c8bb1	0.6115065
216	0xbf211e6a	-0.62937033
217	0xbf0ba0ed	-0.5454243
218	0xbf14be8c	-0.5810325
219	0xbf09569a	-0.5364777
220	0x3ee64dd2	0.44981247
221	0xbfcb38ce	-1.587671
222	0x3fdb064f	1.71113
223	0xbf360fcd	-0.7111786
224	0x3cc5a098	0.024124429
225	0xbf096fa5	-0.5368598
226	0xbd758a85	-0.059946556
227	0xbef8d07e	-0.48596567
228	0xbf93d459	-1.1549178
229	0xbf2972ef	-0.66191
230	0xbf559fee	-0.8344716
231	0xbf330b24	-0.69938874
232	0xbcbefcc7	-0.023313893
233	0xbe9448f3	-0.28961906
234	0xbe614160	-0.21997595
235	0x3ea2d736	0.31804818
236	0x3d812dd6	0.06307571
237	0xbf337635	-0.70102245
238	0xbefa4bf2	-0.48886067
239	0x40027c3e	2.0388331
240	0xbef16280	-0.47145462
241	0xbea6b3d1	-0.32559064
242	0xbf312920	-0.69203377
243	0x3d7ef046	0.06224086
244	0x3f96299a	1.1731446
245	0x3d0b3b6f	0.033992227
246	0xbeb77487	-0.3583109
247	0xbdf10b5c	-0.11769745
248	0xbf07d383	-0.53057116
249	0xbe552a60	-0.20816946
250	0x3fe546a2	1.791218
251	0xbde21300	-0.1103878
252	0x3dc5e594	0.09662929
253	0xbefa0c5a	-0.48837548
254	0xbdace289	-0.08441646
255	0x3f9f3ba3	1.2440075

backbone.4.bias f4 [4]
0	0x3f7fcf67	0.99925846
1	0xbf433471	-0.76251894
2	0x3d769ca1	0.060207967
3	0x3f79972a	0.97496283
