models/dqn_state_model250000.pt (torch, 21911 bytes, 6 tensors)

backbone.0.weight f4 [64, 8]
0	0x3f927394	1.1441522
1	0x3f47c9d9	0.7804237
2	0x3ec3614f	0.38160178
3	0x3f37daa5	0.71818
4	0x3f0743e6	0.5283798
5	0x3f6cfae0	0.92570305
6	0xbf418b20	-0.7560291
7	0xbf9d1caa	-1.2274373
8	0x3fda49ff	1.7053832
9	0xbe7fe796	-0.24990687
10	0x3ed78781	0.4209557
11	0xbe4712fd	-0.19440837
12	0xbf7fa123	-0.9985525
13	0xbea96e3f	-0.33091924
14	0xbf8de081	-1.1084138
15	0xbcb7cab9	-0.022435533
16	0x3f1d1678	0.6136241
17	0x3e15f5aa	0.14644495
18	0xbf38a82c	-0.7213161
19	0xbf2275de	-0.634611
20	0x3cc55c41	0.024091842
21	0xbfb426ba	-1.4074318
22	0xbf7db78e	-0.9910821
23	0x3e73bd88	0.23802769
24	0xbe9c3538	-0.30509353
25	0x3e4e7fe6	0.20165977
26	0xbf00d441	-0.50323874
27	0xbf5739f1	-0.84072787
28	0x3f4694ba	0.7757069
29	0xbdc397d1	-0.09550441
30	0x3dc62a91	0.09676088
31	0xbf258a58	-0.6466422
32	0x3f7f9c96	0.99848306
33	0xbe65e517	-0.22450672
34	0x3ec80a9d	0.39070597
35	0x3b224bb0	0.0024764352
36	0xbfc2fadc	-1.5232806
37	0xbd6ab111	-0.05729777
38	0xbfdd2808	-1.7277842
39	0xbf0281f1	-0.50979525
40	0x3f77b21c	0.9675615
41	0xbef47aa5	-0.4774982
42	0xbe1c598d	-0.15268536
43	0xbe28922b	-0.16462009
44	0x3f1eb3af	0.61992925
45	0xbf0dd608	-0.5540471
46	0x3efca9de	0.49348348
47	0x3ecb6e02	0.39732367
48	0x3dc5d0c8	0.096589625
49	0xbe6146db	-0.21999685
50	0xbf1717fa	-0.5902096
51	0xbf6ce084	-0.92530084
52	0xbe5a196c	-0.2129876
53	0xbeec1d81	-0.4611626
54	0x3eb46d7b	0.35239777
55	0x3ec97307	0.3934557
56	0x3f4e88a0	0.80677223
57	0xbf71a77d	-0.9439619
58	0x3feaaf99	1.8334838
59	0xbf93cd2e	-1.1546991
60	0xbf8d553c	-1.1041636
61	0xbe31ab21	-0.17350437
62	0x3cc856a2	0.024455372
63	0x3f27cfd4	0.65551496
64	0xbf5f095a	-0.87123644
65	0xbfc29c63	-1.5203975
66	0x3ee5d06d	0.4488558
67	0xbfeab272	-1.8335707
68	0xbf8f4970	-1.1194286
69	0xbefd9c2c	-0.49533212
70	0x3ed8b15a	0.42322809
71	0x3ec1b6c3	0.3783475
72	0x3f807a4f	1.0037326
73	0xbf154427	-0.5830712
74	0x3fb88425	1.4415327
75	0xbfb61a91	-1.4226857
76	0xbf8dd4fd	-1.1080624
77	0x3f2892bb	0.6584889
78	0xbee278f9	-0.4423292
79	0x3e61d6ba	0.22054568
80	0xc010ff75	-2.2655919
81	0xbea7f619	-0.32804945
82	0xbf1f60bc	-0.6225698
83	0xbe68dbf4	-0.22740155
84	0x3f7c1450	0.98468494
85	0x3e117249	0.14203753
86	0x3e056f8f	0.13030837
87	0xbda21e65	-0.079159535
88	0xbf3f268e	-0.74668205
89	0x3eba75c3	0.3641797
90	0xbe415d3a	-0.1888322
91	0xbb43333b	-0.0029785174
92	0x3ee646d7	0.44975922
93	0x3e743729	0.23849167
94	0xbf16e5ca	-0.5894438
95	0xbe4d0638	-0.20021904
96	0x3dbd1c0e	0.09233867
97	0x3da98e20	0.08279061
98	0xbfc01c77	-1.5008687
99	0xc01847a4	-2.3793726
100	0xbf1f8b44	-0.6232188
101	0x3df7f3a1	0.121070154
102	0x3e6f0430	0.23341441
103	0xbebbcb91	-0.36678746
104	0x3ee13143	0.43982896
105	0xbf84944f	-1.035776
106	0x3e2b71c7	0.16742621
107	0xbfac489d	-1.345966
108	0x3e9238ac	0.28558862
109	0xbf0be8e5	-0.54652244
110	0xbf1f5980	-0.6224594
111	0xbf208329	-0.62700135
112	0xbec62c24	-0.38705552
113	0x3e1b46b6	0.15163693
114	0xbffb8f19	-1.9653045
115	0xbe8b3427	-0.27188227
116	0x3f1c64d1	0.61091334
117	0xbe9115b5	-0.28336874
118	0xbf3ab3ab	-0.729304
119	0xbebc0b95	-0.36727586
120	0x3edaff81	0.4277306
121	0x3f2b1739	0.6683231
122	0xbe8ee6dc	-0.27910507
123	0x3f1717ec	0.59020877
124	0xbe7d896d	-0.24759455
125	0xbf94604b	-1.1591886
126	0xbf91c003	-1.1386722
127	0xbf9b926e	-1.2154062
128	0x3fa1d31f	1.2642554
129	0x3ef7ebda	0.48422128
130	0x3e0d0470	0.13771224
131	0x3fe58d7c	1.7933803
132	0xbdc9c62d	-0.09852252
133	0xbe912e45	-0.28355613
134	0x3de45441	0.11148883
135	0xbaa8fbf2	-0.0012892468
136	0xbf9ab506	-1.2086494
137	0xbf915528	-1.1354113
138	0x3f8bc774	1.0920243
139	0xbfcf4784	-1.61937
140	0xbf3ab8dc	-0.72938323
141	0x3e51bd32	0.20482329
142	0x3d5ce88c	0.05393271
143	0xbe257420	-0.1615758
144	0x3ef0a960	0.47004223
145	0xbef3adf3	-0.4759365
146	0x3f05f2fa	0.5232388
147	0x3f13ff34	0.57811284
148	0x3f1f751d	0.62288076
149	0xbddf16f4	-0.1089305
150	0xbf4d94a3	-0.80304927
151	0xbf13785d	-0.57605535
152	0xc03543b4	-2.8322573
153	0x3e77c9f7	0.24198137
154	0xbfe05568	-1.7526064
155	0xbf1c921f	-0.61160463
156	0x3e975903	0.29560098
157	0x3ca14070	0.019684047
158	0xbe4e2c89	-0.20134176
159	0xbda33a54	-0.079701096
160	0x3de01007	0.10940557
161	0xbcafefed	-0.02147671
162	0x3fab1850	1.3366795
163	0xbff5dbc3	-1.9207691
164	0x3f9996ef	1.1999186
165	0xbec0c666	-0.37651366
166	0xbebae69e	-0.36504072
167	0x3f254da7	0.64571613
168	0xbed7a065	-0.4211456
169	0xbeb668f9	-0.35626963
170	0xbf0e5b93	-0.5560848
171	0x3fe75537	1.807288
172	0x3fd9782b	1.6989797
173	0xbf904f35	-1.1274172
174	0xbf29a90d	-0.66273576
175	0xbf893c64	-1.0721555
176	0xbf48b5d7	-0.78402466
177	0x3cefc090	0.029266626
178	0xbd333b36	-0.04375764
179	0x3d818e46	0.06325965
180	0xbdeedc3c	-0.116631
181	0x3ed2b5ea	0.41154414
182	0xbe883839	-0.26605394
183	0xbe3dae27	-0.18523465
184	0xbdfa4963	-0.12221029
185	0x3d3b74f5	0.045765836
186	0xbec590a9	-0.3858693
187	0x3f2eba51	0.68253046
188	0xbd8ccec0	-0.06875372
189	0x3e9ad44a	0.3024009
190	0xbe35515f	-0.17706822
191	0xbddea87d	-0.1087198
192	0x3e30a24f	0.17249416
193	0xbe090c47	-0.1338359
194	0x40223939	2.5347426
195	0xbf068371	-0.52544314
196	0x3e49a48c	0.19691676
197	0xbf2ef3ea	-0.68340933
198	0x3dbec7d3	0.09315457
199	0x3e294d77	0.16533457
200	0xbe3a78bc	-0.18210119
201	0x3f84284c	1.0324798
202	0x3f095ad6	0.5365423
203	0xbfe1b39d	-1.7632939
204	0x3f7e720b	0.99392766
205	0x3ec00ff9	0.37512186
206	0xbdc48fc8	-0.095977366
207	0xbf956926	-1.1672714
208	0x3ed0c826	0.407777
209	0x3f064c65	0.5246032
210	0x3f41e92e	0.7574643
211	0x3f2fac44	0.6862223
212	0xbf9b0c20	-1.2113075
213	0xc0037491	-2.0539896
214	0xbfa7638f	-1.3077258
215	0xbe53da75	-0.20688803
216	0x3eb11036	0.3458268
217	0xbe4ddf45	-0.20104702
218	0x3f84a834	1.0363832
219	0xbfe66558	-1.7999678
220	0xbfbc412f	-1.4707392
221	0xbf9d53fc	-1.2291255
222	0x3c860ebd	0.01636445
223	0xbddf5033	-0.10903969
224	0x3dc5f800	0.09666443
225	0x3d98f3d3	0.07468381
226	0x3f1d2158	0.61379004
227	0x403a02da	2.906424
228	0xbd916d1b	-0.07100888
229	0xbf8dc06a	-1.1074345
230	0x3e818b81	0.25301746
231	0x3f43e5c2	0.7652246
232	0xbef160f3	-0.4714428
233	0x3f3e2857	0.74280304
234	0xbe3e90b5	-0.18609889
235	0x3fab4f8c	1.3383651
236	0x3f92669c	1.1437564
237	0xbfad0dec	-1.3519874
238	0xbbd131b8	-0.0063841008
239	0xbfcbba79	-1.5916282
240	0x3f641ec6	0.89109457
241	0xbe9180af	-0.2841849
242	0x3ee7db82	0.4528466
243	0xbf14e283	-0.5815813
244	0xbf9ee81a	-1.2414582
245	0xbfa1c76a	-1.2638981
246	0xbf529068	-0.82251596
247	0xbe9d2f2b	-0.3070005
248	0x3f80513a	1.0024788
249	0xbdb42390	-0.087958455
250	0x3f38cbb8	0.7218585
251	0xbef5934c	-0.4796394
252	0x3f485000	0.7824707
253	0xbf105102	-0.5637361
254	0xbd31791e	-0.043328397
255	0x3c7630b3	0.015026259

backbone.0.bias f4 [64]
0	0x3e74fd3e	0.23924729
1	0x3d0088c1	0.03138042
2	0xbf498b88	-0.7872853
3	0x3ec73705	0.38909164
4	0x3ec08663	0.3760253
5	0xbef3a5d9	-0.4758747
6	0x3f3ce7e7	0.73791355
7	0xbf15db5c	-0.5853784
8	0xbe862c1f	-0.26205537
9	0x3f986816	1.1906765
10	0xbd931170	-0.0718106
11	0x3f83fa74	1.0310807
12	0x3ceed636	0.029154878
13	0x3ebd8b2b	0.3702024
14	0x3e936d4f	0.28794333
15	0x3f3d7d58	0.74019384
16	0x3d912f9b	0.07089158
17	0x3fbb1145	1.4614645
18	0x3f005331	0.5012694
19	0xbc85ff36	-0.016357046
20	0x3efb563b	0.49089226
21	0x3f1a2594	0.6021359
22	0x3f5f6ca6	0.8727516
23	0x3f54cde1	0.83126646
24	0x3cdd0f10	0.026984721
25	0xbe924112	-0.2856527
26	0x3e47ca21	0.195107
27	0x3f8970e8	1.0737581
28	0x3ef14949	0.47126225
29	0x3edd3f5a	0.43212396
30	0xbede9dc7	-0.4347975
31	0x3e26acd9	0.16276874
32	0x3edb6772	0.4285236
33	0x3ea931da	0.33045846
34	0x3f3156d9	0.69273144
35	0x3ed25b1c	0.41085136
36	0x3f9b351a	1.212558
37	0x3e1f723f	0.15570925
38	0xbed1f297	-0.41005394
39	0xbe9293d3	-0.28628406
40	0x3f9bf762	1.218487
41	0x3f96ccf5	1.1781298
42	0x3e3261e2	0.17420152
43	0x3dc5ddc4	0.09661439
44	0x3e96a122	0.2941981
45	0x3f384f41	0.7199593
46	0x3c22965c	0.009923544
47	0x3f58bdd5	0.8466466
48	0x3eeb21e3	0.4592429
49	0x3f62c490	0.8858118
50	0x3f266e29	0.6501184
51	0xbf55c61c	-0.83505416
52	0xbf2c1411	-0.6721812
53	0x3d2ec066	0.042663954
54	0x3e23b8f2	0.1598852
55	0x3e5e2a38	0.21695793
56	0xbd8f9f22	-0.07012774
57	0xbf417d31	-0.7558165
58	0xbf16a4b7	-0.58845085
59	0xbfc02a9b	-1.5013002
60	0x3e90020d	0.28126565
61	0x3f80fa46	1.0076377
62	0x3efd40e5	0.49463573
63	0xbe2b4051	-0.16723754

backbone.2.weight f4 [64, 64]
0	0xbd14ee10	-0.036359847
1	0x3d27e536	0.040990077
2	0xbdbb2a07	-0.091388755
3	0xbd957b01	-0.07298852
4	0x3d7f70df	0.0623635
5	0xbddf0da0	-0.10891271
6	0x3ab77cab	0.0013998946
7	0x3d85af56	0.06527583
8	0xbcc3dbb6	-0.023908477
9	0x3c745115	0.01491191
10	0xbde9860e	-0.11402522
11	0xbc849ac3	-0.016187077
12	0xbd230d8f	-0.039807852
13	0x3c899548	0.016794816
14	0x3d0e10a1	0.034683827
15	0x3d76d0f6	0.060257874
16	0xbdfe7eae	-0.12426506
17	0xbd1bf827	-0.038078453
18	0xbd7fd054	-0.062454537
19	0xbe0e92c5	-0.13923176
20	0xbd535fb4	-0.05160494
21	0xbdfdc682	-0.12391378
22	0x3d286b56	0.04111799
23	0xbce67eb4	-0.028136589
24	0xbdb9657f	-0.09052562
25	0x3d15c34d	0.036563206
26	0xbe1748bd	-0.14773841
27	0xbdb9dc92	-0.090752736
28	0xbd5763a5	-0.052585263
29	0xbe0a7b61	-0.13523628
30	0xbdfa422d	-0.12219653
31	0xbd0c7049	-0.03428677
32	0x3d600a63	0.054697406
33	0x3dd4ff34	0.10400239
34	0x3d148a22	0.036264546
35	0xbdef1439	-0.11673779
36	0xbe052706	-0.13003168
37	0x3dc2f96e	0.09520231
38	0x3cf87739	0.030330287
39	0xbcc204d0	-0.023683935
40	0xbc425223	-0.011860403
41	0xbe18ed53	-0.14934282
42	0xbd63d176	-0.05561968
43	0x3d97bd20	0.074091196
44	0xbcfc8d28	-0.030829027
45	0xbbcd78e0	-0.006270513
46	0xbe073129	-0.13202347
47	0xbdef3236	-0.11679499
48	0xbc86a68e	-0.016436841
49	0xbdff043b	-0.12451979
50	0xbd8742aa	-0.06604512
51	0x3d505cf4	0.050869897
52	0xbe0b6c9e	-0.13615653
53	0xbb9a9a83	-0.0047181263
54	0xbda944f0	-0.08265102
55	0xbd79e1d4	-0.061006382
56	0x3baea619	0.005329859
57	0x3d6d11a7	0.057878163
58	0xbd0bef1c	-0.03416358
59	0xbd52361c	-0.051321134
60	0xbe1eca0c	-0.15506762
61	0xbdbd4c52	-0.092430726
62	0xbe210098	-0.15722883
63	0xbd2e0d5b	-0.042493206
64	0xbb0b1420	-0.0021221712
65	0xbedd91f4	-0.43275416
66	0xbf2bfba8	-0.6718087
67	0xbf0880c5	-0.53321487
68	0xbea24bc7	-0.3169844
69	0xbe853e67	-0.26024172
70	0xbfa286a7	-1.2697343
71	0xbe4818ce	-0.19540712
72	0xbf51b49b	-0.8191621
73	0x3d10b646	0.03533008
74	0xbf31f80d	-0.6951912
75	0xbed65c30	-0.41867208
76	0xbfd24db5	-1.6429964
77	0xbf87df9a	-1.0615113
78	0xbeeaa5ab	-0.4582952
79	0x3eca226c	0.39479387
80	0xbe9c3eab	-0.30516562
81	0xc0165f60	-2.3495712
82	0xbdacb0ca	-0.08432157
83	0xbefcda6a	-0.49385387
84	0x3e64fe42	0.22362617
85	0xbe0e6b44	-0.13908106
86	0xba9e8ea5	-0.0012096955
87	0x3ebc968c	0.36833608
88	0xbe998975	-0.29987684
89	0xc0017011	-2.022465
90	0xbc095f25	-0.008384501
91	0x3e8b6454	0.27224982
92	0x3c24f48b	0.010068069
93	0xbeac874e	-0.3369698
94	0x3f489485	0.7835162
95	0x3defac89	0.1170283
96	0xbf9a28d1	-1.2043706
97	0x3e9ee6dc	0.31035507
98	0x3e54ed4f	0.20793651
99	0xc041418e	-3.0196261
100	0x3d8e5233	0.06949272
101	0xbf14fa57	-0.5819449
102	0xbf921384	-1.1412206
103	0xbf8d3da1	-1.1034433
104	0x3d6f4cdd	0.058422912
105	0x3d8aa5df	0.06769919
106	0xc027a1e9	-2.6192572
107	0xbf392d1a	-0.72334445
108	0xbefd2248	-0.49440217
109	0xbe93d57a	-0.28873807
110	0x3eac216f	0.33619258
111	0xbca8aa0e	-0.0205889
112	0xbe48b797	-0.19601284
113	0x3e88f269	0.26747444
114	0xbd8d5ad3	-0.06902089
115	0xbf2905c8	-0.66024446
116	0xbf982a39	-1.1887885
117	0x3e64f1bc	0.2235784
118	0xbda243d5	-0.07923094
119	0xbf0607c6	-0.5235561
120	0xbf104e1e	-0.563692
121	0x3d04f0dd	0.032456268
122	0xc010f6e3	-2.2650688
123	0x3e6feea2	0.23430875
124	0xbff9a0ed	-1.9502236
125	0xbe069006	-0.13140878
126	0x3e3e63ca	0.18592754
127	0xbf817ac0	-1.0115585
128	0xbfe302d9	-1.7735244
129	0xbe81dd4d	-0.25364152
130	0x3f12a74e	0.57286537
131	0xbef185ad	-0.471723
132	0x3f19d6bd	0.6009329
133	0xbd3a7a0f	-0.04552656
134	0x3e791e2f	0.2432792
135	0x3fb69666	1.4264648
136	0x3fd8f5e5	1.6950041
137	0xbe3fa8d1	-0.18716742
138	0x3f623889	0.88367516
139	0xbf2f0986	-0.68373907
140	0x3ed1ef35	0.41002813
141	0x3f1a6f95	0.6032651
142	0x3ea0be2d	0.31395093
143	0xbdd13e13	-0.10216918
144	0xbf1df3cf	-0.6170015
145	0xbc57da7b	-0.013174648
146	0x3e640960	0.22269201
147	0x3e4e15c4	0.2012549
148	0x3e2ebf23	0.170651
149	0xbea88b7a	-0.32918912
150	0x3e280c88	0.1641103
151	0xbea14d9e	-0.3150453
152	0x3dc4c488	0.09607798
153	0xbfa1c2a3	-1.2637523
154	0x400f1313	2.2355392
155	0x3f3ff2d7	0.7497992
156	0xc063de08	-3.5604267
157	0xbf3f01ad	-0.7461193
158	0x3fdda28d	1.7315232
159	0x3eadb80a	0.33929473
160	0xbf9c7ce2	-1.2225611
161	0xbefc4a99	-0.49275663
162	0x3e80bf8c	0.2514614
163	0xbf0ade47	-0.5424542
164	0xbfb3210c	-1.399446
165	0xbf1d0378	-0.6133342
166	0xbe617ab9	-0.22019471
167	0x3db7585e	0.089524016
168	0xbf486754	-0.78282666
169	0xbf6376b2	-0.8885299
170	0x3f6eda23	0.933016
171	0x3fbde541	1.4835588
172	0x3eb4309b	0.35193333
173	0x3fccef11	1.6010457
174	0xbff1ae02	-1.8881228
175	0x3e4baf07	0.19890986
176	0xbd75c226	-0.059999608
177	0xbe73f13a	-0.2382249
178	0xbf9c4ad9	-1.2210342
179	0xbfddff0a	-1.7343457
180	0x3d24eb05	0.040263195
181	0xbc2de902	-0.010614635
182	0xbfe75952	-1.8074133
183	0x3cf3aa9b	0.029744437
184	0x3f8404e1	1.0313989
185	0x4001dcdc	2.0291052
186	0x3e590c76	0.2119616
187	0xbed21b7e	-0.410366
188	0x3f0de519	0.554277
189	0xbeb88be7	-0.36044237
190	0xbe0990c3	-0.13434128
191	0x3df0016a	0.1171902
192	0xbf3175b3	-0.6932022
193	0x3f064619	0.5245071
194	0x3eb02a2c	0.34407175
195	0x3e4fa39d	0.20277257
196	0x3e321574	0.17390996
197	0xbe56fc0d	-0.20994587
198	0x3e63f079	0.22259702
199	0x3f71d803	0.9447023
200	0x3ed4d519	0.4156883
201	0x3cb1e8cb	0.02171745
202	0xbe3b3efe	-0.18285748
203	0xbdc0a001	-0.09405518
204	0xbe064ba8	-0.13114798
205	0xbdcdcd2a	-0.100488976
206	0x3f3048da	0.6886116
207	0xbedbbead	-0.42918912
208	0xbe05b177	-0.13055979
209	0xbf3fff81	-0.74999243
210	0x3fa7341d	1.3062779
211	0x3f166569	0.5874849
212	0xbe3b4985	-0.18289764
213	0x3f6f2fab	0.9343211
214	0x3e85a2c9	0.26100758
215	0x3f15c696	0.58506143
216	0x3e7853cb	0.24250714
217	0xc00bd486	-2.1848464
218	0x400d91ed	2.2120316
219	0x3f10876a	0.56456625
220	0xc00e93c1	-2.2277682
221	0xbf23acc6	-0.63935506
222	0x3f993090	1.1967945
223	0x3e7cecbc	0.24699682
224	0xbe9eb445	-0.3099691
225	0x3eacb621	0.33732703
226	0x3f36998a	0.7132803
227	0xbebf311d	-0.37342158
228	0xbf9ec5f7	-1.2404164
229	0xbe4c8238	-0.1997155
230	0xbf2b2b63	-0.6686308
231	0xbfa38b7b	-1.2776941
232	0xbdd00397	-0.10156935
233	0xbea0677f	-0.3132896
234	0x3d5f734b	0.05455331
235	0x3f335905	0.7005771
236	0x3f2c2012	0.67236435
237	0x3f53c366	0.8272003
238	0xbfc532e2	-1.5406153
239	0x3dd47ef2	0.103757754
240	0x3f875795	1.0573603
241	0x3efcaf45	0.4935247
242	0xbfbeca14	-1.4905419
243	0xbeb2ea9d	-0.3494462
244	0x3f449c26	0.76800764
245	0xbe2477e9	-0.16061367
246	0xbf579ca1	-0.8422337
247	0x3d69e01f	0.057098504
248	0x3f01cfc8	0.50707674
249	0x3f51969c	0.81870437
250	0xbebb84d5	-0.3662478
251	0x3f4badc9	0.7956205
252	0x3ec882b0	0.39162207
253	0x3e888402	0.26663214
254	0x3ef8c227	0.48585626
255	0x3d824f8c	0.063628286

backbone.2.bias f4 [64]
0	0x3cd9061d	0.026492173
1	0xbecf01d3	-0.4043108
2	0x3e97fde0	0.2968588
3	0x3d95ee63	0.07320859
4	0x3ed72109	0.4201739
5	0x3eeba8a8	0.46027112
6	0xbe12cb12	-0.14335278
7	0x3faed580	1.3658905
8	0xbdc6d8d3	-0.09709325
9	0xbd86d09b	-0.06582757
10	0xbef25e6e	-0.4733767
11	0x3e7a9a38	0.24472892
12	0x3e51e3f3	0.20497112
13	0xbe25c478	-0.16188228
14	0x3f290ebf	0.66038126
15	0x3f27dda4	0.6557257
16	0xbe0081e6	-0.12549552
17	0x3e193251	0.149606
18	0x3ea4af43	0.32164964
19	0x3ed923b9	0.42410067
20	0x3e2a778c	0.16647166
21	0xbe42958f	-0.19002365
22	0x3f224a06	0.633942
23	0x3d0266fd	0.0318365
24	0x3e840622	0.2578593
25	0x3f1b1f94	0.6059506
26	0x3e875fb2	0.26440197
27	0x3dc71633	0.09721031
28	0x3f962237	1.1729192
29	0xbc3876b1	-0.011258767
30	0x3ea46946	0.32111567
31	0x3eab3b6e	0.3344378
32	0x3d61c88e	0.055122904
33	0x3d5c5c93	0.053799223
34	0xbc0939a5	-0.00837556
35	0x3e6d2ffc	0.23162836
36	0x3def91da	0.11697741
37	0x3ea83b67	0.3285782
38	0x3ec085c4	0.37602055
39	0xbd8131c9	-0.06308324
40	0xbe3d131a	-0.18464318
41	0xbd03ba76	-0.032160245
42	0x3f2311e4	0.63699174
43	0xbd88a472	-0.066719905
44	0xbe474c1e	-0.1946263
45	0xbf39ff5e	-0.72655284
46	0x3e0064bf	0.12538432
47	0x3fda6915	1.7063318
48	0x3dfa7ccf	0.122308366
49	0xbe639abd	-0.22226997
50	0x3d7de372	0.061984487
51	0xbe055e53	-0.13024263
52	0x3eb02b64	0.34408104
53	0x3d4d8197	0.050172415
54	0xbeea1e99	-0.4572647
55	0xbc84c1ce	-0.016205695
56	0x3e80ca17	0.25154182
57	0x3e8a6c3e	0.27035707
58	0x3f0bc5cb	0.54598683
59	0x3d9b5283	0.07584097
60	0xbd0d8927	-0.034554627
61	0x3e9504b0	0.2910514
62	0xbe40ba7b	-0.18821137
63	0x3eef4192	0.46729714

backbone.4.weight f4 [4, 64]
0	0x3db3a1bc	0.08771083
1	0xbf56504a	-0.8371626
2	0xbf86414a	-1.0488675
3	0xbeee8d18	-0.4659202
4	0xbf8d00ed	-1.1015908
5	0x40370ca2	2.860146
6	0x3d143913	0.036187243
7	0x40017a86	2.0231032
8	0xbd63292c	-0.055459186
9	0xbf668f90	-0.9006281
10	0xbf5fe372	-0.8745643
11	0xbf4d5536	-0.80208147
12	0x3c751e65	0.01496086
13	0x3c1531c8	0.009106107
14	0xbed77ac0	-0.42085838
15	0xc0042622	-2.0648274
16	0xbcab8260	-0.020936191
17	0xbef6a019	-0.4816902
18	0xbebe3503	-0.3714982
19	0xbda2033f	-0.079107754
20	0xbf7178f9	-0.94325215
21	0xbf26d5d9	-0.65170056
22	0x3fef46b1	1.8693448
23	0x3fbeb615	1.4899317
24	0xbf012557	-0.504476
25	0xbfd91b72	-1.6961501
26	0xbf196b17	-0.5992903
27	0xbf11de67	-0.56979984
28	0xbe81b9cc	-0.25337064
29	0xbfde8d9a	-1.7386963
30	0x401957e8	2.3959904
31	0xbfed0c59	-1.8519393
32	0x3d05059c	0.032476053
33	0xbf409bbb	-0.75237626
34	0xbe0dd1a8	-0.13849509
35	0xbe87daa4	-0.26533997
36	0xbf1f788b	-0.6229331
37	0xbfc37bee	-1.5272195
38	0xbf577944	-0.8416941
39	0xbff4cefa	-1.9125664
40	0x3d661abb	0.056177836
41	0xbf9e02d6	-1.2344615
42	0x3f5c0d5d	0.8595789
43	0xbd13916e	-0.036027364
44	0xbf4a0fbc	-0.7893026
45	0xbf021c77	-0.50824684
46	0xbf4d1d90	-0.80123234
47	0x3ff04038	1.8769598
48	0xbf7a03fb	-0.97662324
49	0x3e3718f3	0.17880611
50	0xbf5c2568	-0.8599458
51	0xbdec2f0c	-0.11532411
52	0x401d3da6	2.4568877
53	0xbdfb3125	-0.12265233
54	0xbf67933e	-0.9045905
55	0xbd87ed40	-0.06637049
56	0xbf2618ab	-0.6488139
57	0xbf5c078b	-0.8594901
58	0x3fc1bca2	1.5135691
59	0xbd0a108f	-0.033707198
60	0xbd2d8914	-0.042367056
61	0xbf8f4ef1	-1.1195966
62	0xbde7f04a	-0.113251284
63	0x3fbddf9a	1.4833863
64	0xbdd61d46	-0.10454802
65	0xbf6990f9	-0.91236836
66	0xbf86e36f	-1.0538157
67	0xbe4ffefe	-0.20312116
68	0xbf80262d	-1.001165
69	0x40407b4c	3.0075254
70	0x3d3ce185	0.04611351
71	0x400ac5f3	2.1683319
72	0xbda7dc12	-0.08196272
73	0xbf381966	-0.71913755
74	0xbfb90826	-1.4455612
75	0xbf572ed1	-0.8405581
76	0xbebed335	-0.37270513
77	0x3c7c65e5	0.015405153
78	0xbf1d75e4	-0.6150801
79	0xbf98ec4d	-1.1947113
80	0x3ddfd996	0.10930173
81	0xbeea8eff	-0.45812222
82	0xbf2c3229	-0.6726404
83	0x3f0b9f61	0.5454007
84	0xbf36ed9c	-0.71456313
85	0xbf0e7fed	-0.5566395
86	0x3fe5a470	1.7940807
87	0x3fcc52da	1.5962784
88	0xbeade16c	-0.33961046
89	0xbfd5fc5d	-1.671764
90	0xbf368734	-0.71300054
91	0xbf36f4de	-0.7146739
92	0xbf3b4abe	-0.7316092
93	0xbf5d6dfa	-0.86495936
94	0x401ad7e6	2.4194274
95	0xbf8bead9	-1.0931045
96	0xbc642cdb	-0.01392671
97	0xbf61622c	-0.88040423
98	0x3dc5f484	0.09665778
99	0xbd0acb43	-0.03388525
100	0x3da88c86	0.08229928
101	0xbf96b86f	-1.1775035
102	0xbeb58305	-0.35451522
103	0xc04d1581	-3.2044375
104	0x3d4943e3	0.049137007
105	0xbfa65f37	-1.2997807
106	0x3f688976	0.9083475
107	0xbf63707b	-0.88843507
108	0xbfda68d2	-1.7063239
109	0xbf3dc332	-0.7412597
110	0xbf778299	-0.9668365
111	0x3fda6b34	1.7063966
112	0xbfb7c26c	-1.4356208
113	0x3f8abc4f	1.0838717
114	0xbfa3a755	-1.2785441
115	0x3dcfdcaa	0.1014951
116	0x401987f5	2.3989232
117	0x3d208a3a	0.039194323
118	0xbee7ff95	-0.4531218
119	0x3d76b040	0.06022668
120	0xbf3ef8a9	-0.74598175
121	0xbf0ab43c	-0.54181266
122	0x3fd81936	1.6882694
123	0x3d0da4d0	0.034581006
124	0xbba0422c	-0.004890701
125	0xbf7047d5	-0.93859607
126	0x3b8a3e5a	0.0042188587
127	0x3fc9930e	1.5748003
128	0x3d679284	0.056536213
129	0xbf3ae4a6	-0.7300514
130	0xbf8f2807	-1.118409
131	0xbe8e8ef5	-0.27843443
132	0xbfba1511	-1.4537679
133	0x4052f25a	3.296042
134	0x3d0e2208	0.034700423
135	0x40071f16	2.1112723
136	0x3cb34002	0.021881107
137	0xbf0d7d70	-0.5526953
138	0xbfbb16df	-1.4616355
139	0x3f0bab47	0.54558223
140	0x3f2243bd	0.6338461
141	0x3d674461	0.056461696
142	0xbf1da231	-0.6157561
143	0xbfeea548	-1.864419
144	0x3d2a738a	0.041614093
145	0xbf107dee	-0.56442153
146	0xbf306484	-0.68903375
147	0xbf34c266	-0.7060913
148	0xbf3dd25d	-0.74149114
149	0xbf35f899	-0.71082455
150	0x4004774c	2.0697813
151	0x3f539d04	0.8266146
152	0xbf2160c1	-0.6303826
153	0xbfb34353	-1.4004921
154	0xbe4f2423	-0.20228629
155	0xbeee426d	-0.46535054
156	0xbeef4eeb	-0.46739897
157	0xbfcbf228	-1.5933275
158	0x4025e794	2.5922594
159	0xbfb8f442	-1.4449542
160	0x3d72d401	0.059284214
161	0xbe0a5a93	-0.13511114
162	0x3c083095	0.008312364
163	0xbf3eef3c	-0.7458379
164	0xbfa1a357	-1.2627972
165	0xbfb3c923	-1.4045757
166	0xbf8d5402	-1.1041262
167	0xc004c84d	-2.0747254
168	0x3db097b6	0.086226866
169	0xbf5c2171	-0.8598853
170	0x3fa86693	1.3156303
171	0xbf0df2f7	-0.5544886
172	0xbfb0020d	-1.3750626
173	0xbe978ea2	-0.29601008
174	0xbfbbdce3	-1.4676784
175	0x3fde0cd0	1.734766
176	0xbf58d153	-0.84694403
177	0x3e6564de	0.22401759
178	0xbf8537e1	-1.0407678
179	0xbdf44caf	-0.11928689
180	0x40313978	2.7691326
181	0xbdeeb154	-0.116549164
182	0x3ca09097	0.019600196
183	0xbdaf597a	-0.08561988
184	0xbf4ec95f	-0.8077602
185	0xbf73cbdc	-0.9523294
186	0x3f9e9339	1.2388679
187	0x3d83f7eb	0.06443771
188	0x3cbc4338	0.022981271
189	0xbeb450bd	-0.35217848
190	0x3d75b832	0.059990115
191	0x3fc4d6b1	1.5378019
192	0x3daaca01	0.083393104
193	0xbf8ca79b	-1.0988649
194	0xbf9e32bf	-1.2359236
195	0xbf1dfb84	-0.6171191
196	0xbf78c33b	-0.971729
197	0x40330383	2.7970893
198	0xbe005bfb	-0.12535088
199	0x3fdef7d0	1.7419376
200	0x3ca29960	0.019848526
201	0xbf2d217f	-0.67629236
202	0xbfaf1de0	-1.3680992
203	0x3d106ba6	0.03525891
204	0xbda6e65e	-0.08149408
205	0xbd158256	-0.03650125
206	0xbef939db	-0.48676953
207	0xbde43096	-0.111420795
208	0x3da408e8	0.08009511
209	0xbecabc33	-0.3959671
210	0xbea983ee	-0.33108467
211	0xbf2d8086	-0.67774236
212	0xbf05aad4	-0.5221379
213	0xbfb0164c	-1.3756804
214	0x3ff6dccf	1.9286135
215	0x40005155	2.004964
216	0xbf1a2870	-0.6021795
217	0xbfb33506	-1.4000556
218	0xbf2627eb	-0.6490466
219	0xbed2b51a	-0.41153795
220	0x3efe23e3	0.49636754
221	0xbfa8b57b	-1.3180383
222	0x40152a81	2.3307192
223	0xbfd7106e	-1.6801889
224	0x3cc5a098	0.024124429
225	0xbf4e0961	-0.8048306
226	0xbd758a85	-0.059946556
227	0xbede23ff	-0.43386838
228	0xbff0ef54	-1.8823037
229	0xc012e75f	-2.2953718
230	0xbfa663d5	-1.2999216
231	0xbfae1435	-1.3599917
232	0xbcbefcc7	-0.023313893
233	0xbf5a948d	-0.8538292
234	0x3eed0746	0.46294612
235	0x3fc6335c	1.5484424
236	0x3e1dc067	0.15405427
237	0xbed8da04	-0.42353833
238	0xbf661e67	-0.8989014
239	0x401aa3f1	2.4162562
240	0xbed893c8	-0.42300248
241	0xbe357256	-0.17719397
242	0xbf8c86d7	-1.097865
243	0x3dd41462	0.1035545
244	0x400e5934	2.2241945
245	0x3d0b3b6f	0.033992227
246	0xbf433997	-0.7625975
247	0xbdf10b5c	-0.11769745
248	0xbf0dd482	-0.55402386
249	0xbf7865c1	-0.97030264
250	0x3fd69430	1.6763973
251	0xbde21300	-0.1103878
252	0x3dc5e594	0.09662929
253	0xbf67a3d8	-0.9048438
254	0xbdace289	-0.08441646
255	0x3fb95cb1	1.4481412

backbone.4.bias f4 [4]
0	0x3fbc3093	1.4702324
1	0xbefa533e	-0.48891634
2	0x3ec721b1	0.38892892
3	0x3fbd3ebd	1.4784771
