models/dqn_state_model250000.pt (torch, 21911 bytes, 6 tensors)

backbone.0.weight f4 [64, 8]
000000 b4 e1 78 3f f0 c8 bd bf c3 6f 1f 3c 02 91 f8 3f
       0.97219396 -1.4826946 0.009731236 1.9419253
000010 54 fe 9d bf 80 d7 a8 3e 26 3a 16 3d 8a 69 38 3f
       -1.234324 0.32976913 0.03667655 0.7203604
000020 59 f7 b5 be 2c 2b 49 bf 8e 06 d8 bd 5e ef e9 bf
       -0.35540274 -0.785815 -0.10548125 -1.8276174
000030 06 9c 0b bf 44 a9 4b 3e 48 22 96 3c 1c d6 b0 3d
       -0.5453495 0.19888788 0.018326893 0.08634588
000040 e7 d5 8d 3f a2 7e 4b 3e e8 02 04 3f de 5e da bd
       1.1080903 0.19872525 0.51566935 -0.10662626
000050 a0 7f 96 3c e1 d7 81 bf ef 1b b0 be d9 0b 76 3e
       0.018371403 -1.0144006 -0.34396312 0.24027957
000060 84 d9 44 be aa 81 fa be e8 55 db bf 68 94 75 be
       -0.192236 -0.4892705 -1.7135592 -0.23982394
000070 7e bf 26 3f bd ed b8 be 59 f7 1c 3f 8c 17 ff 3e
       0.65135944 -0.3611888 0.6131492 0.49822652
000080 65 6e 20 40 64 10 18 3e be 6d 69 3f ef 82 5f 3e
       2.506738 0.14850003 0.9118308 0.21827291
000090 be 3b 5a bf 74 e6 96 be f3 aa ec 3c 20 3f 13 bc
       -0.8524741 -0.29472697 0.028890109 -0.008987218
0000a0 0c c3 3a 3f 8f b6 4f 3e 4f 76 86 3f 3a ed 7d 3f
       0.7295387 0.20284484 1.0504855 0.99190104
0000b0 ab 88 7c bf 4d 53 80 be 20 92 c6 bc 1b e1 f8 be
       -0.9864604 -0.25063553 -0.0242396 -0.48609242
0000c0 ad 13 00 3f a5 60 95 bc 01 9c 0d 3f fa 8b 8b bf
       0.5003002 -0.01823456 0.5531617 -1.0902092
0000d0 7f b9 f8 be 36 2c b7 3e 20 3c 35 bd b7 28 21 3f
       -0.48579022 0.35775918 -0.044246793 0.6295275
0000e0 0c 69 a7 3c 6e 1c 1c bc ee ee 03 be 5d 1e 6b be
       0.020435832 -0.009528263 -0.12884113 -0.22960801
0000f0 c1 eb 27 40 ff 51 ae be fc 42 05 be 30 e0 e0 be
       2.6237643 -0.34046933 -0.13013834 -0.4392104
000100 55 6d 41 3d fe 98 8a 3d a6 56 3d 3f 3e e1 8d bf
       0.047223408 0.06767462 0.7396034 -1.1084363
000110 0c 8a 89 bf 66 26 a9 bf a3 7d 14 be d0 fc c5 3e
       -1.0745254 -1.3214843 -0.14501052 0.38669443
000120 d8 d9 16 3f f4 55 68 3e 44 83 cc bf 74 9f 61 bf
       0.58926153 0.22689039 -1.5977559 -0.8813393
000130 c7 bc 44 bd 29 26 f1 3e 57 11 17 3f 8c 06 22 bf
       -0.048031595 0.47099426 0.59010834 -0.6329124
000140 6a f9 02 c0 20 10 dc be f0 db 61 bf b9 d5 74 bf
       -2.046473 -0.42981052 -0.88226223 -0.95638615
000150 c7 e2 a4 3f 29 77 c3 3d 0c 43 f4 3e 24 34 30 be
       1.2881707 0.09544212 0.47707403 -0.1720739
000160 09 29 99 be b1 85 d4 3b 0c 01 6d be c0 85 23 bf
       -0.2991412 0.006485664 -0.2314493 -0.6387596
000170 37 bd 61 3f d8 48 a4 3f 98 58 64 3f 94 fa 93 be
       0.88179344 1.283473 0.89197683 -0.28902113
000180 e6 e8 b6 bd 89 79 ed 3c 1f 27 4b c0 53 c1 0e 3f
       -0.089311406 0.028988617 -3.1742628 0.5576374
000190 60 d4 1f bd 11 b7 6a 3e eb 1f 3b 3e cb 4e 4d 3e
       -0.039020896 0.22921397 0.18273894 0.20049588
0001a0 91 ea 82 3f 2e 40 d8 3e f6 d0 fe 3d 12 df c6 3e
       1.0227834 0.42236465 0.124422 0.38842064
0001b0 f1 4e ab 3f bb f7 9a bf 95 1e 3c 3d d9 b5 b7 bd
       1.3383466 -1.2106851 0.045927603 -0.089702316
0001c0 bc 60 7b 3f c2 76 11 bf 7e 9d f2 bc 21 47 ca be
       0.9819448 -0.56821835 -0.029616114 -0.39507392
0001d0 02 86 7c 3f 44 78 19 3e a0 3d 21 be ae 6a 43 bf
       0.9864198 0.14987284 -0.15746164 -0.76334655
0001e0 52 82 72 bf 7e 8d ad be 77 fc 35 bf ca 12 b0 bf
       -0.94730103 -0.33897012 -0.71088356 -1.3755734
0001f0 66 1a 2c bf 9c e0 08 be bf a2 31 3d 8a 69 a0 3c
       -0.6722778 -0.13366932 0.043368097 0.019581575
000200 2f 4f ee 3f 16 84 17 bf 0a 75 88 3f c2 5a 52 bf
       1.8617915 -0.5918592 1.0660717 -0.82169735
000210 93 ae 13 bf 8e 95 be 3b 6f 8f 05 be 02 27 7d 3d
       -0.57688254 0.005816168 -0.13042997 0.06180478
000220 d8 5d f0 bf 51 67 a1 3e cb ee 46 bf dd 1b 38 bf
       -1.8778639 0.31524137 -0.7770812 -0.71917516
000230 05 08 0f bf 23 94 9e be eb 2d 2b 3f 33 9f 2f bd
       -0.5587161 -0.30972394 0.6686694 -0.042876434
000240 34 68 f7 3e f4 b7 ce be 65 55 39 3f 09 71 99 3f
       0.48321688 -0.4037472 0.72395927 1.198762
000250 5b f6 95 3f fd c1 b9 3e 77 06 1d 3e 5a 7a 22 3f
       1.1715807 0.36280814 0.15334497 0.63467944
000260 48 5f e6 3e a0 0f 88 bf 6c 3e 1d bf 26 19 a5 bf
       0.4499457 -1.0629768 -0.61423373 -1.28983
000270 5a cb 3f 3e 4d 3c 3e 3e 0a fb 35 3f 1e 52 4e 3d
       0.18729916 0.1857769 0.7108618 0.05037128
000280 ae 6c 08 40 d3 cc 2e 3f 71 0c 1c be 31 d2 c2 be
       2.1316333 0.68281287 -0.15239121 -0.38050988
000290 80 1f ac bf e1 9c c2 be 74 a5 c6 bc 9b dd d7 3e
       -1.3447113 -0.38010314 -0.024248816 0.4216126
0002a0 ee cf 6a be 35 55 85 bf 51 f8 79 3f d4 ac 0a bf
       -0.22930881 -1.0416628 0.97644526 -0.54169965
0002b0 06 e6 af 3f 08 00 a6 3f 69 56 76 3f 0b 52 02 3f
       1.3742073 1.296876 0.962256 0.5090644
0002c0 ef 70 7e 3e eb ec 05 3e 93 9e 87 3f da 96 da bf
       0.24847768 0.13078658 1.0595268 -1.7077286
0002d0 0d c1 75 be 75 41 bb 3e 0b e2 a7 3e 38 d9 85 be
       -0.23999424 0.36573377 0.32789645 -0.26142287
0002e0 dd f6 9b 3f 2c e4 80 3e 67 68 3a 3f ed 3e a8 bd
       1.2184712 0.2517408 0.72815555 -0.08215127
0002f0 30 84 75 3e 6a d1 83 3e c8 5b 83 bf d7 a5 1b be
       0.23976207 0.25745708 -1.0262384 -0.15199982
000300 7a f2 7f 3f 2b 8f 8f bd b4 0e 0a 3f ac af 14 3f
       0.99979365 -0.07009729 0.53928685 0.58080554
000310 e1 1d a8 3e 44 7e b5 3e d8 fe 2f 3f 89 80 43 3f
       0.32835296 0.35447896 0.68748236 0.76368004
000320 ce d7 a1 be a6 31 27 be f7 24 c1 be a7 a0 d2 be
       -0.31609958 -0.16327533 -0.37723514 -0.41138193
000330 29 17 0b 3e a0 5c 84 bf eb fd 09 bf 0d 05 d0 bf
       0.13583054 -1.0340767 -0.53903073 -1.6251541
000340 04 8c 31 3f 66 6c 48 bd f7 5d c0 3e 22 bc 03 bf
       0.6935427 -0.0489315 0.3757169 -0.5145894
000350 df 00 e7 bf b9 a0 32 bf 90 cb fb be 5a 1e 7c 3f
       -1.8047141 -0.69776493 -0.49178743 0.9848381
000360 b6 bc af bd cf 92 6d bd 6a 38 ee be a4 52 12 bf
       -0.08580916 -0.058001336 -0.46527416 -0.5715735
000370 61 0b ab bf b9 2d 16 bf e3 e5 1f bf 08 2d c6 be
       -1.3362848 -0.5866352 -0.62460154 -0.3870623
000380 2c e5 bd 3d d9 79 a1 3e 64 b4 9c bf c6 df 42 3e
       0.09272227 0.31538275 -1.2242551 0.19030675
000390 8e 6b 06 3d 54 a6 c5 bf d4 da 56 bf 75 d3 61 bd
       0.032817416 -1.5441384 -0.83927655 -0.0551333
0003a0 d8 40 3d be ad b7 49 3f 3a 98 92 3e c1 a8 42 3f
       -0.18481767 0.7879589 0.28631765 0.7603875
0003b0 7a dd 03 3f 79 d7 69 bf a8 16 0c c0 f1 8d 9a bf
       0.5150982 -0.9134441 -2.1888828 -1.2074567
0003c0 35 92 3d 3f 8e 52 85 3e a6 ca dc 3e bc 77 82 3e
       0.7405122 0.26039547 0.43123358 0.25481975
0003d0 09 69 c1 3e 0d c7 29 bf 3f b5 85 bf 51 66 52 be
       0.37775448 -0.6631935 -1.0445937 -0.20546843
0003e0 fa cf bb 3e 9f 4b 75 be 4f 09 13 c0 31 bd e8 bf
       0.3668211 -0.23954628 -2.2974432 -1.8182737
0003f0 a3 f1 b0 3f a0 fb 3f be 7e 56 1b bd 7c 55 c9 bd
       1.3823742 -0.18748331 -0.037924282 -0.09830758

backbone.0.bias f4 [64]
000000 06 d6 09 3f 10 cf 30 bf 57 15 87 bf 67 9f 01 bf
       0.538422 -0.6906595 -1.0553387 -0.50633854
000010 5c 69 fb bd 07 91 8b bf cc 6c 05 3f 67 99 6a bd
       -0.12275955 -1.0903634 0.52119136 -0.057275202
000020 f6 4d 6c be 89 a4 9a 3e 4a 63 b7 be 6d c2 70 bf
       -0.23076615 0.30203655 -0.3581794 -0.9404667
000030 82 ac 16 bd a6 d4 1a be 71 08 2b 3e 7e 47 fb 3e
       -0.03678561 -0.15120181 0.16702439 0.49077982
000040 5d e9 39 be bf f6 3f bc e3 a7 c4 be d1 a8 08 bf
       -0.18155427 -0.011716544 -0.38409337 -0.53382593
000050 d6 13 06 bf 97 8d 05 bf e1 ca 32 be c9 9d 68 be
       -0.5237402 -0.52169174 -0.17460205 -0.2271644
000060 bc 6f 79 bf a1 ac 89 3e ec 81 16 bf cf 94 09 3f
       -0.9743612 0.26889518 -0.58791995 0.5374269
000070 62 87 27 be 16 d5 4b 3f c3 32 a0 bf 54 0d d9 3e
       -0.16360238 0.7962202 -1.2515491 0.4239298
000080 15 6b 0e 3f 00 f7 a0 3f 22 33 42 3f 1f bb 43 3c
       0.55632144 1.2575378 0.7585927 0.011946469
000090 aa 06 bd 3f 63 da e8 3d 58 44 10 bf 47 7d ac 3e
       1.4767659 0.11369779 -0.56354284 0.3368933
0000a0 a5 52 2a bf 56 58 1c 3f 1b 40 c9 be c3 d3 a7 be
       -0.66532356 0.6107229 -0.3930672 -0.3277875
0000b0 36 0f 29 bf 3b f0 cb 3e 5f c4 5c 3e 42 02 78 3f
       -0.66038835 0.3983172 0.21559285 0.96878445
0000c0 ca 8c 0a 3f 42 63 9a 3e f7 d5 e2 3e ad a5 67 bf
       0.5412108 0.30153853 0.44303867 -0.90487176
0000d0 41 e2 fa be dd d8 21 bf 9a ed 70 3e 17 09 2a bf
       -0.49000743 -0.6322153 0.23528138 -0.6642012
0000e0 d6 68 20 3f 35 2f 34 bf f4 a5 eb be da 25 d5 3e
       0.62659967 -0.7038453 -0.4602505 0.4163044
0000f0 73 4e 6a 3d ee 40 23 bf 49 83 a6 3f a3 9a 02 be
       0.05720372 -0.6377095 1.3008815 -0.12754302

backbone.2.weight f4 [64, 64]
000000 2e de 9d be e0 da c4 bf 1c 5c 54 3f 7a e6 06 3f
       -0.30833572 -1.5379295 0.8295305 0.5269543
000010 86 89 0b c0 7f 63 ac bf ca 7c 52 3e 1a 48 37 3e
       -2.1802688 -1.3467864 0.20555416 0.17898598
000020 a7 7d b5 3d 73 cc a4 3e 1f 50 5b c0 10 e1 a3 bf
       0.08861857 0.32187232 -3.4267652 -1.2803059
000030 fb 09 24 3f 18 26 7b 3f c8 e8 fd be 31 38 65 3e
       0.6407773 0.98105 -0.4959166 0.22384717
000040 69 5c 54 c0 75 1c 93 3d e7 3f 0f 3f cc a1 42 be
       -3.3181403 0.07183162 0.5595688 -0.19007033
000050 2c d5 10 c0 5e ba 38 3e e9 11 14 3e b5 50 f1 bf
       -2.263011 0.18039843 0.14459957 -1.8852755
000060 75 40 b1 bf 6f aa 3d 3e 62 24 28 bf 09 35 d1 3e
       -1.3847796 0.18522047 -0.65680516 0.40860775
000070 14 99 55 be 0d 56 a7 be a7 53 77 3e 36 77 6a 3e
       -0.20859176 -0.3268284 0.24153005 0.22897038
000080 cf 95 4d 3f fe a0 97 bd 10 4f 29 3e 34 27 fe bc
       0.80306715 -0.07403754 0.16534066 -0.031024553
000090 e2 0d 06 3f 84 db e1 bf f6 30 55 3f ea dc 39 3f
       0.52364933 -1.7645116 0.83277833 0.72602713
0000a0 06 6e 46 bf 14 0c e8 be 30 bf c8 be cd 84 db 3f
       -0.7751163 -0.45321715 -0.39208364 1.7149903
0000b0 45 56 ab 3d e0 3b 33 3f bc d0 3b 3f 25 98 89 bc
       0.08366064 0.70013237 0.7336538 -0.016796181
0000c0 bc 43 ac bf 86 4c 26 3e ad 82 96 3e af 87 e1 3e
       -1.3458171 0.16240129 0.29396573 0.4404883
0000d0 14 bc 7e be a6 33 63 3f 23 5b 97 3d 14 05 25 3f
       -0.24876434 0.88750684 0.0739043 0.64460874
0000e0 a6 a5 8b 3e 57 05 f2 bf df 72 a8 3d 45 a9 a1 be
       0.27274817 -1.890788 0.08225035 -0.31574455
0000f0 90 40 d8 be b8 0f aa bf 05 56 54 3c 01 68 c2 be
       -0.42236757 -1.3286047 0.012959962 -0.37969974
000100 af 4a 4b bf 92 7c 72 3f 27 df b2 be 73 92 e8 3e
       -0.79410833 0.9472133 -0.34935877 0.45424232
000110 5e 0f da be 9e 8a ec 3c a0 32 0b be 4a 49 00 3f
       -0.4258985 0.028874692 -0.1359353 0.5011183
000120 eb 8e cf 3e 14 1e 6f be ac dc 95 3e d5 a0 a7 3e
       0.40538725 -0.23351318 0.29269922 0.32739893
000130 e0 83 cf 3e c6 93 20 bd 5f ab d0 3e 20 9b 48 3f
       0.405303 -0.039203428 0.40755746 0.783617
000140 17 38 81 3f bd 3d 09 3f 00 5f bb be 03 2a 1e 3f
       1.0095242 0.5360983 -0.36595917 0.61782855
000150 b6 08 75 3e 9a 98 31 bd 82 e2 82 3d c2 c3 bf 3e
       0.23929104 -0.043358423 0.06390859 0.3745404
000160 f6 99 47 3f 56 8e 49 3f be e6 14 3f 79 f4 20 3f
       0.779693 0.7873281 0.58164585 0.62873036
000170 8e a6 83 3f 02 1c c0 bf e5 76 d9 be 6b 2c 62 3d
       1.0285203 -1.5008547 -0.42473522 0.05521814
000180 78 4d 3a bf 8f aa 2a bf 23 e7 9e be d5 fc eb be
       -0.7277446 -0.666665 -0.31035718 -0.46091333
000190 6b 2e 81 bf 1b df d0 3c 92 f1 77 be 90 2a 61 bd
       -1.0092291 0.02549701 -0.24213246 -0.05497223
0001a0 1c 0b 9f 3f 02 7a 36 3f 57 5c 72 3e df d1 04 3e
       1.2425265 0.7127992 0.23668037 0.12970684
0001b0 ff 3e 9e bd 1e b6 b2 3e 5b 3a 54 3f 0f 80 2a bf
       -0.07726859 0.3490457 0.82901543 -0.6660165
0001c0 dc 09 88 3d 0e da 1b 3f a5 86 e7 bf d2 de 33 3f
       0.066425055 0.608796 -1.8087965 0.7026187
0001d0 5e 54 ee 3d a7 bf 4a 3f fd ee 1b 3c 4e 2a 04 3f
       0.116371855 0.7919869 0.009517428 0.5162705
0001e0 a4 7a 92 3f f4 9c 7f 3e 7b ee 70 be a0 ca 06 3f
       1.1443677 0.24962217 -0.23528473 0.5265293
0001f0 cb 6c 75 3f 3d 00 a5 3e cc 3e 25 bf 6c 21 73 3f
       0.9586913 0.32226744 -0.64548945 0.9497287
000200 8e a9 f0 bf e3 ef 48 3f e8 da 1f 3f 7a 62 11 3d
       -1.8801744 0.7849104 0.624434 0.035494305
000210 01 52 ee bd 9f 06 d2 bd fb c0 57 bc d6 c8 50 3e
       -0.11636735 -0.10255169 -0.013168569 0.20389113
000220 7e a0 a8 3f 2e c2 09 3f e3 40 92 be 2c be 5a 3e
       1.3173978 0.5381192 -0.2856513 0.21361607
000230 f8 74 8a 3f 3e 4f ec be 2c fe 1d 3e ae 28 94 3f
       1.0816946 -0.46154207 0.1542899 1.1574914
000240 0b 09 7c 3f b4 96 09 3f 8e ab 19 c0 7a c6 3d 3f
       0.984513 0.5374558 -2.4010959 0.74130976
000250 17 cb a1 3d 58 64 cc bf df 5c 6a 3f 72 1e e1 be
       0.079000644 -1.5968122 0.9154796 -0.4396854
000260 e3 f2 b3 3e 58 03 18 3f c9 31 b1 3f 12 f8 1f 3f
       0.35146245 0.593801 1.3843318 0.624879
000270 09 60 c9 bc 75 6b d0 bf 77 25 4a 3f 21 70 e2 3e
       -0.024581926 -1.6282793 0.78963417 0.44226173
000280 cc da 2e 3e 9d 4c 51 bf 6c fb b1 bd 25 9c 83 bd
       0.17075652 -0.8175753 -0.08690533 -0.064262666
000290 2e 42 25 bf a6 cf d9 3e ca 4b 52 be aa 5b 02 3f
       -0.6455411 0.42541236 -0.20536724 0.5092112
0002a0 26 b9 4d 3f 56 a8 89 3f db 0d 8b 3e d6 87 a9 3e
       0.8036064 1.0754497 0.27159008 0.33111447
0002b0 5a 8d 11 bf d1 c1 e3 3e 93 80 ca 3e d6 d4 fc 3e
       -0.5685631 0.44483808 0.3955122 0.4938113
0002c0 73 50 3d be 62 52 26 3f 01 3d 33 c0 89 67 e0 be
       -0.1848772 0.64969456 -2.8005984 -0.4382899
0002d0 8f 16 34 3f c7 51 7f 3f f2 90 88 bf 4b f3 5b bf
       0.7034692 0.9973416 -1.0669234 -0.8591811
0002e0 90 e6 d4 3f 1f 8a 6f 3f 73 38 85 3e cf 96 45 3f
       1.6632862 0.9357013 0.2601963 0.7718324
0002f0 57 d6 25 3f 34 8d 81 3f e0 22 ea 3e 3d c8 4c 3c
       0.6478018 1.0121217 0.45729733 0.012498912
000300 6a a9 0c bf 19 fb 8f 3f 1f 25 98 3f d7 5b 4c 3e
       -0.54946005 1.1248504 1.1886328 0.19956909
000310 b6 23 7d 3e 6c 75 05 40 75 ca 37 be f2 39 84 be
       0.24720654 2.0852919 -0.17948325 -0.2582546
000320 d7 16 3c 3f 47 93 53 be 5b d0 e7 3e 4a 31 13 3f
       0.7347235 -0.2066165 0.4527615 0.57497084
000330 e6 a5 21 3f 40 28 a9 3d db 27 47 3f d4 0e e7 3e
       0.63143766 0.0825963 0.7779519 0.451285
000340 9d c9 7f 3f 8b e0 b2 3c a7 42 c3 3e fd 0c e9 3e
       0.9991701 0.021835586 0.3813679 0.45517722
000350 55 d1 06 3f 57 9b 99 bd e7 a2 7c bd 2b c7 3d 3f
       0.52663165 -0.07500332 -0.061678793 0.7413203
000360 ae e4 d8 3f 5c 75 59 3f 9a 64 66 3f 9a a2 8f 3b
       1.6944788 0.849447 0.89997256 0.0043833973
000370 5c 78 28 3f 30 aa 4e bf 1c 8e b2 3e 7f 42 87 bc
       0.65808654 -0.80728436 0.34874046 -0.0165112
000380 b2 f1 94 bf c7 4d 3c bf ce c3 95 3d 2b e0 41 bf
       -1.163626 -0.7355618 0.073127374 -0.7573268
000390 40 31 95 bf be 2d b0 3e 4c f8 50 bd 73 ce 1f 3f
       -1.1655655 0.344099 -0.051018044 0.6242439
0003a0 f1 76 73 3f 4e 5e 64 3f 84 85 3c 3f 5a cd 1a 3e
       0.95103365 0.892064 0.7364123 0.15117398
0003b0 f5 f0 4b 3e f4 0c 17 3d 5a e3 58 3f 89 57 d6 be
       0.19916137 0.036877587 0.8472191 -0.4186366
0003c0 09 3c e5 3d fb c6 0d 3f 3e 62 8b bf 39 13 b9 3f
       0.111930914 0.55381745 -1.0889356 1.4458991
0003d0 0d 7d 66 be e2 e7 89 3f e5 98 03 bf 04 af 0a 3e
       -0.2250864 1.077389 -0.51405174 0.13543326
0003e0 1b 1f 28 3f e0 88 9e 3f 10 05 be bc a7 0a 5c 3f
       0.65672463 1.2385521 -0.023195773 0.85953754
0003f0 1f c4 23 3f 09 7e d8 3f 47 98 24 be cd 01 4d 3f
       0.6397113 1.6913463 -0.16073714 0.8008087

backbone.2.bias f4 [64]
000000 0d d3 6c 3f 54 3e 55 bf 20 c1 44 bc cc 1e 86 bf
       0.9250954 -0.8329823 -0.012008935 -1.0478148
000010 7f 4c 18 3f ca 1c 86 bc d5 e3 b9 bd 80 d4 80 bc
       0.59491724 -0.01637115 -0.09076659 -0.015726328
000020 a3 f9 0f bf ad d7 9c 3e 48 7f 7f bf b1 38 5d bf
       -0.5624029 0.30633298 -0.9980359 -0.8641463
000030 10 8a fe 3e c7 9e cb bd 24 6e 24 3f 14 18 2c 3f
       0.49714708 -0.09942394 0.6423056 0.6722424
000040 ee 27 27 3f 1a d1 60 bf b9 4f 6f be f2 ea ab bd
       0.652953 -0.87819064 -0.23370256 -0.08394422
000050 a4 77 75 bf b0 28 87 3e 63 be 8e 3f a2 ec ce bd
       -0.9588568 0.2639823 1.1151851 -0.10103728
000060 5e b7 2f bf c5 fe 72 bf 50 64 5e bf 2e 3a 6a bf
       -0.6863917 -0.9492 -0.86871815 -0.91495025
000070 05 75 0b 3d 54 1f 79 3d d3 de fc 3d fa d4 70 bf
       0.034047145 0.060820892 0.12347188 -0.94074976
000080 2f 82 92 3f 56 62 57 bf dd 57 31 3e 6e 6c 43 bf
       1.1445979 -0.84134424 0.17318673 -0.76337326
000090 e1 6f 3c bf 59 7d d9 bd 24 76 2a bf d7 15 e5 3e
       -0.73608214 -0.10619611 -0.6658652 0.44743225
0000a0 4b b3 90 3f bc 50 1e bf 7a 17 13 be 2a 24 9e be
       1.1304716 -0.6184194 -0.14364424 -0.30886966
0000b0 45 c9 8d 3c 2b 2d ff 3e 57 ef 54 bf 34 3e 2e 3f
       0.017307887 0.49839148 -0.83177704 0.68063664
0000c0 9d 20 4d bd 69 9e 81 3f a1 32 ac bf 93 5b cd 3f
       -0.05007993 1.0126468 -1.3452951 1.6043571
0000d0 0c cd dd be bc 61 26 bf eb f4 2e 3f 53 50 68 bc
       -0.433205 -0.6499288 0.68342465 -0.014179307
0000e0 d7 d8 8e bf 90 fe 77 bf 27 12 3b 3f 33 7b ac 3e
       -1.1159924 -0.96872807 0.73074573 0.33687744
0000f0 00 cb 36 bb 20 8c 7f bf b0 4c 31 be 3c 55 df bd
       -0.0027891994 -0.9982319 -0.1731441 -0.10904929

backbone.4.weight f4 [4, 64]
000000 84 93 f7 3f d6 d5 1b bf d1 05 58 bf 88 ae 7d bf
       1.9341893 -0.6087316 -0.84383875 -0.9909444
000010 dc dd 68 bf fe 14 6a bd 8d a2 64 bd ac 92 bb bd
       -0.9096353 -0.057148926 -0.055819083 -0.09158835
000020 e9 3c 9a bf 30 6e 82 bf 13 8b 91 bf cd 0f 87 bf
       -1.2049838 -1.0189877 -1.1370567 -1.0551697
000030 3c 27 8e bf 68 da 99 3d bc 67 8b bf 52 c9 e0 3f
       -1.1105723 0.07512361 -1.0891032 1.7561438
000040 82 cd 08 3f ce dc 5b bf b1 09 77 bf f4 d4 a0 bd
       0.5343858 -0.85883796 -0.9649916 -0.078531176
000050 6e 1f 38 bf 3c bd 89 bf 01 86 ab 3f 34 10 32 bd
       -0.7192296 -1.0760875 1.340027 -0.043472484
000060 bc 52 40 bf c9 45 37 bf 37 e0 75 bf ea a4 40 bf
       -0.7512624 -0.7159086 -0.9604525 -0.7525164
000070 38 6d 22 3d e3 e2 f1 be 1f 13 2e bf 95 71 17 bf
       0.03965494 -0.47243413 -0.67997926 -0.5915769
000080 2c 03 7d 3f 4b de 0a bf dd d9 70 3f 22 74 81 bf
       0.98832965 -0.5424544 0.94082433 -1.0113566
000090 43 a4 18 3f 08 d1 8b 3c 7e f6 58 bf 0d ee c0 bf
       0.59625643 0.017067447 -0.8475112 -1.5072647
0000a0 06 cb 04 40 50 dd 52 bf c0 60 89 bd c3 b1 2b bf
       2.0748916 -0.82368946 -0.06707907 -0.6706812
0000b0 4c 65 c5 3d 36 d7 3b bf c0 1d 3e bf ce f3 da 3f
       0.096384615 -0.7337526 -0.74264145 1.7105653
0000c0 f1 62 6e bf b0 cc 4e bf 87 72 85 bf 16 de c0 3f
       -0.9311972 -0.8078108 -1.0425576 1.5067775
0000d0 a9 2d db be ac 30 43 bf 52 9a d1 3f 48 d7 22 bd
       -0.42808273 -0.7624614 1.637522 -0.03975609
0000e0 04 9a 3a bf 38 7b 31 bf 03 be dd 3f cf bb 45 3f
       -0.7289126 -0.6932864 1.7323612 0.772397
0000f0 14 89 2d bd 79 d5 85 bf 6b e7 a6 bd 01 49 e3 bc
       -0.042367056 -1.0455772 -0.08149608 -0.027744772
000100 9b 98 d1 3f 71 98 cc be fd 4b 20 bf d4 5f 68 bf
       1.6374696 -0.39960054 -0.6261595 -0.9077122
000110 c8 4e 40 bf 0a 2a a6 3b 0e e3 a5 3d 27 b5 89 3d
       -0.7512021 0.0050709294 0.08099948 0.06724005
000120 83 13 a7 bf 6f c8 0d bf a4 e0 a6 bf 5d e7 4e bf
       -1.305283 -0.5538396 -1.3037305 -0.8082178
000130 1c b8 6e bf bf b6 86 bc 64 51 9b bf 22 83 e6 3f
       -0.9324968 -0.016444562 -1.2134213 1.8008769
000140 f3 68 0d 3f 25 20 5a bf f2 3f 8b bf d1 20 c9 3d
       0.55238265 -0.852053 -1.087889 0.09820712
000150 45 b0 8d bf 84 fb 15 bf 8e 20 cc 3f 00 5e 8b 3d
       -1.1069418 -0.5858691 1.5947435 0.068050385
000160 f0 cd 9a bf 0e 38 90 bf a7 08 00 bf 70 fc b2 bf
       -1.2094097 -1.1267107 -0.500132 -1.3983288
000170 30 f2 d3 bc 25 00 80 bf ee 84 e0 3d c5 12 a6 bf
       -0.02587232 -1.0000044 0.10962854 -1.2974478
000180 78 e9 5f 3f 1b 80 88 bf f4 a6 92 3f 31 77 9f bf
       0.8746562 -1.0664095 1.14572 -1.2458249
000190 13 f0 3b bf 95 d3 ba 3d 7d 51 9a bf f8 36 c5 bf
       -0.734132 0.09122387 -1.2056118 -1.54074
0001a0 5f 66 0d 40 84 80 9b bf f7 b4 c9 3d ed 55 40 bf
       2.2093732 -1.2148595 0.098489694 -0.7513111
0001b0 bb d9 20 3c c9 ab 8e bf 38 fe 9a bf 1f 3e a9 3f
       0.009817536 -1.1146175 -1.2108831 1.3222083
0001c0 c1 1f 88 bf 4c df 5f bf 97 99 59 bf f6 9c bd 3f
       -1.063469 -0.874501 -0.84999985 1.4813526
0001d0 32 5d e1 3d 65 cd e3 be af 65 c8 3f f6 40 e6 3d
       0.11004104 -0.4449264 1.5656031 0.11242859
0001e0 b5 26 33 bf 05 1d 4d bf 76 6c d9 3f 09 b2 68 3f
       -0.6998094 -0.80122405 1.6986225 0.9089666
0001f0 f4 24 16 bd 09 45 36 bf af 8e 5e 3c 77 ed 0a 3d
       -0.036656335 -0.7119909 0.013583823 0.03391787
000200 07 83 e8 3f 15 0f a0 bf e8 09 1e bf b8 4f 89 bf
       1.8164986 -1.2504603 -0.61733866 -1.0727453
000210 48 e4 94 bf 5b b8 85 3d 06 58 c5 3c ea d8 90 3d
       -1.1632166 0.06529304 0.024089824 0.07072623
000220 d1 34 82 bf e0 b8 a4 3e 4f e9 4d bf 05 40 87 bf
       -1.0172368 0.32172298 -0.80434126 -1.0566412
000230 fc bb 89 bf e0 de 9d 3d 43 3b 7c bf d7 aa b4 3f
       -1.0760493 0.07708526 -0.98527926 1.4114636
000240 5c ec 3c 3f 98 13 69 bf d4 0a 7a bf e8 12 c6 bd
       0.73798156 -0.9104552 -0.9767277 -0.09671575
000250 d3 db a4 bf 40 10 1d bf 2e 1f db 3f 47 a8 03 3d
       -1.2879585 -0.6135292 1.711889 0.032142904
000260 a6 bf 35 bf fe fb ad bf 1f 1a 5d bf dd cb 4a bf
       -0.7099556 -1.3592527 -0.8636798 -0.7921732
000270 d4 91 bd 3c 4d 2f 12 bf 44 5c 7f 3f 46 4c a9 bf
       0.023140825 -0.57103425 0.9975016 -1.3226402
000280 bf 3b a3 3f 58 38 17 bf 32 c8 1b 3e d3 df 67 bf
       1.2752608 -0.5907035 0.15213087 -0.90575904
000290 0b 97 70 3f 2c 79 be bd ad fd 21 bf e8 0c b7 bf
       0.93980473 -0.093004555 -0.63277704 -1.4300814
0002a0 aa d8 0f 40 fa 51 a9 be e4 4b ce 3d e8 f2 91 bf
       2.2475991 -0.33070356 0.10073069 -1.1402254
0002b0 d8 32 cc 3c 22 5f 2f bf 48 78 5a bf 3a 19 a4 3f
       0.024926588 -0.68504536 -0.85339785 1.2820199
0002c0 15 3f 16 bf 5f 0f 83 bf b0 cf 82 bf fb 3c 3e 3f
       -0.58690006 -1.0239066 -1.0219631 0.743118
0002d0 dd 36 b3 bf 8a 03 bd bf c4 04 de 3f 10 98 55 bd
       -1.4001118 -1.4766705 1.7345204 -0.05214697
0002e0 7f 16 6b bf d1 72 9a bf 99 11 92 3f f0 23 e0 3f
       -0.918312 -1.2066289 1.141162 1.7510967
0002f0 38 43 bc 3c 49 f5 7c bf 9c 16 53 3d 4b c0 58 3d
       0.022981271 -0.98811775 0.051535234 0.05291776
000300 6b 9b da 3f af 32 cc bf ad f3 67 bf 47 78 a5 bf
       1.707868 -1.5952967 -0.90606195 -1.2927331
000310 37 26 9d bf 61 81 41 3d 24 b3 08 be ae 52 83 bd
       -1.2277287 0.047242526 -0.13349587 -0.06412254
000320 22 1d 4c bf d6 11 ec be 94 34 8e bf b9 55 87 bf
       -0.79731953 -0.46107358 -1.1109796 -1.0573035
000330 86 e0 aa bf 35 b5 b4 3d a0 ae 33 bf fe 2c e6 3f
       -1.3349769 0.08823625 -0.7018833 1.798248
000340 af 60 46 3e 67 53 0f bf 0e 47 bc bf 35 c7 2b bc
       0.1937282 -0.55986637 -1.4709184 -0.010484506
000350 8b a4 6a bf 34 b3 0f bf 6b 3c 89 3f 1a c4 16 3c
       -0.9165732 -0.5613282 1.0721563 0.009202028
000360 4c 34 15 bf c7 29 e1 be 4a 97 4d bf 2e 91 a4 bf
       -0.58282924 -0.43977186 -0.80308974 -1.2856805
000370 b6 83 e8 3d f4 b3 37 bf 51 e0 e6 be c5 5b 8b bf
       0.11353247 -0.7175896 -0.45093015 -1.0887381
000380 f8 57 86 3f df 91 b5 bf de 18 8e 3f fb a2 1c bf
       1.0495596 -1.4185141 1.1101339 -0.6118619
000390 d7 98 8e be 8e 5a 99 bd af d7 71 bf 6c d4 c3 bf
       -0.27850983 -0.07487975 -0.9446973 -1.5299201
0003a0 5f c3 dd 3f 3c 83 06 bf a2 05 bc bd 28 6e 3e bf
       1.7325248 -0.52544 -0.09180762 -0.74386835
0003b0 d6 2d 81 3d d7 2b 4e bf c2 9e 5e bf f3 d5 00 40
       0.06307571 -0.80535644 -0.86960995 2.0130584
0003c0 01 7c 1a bf 9f 5d 42 bf bc b0 bf bf d8 87 f5 3f
       -0.60345465 -0.75924104 -1.497581 1.9182081
0003d0 35 ab fb be c5 74 6a bf 45 85 e3 3f 24 c7 78 bd
       -0.49154058 -0.91584426 1.7775046 -0.06073679
0003e0 92 e7 91 bf 53 a0 ed be 68 3d 0b 40 9c 0f be 3e
       -1.1398795 -0.4641138 2.175623 0.37121284
0003f0 94 e5 c5 3d 32 61 ab bf 10 ea ed bd 7d 8b 12 3d
       0.09662929 -1.3389037 -0.116169095 0.035777558

backbone.4.bias f4 [4]
000000 3e 34 af 3f c0 c1 59 3e 18 eb 42 3f 4e 83 96 3f
       1.3687818 0.21265316 0.76139975 1.1758821
